node {
  name: "waveform"
  op: "Placeholder"
  attr {
    key: "dtype"
    value {
      type: DT_FLOAT
    }
  }
  attr {
    key: "shape"
    value {
      shape {
        dim {
          size: -1
        }
        dim {
          size: 2
        }
      }
    }
  }
}
node {
  name: "global_step/initial_value"
  op: "Const"
  attr {
    key: "dtype"
    value {
      type: DT_INT64
    }
  }
  attr {
    key: "value"
    value {
      tensor {
        dtype: DT_INT64
        tensor_shape {
        }
        int64_val: 0
      }
    }
  }
}
node {
  name: "global_step"
  op: "VariableV2"
  attr {
    key: "container"
    value {
      s: ""
    }
  }
  attr {
    key: "dtype"
    value {
      type: DT_INT64
    }
  }
  attr {
    key: "shape"
    value {
      shape {
      }
    }
  }
  attr {
    key: "shared_name"
    value {
      s: ""
    }
  }
}
node {
  name: "global_step/Assign"
  op: "Assign"
  input: "global_step"
  input: "global_step/initial_value"
  attr {
    key: "T"
    value {
      type: DT_INT64
    }
  }
  attr {
    key: "_class"
    value {
      list {
        s: "loc:@global_step"
      }
    }
  }
  attr {
    key: "use_locking"
    value {
      b: true
    }
  }
  attr {
    key: "validate_shape"
    value {
      b: true
    }
  }
}
node {
  name: "global_step/read"
  op: "Identity"
  input: "global_step"
  attr {
    key: "T"
    value {
      type: DT_INT64
    }
  }
  attr {
    key: "_class"
    value {
      list {
        s: "loc:@global_step"
      }
    }
  }
}
node {
  name: "transpose/perm"
  op: "Const"
  attr {
    key: "dtype"
    value {
      type: DT_INT32
    }
  }
  attr {
    key: "value"
    value {
      tensor {
        dtype: DT_INT32
        tensor_shape {
          dim {
            size: 2
          }
        }
        tensor_content: "\001\000\000\000\000\000\000\000"
      }
    }
  }
}
node {
  name: "transpose"
  op: "Transpose"
  input: "waveform"
  input: "transpose/perm"
  attr {
    key: "T"
    value {
      type: DT_FLOAT
    }
  }
  attr {
    key: "Tperm"
    value {
      type: DT_INT32
    }
  }
}
node {
  name: "stft/frame_length"
  op: "Const"
  attr {
    key: "dtype"
    value {
      type: DT_INT32
    }
  }
  attr {
    key: "value"
    value {
      tensor {
        dtype: DT_INT32
        tensor_shape {
        }
        int_val: 4096
      }
    }
  }
}
node {
  name: "stft/frame_step"
  op: "Const"
  attr {
    key: "dtype"
    value {
      type: DT_INT32
    }
  }
  attr {
    key: "value"
    value {
      tensor {
        dtype: DT_INT32
        tensor_shape {
        }
        int_val: 1024
      }
    }
  }
}
node {
  name: "stft/Const"
  op: "Const"
  attr {
    key: "dtype"
    value {
      type: DT_INT32
    }
  }
  attr {
    key: "value"
    value {
      tensor {
        dtype: DT_INT32
        tensor_shape {
        }
        int_val: 4096
      }
    }
  }
}
node {
  name: "stft/frame/axis"
  op: "Const"
  attr {
    key: "dtype"
    value {
      type: DT_INT32
    }
  }
  attr {
    key: "value"
    value {
      tensor {
        dtype: DT_INT32
        tensor_shape {
        }
        int_val: -1
      }
    }
  }
}
node {
  name: "stft/frame/Rank"
  op: "Const"
  attr {
    key: "dtype"
    value {
      type: DT_INT32
    }
  }
  attr {
    key: "value"
    value {
      tensor {
        dtype: DT_INT32
        tensor_shape {
        }
        int_val: 2
      }
    }
  }
}
node {
  name: "stft/frame/range/start"
  op: "Const"
  attr {
    key: "dtype"
    value {
      type: DT_INT32
    }
  }
  attr {
    key: "value"
    value {
      tensor {
        dtype: DT_INT32
        tensor_shape {
        }
        int_val: 0
      }
    }
  }
}
node {
  name: "stft/frame/range/delta"
  op: "Const"
  attr {
    key: "dtype"
    value {
      type: DT_INT32
    }
  }
  attr {
    key: "value"
    value {
      tensor {
        dtype: DT_INT32
        tensor_shape {
        }
        int_val: 1
      }
    }
  }
}
node {
  name: "stft/frame/range"
  op: "Range"
  input: "stft/frame/range/start"
  input: "stft/frame/Rank"
  input: "stft/frame/range/delta"
  attr {
    key: "Tidx"
    value {
      type: DT_INT32
    }
  }
}
node {
  name: "stft/frame/add/y"
  op: "Const"
  attr {
    key: "dtype"
    value {
      type: DT_INT32
    }
  }
  attr {
    key: "value"
    value {
      tensor {
        dtype: DT_INT32
        tensor_shape {
        }
        int_val: 1
      }
    }
  }
}
node {
  name: "stft/frame/add"
  op: "Add"
  input: "stft/frame/axis"
  input: "stft/frame/add/y"
  attr {
    key: "T"
    value {
      type: DT_INT32
    }
  }
}
node {
  name: "stft/frame/strided_slice/stack"
  op: "Pack"
  input: "stft/frame/axis"
  attr {
    key: "N"
    value {
      i: 1
    }
  }
  attr {
    key: "T"
    value {
      type: DT_INT32
    }
  }
  attr {
    key: "axis"
    value {
      i: 0
    }
  }
}
node {
  name: "stft/frame/strided_slice/stack_1"
  op: "Pack"
  input: "stft/frame/add"
  attr {
    key: "N"
    value {
      i: 1
    }
  }
  attr {
    key: "T"
    value {
      type: DT_INT32
    }
  }
  attr {
    key: "axis"
    value {
      i: 0
    }
  }
}
node {
  name: "stft/frame/strided_slice/stack_2"
  op: "Const"
  attr {
    key: "dtype"
    value {
      type: DT_INT32
    }
  }
  attr {
    key: "value"
    value {
      tensor {
        dtype: DT_INT32
        tensor_shape {
          dim {
            size: 1
          }
        }
        int_val: 1
      }
    }
  }
}
node {
  name: "stft/frame/strided_slice"
  op: "StridedSlice"
  input: "stft/frame/range"
  input: "stft/frame/strided_slice/stack"
  input: "stft/frame/strided_slice/stack_1"
  input: "stft/frame/strided_slice/stack_2"
  attr {
    key: "Index"
    value {
      type: DT_INT32
    }
  }
  attr {
    key: "T"
    value {
      type: DT_INT32
    }
  }
  attr {
    key: "begin_mask"
    value {
      i: 0
    }
  }
  attr {
    key: "ellipsis_mask"
    value {
      i: 0
    }
  }
  attr {
    key: "end_mask"
    value {
      i: 0
    }
  }
  attr {
    key: "new_axis_mask"
    value {
      i: 0
    }
  }
  attr {
    key: "shrink_axis_mask"
    value {
      i: 1
    }
  }
}
node {
  name: "stft/frame/Shape"
  op: "Shape"
  input: "transpose"
  attr {
    key: "T"
    value {
      type: DT_FLOAT
    }
  }
  attr {
    key: "out_type"
    value {
      type: DT_INT32
    }
  }
  experimental_type {
    type_id: TFT_PRODUCT
    args {
      type_id: TFT_SHAPE_TENSOR
      args {
        type_id: TFT_INT32
      }
    }
  }
}
node {
  name: "stft/frame/sub/y"
  op: "Const"
  attr {
    key: "dtype"
    value {
      type: DT_INT32
    }
  }
  attr {
    key: "value"
    value {
      tensor {
        dtype: DT_INT32
        tensor_shape {
        }
        int_val: 1
      }
    }
  }
}
node {
  name: "stft/frame/sub"
  op: "Sub"
  input: "stft/frame/Rank"
  input: "stft/frame/sub/y"
  attr {
    key: "T"
    value {
      type: DT_INT32
    }
  }
}
node {
  name: "stft/frame/sub_1"
  op: "Sub"
  input: "stft/frame/sub"
  input: "stft/frame/strided_slice"
  attr {
    key: "T"
    value {
      type: DT_INT32
    }
  }
}
node {
  name: "stft/frame/packed/1"
  op: "Const"
  attr {
    key: "dtype"
    value {
      type: DT_INT32
    }
  }
  attr {
    key: "value"
    value {
      tensor {
        dtype: DT_INT32
        tensor_shape {
        }
        int_val: 1
      }
    }
  }
}
node {
  name: "stft/frame/packed"
  op: "Pack"
  input: "stft/frame/strided_slice"
  input: "stft/frame/packed/1"
  input: "stft/frame/sub_1"
  attr {
    key: "N"
    value {
      i: 3
    }
  }
  attr {
    key: "T"
    value {
      type: DT_INT32
    }
  }
  attr {
    key: "axis"
    value {
      i: 0
    }
  }
}
node {
  name: "stft/frame/split/split_dim"
  op: "Const"
  attr {
    key: "dtype"
    value {
      type: DT_INT32
    }
  }
  attr {
    key: "value"
    value {
      tensor {
        dtype: DT_INT32
        tensor_shape {
        }
        int_val: 0
      }
    }
  }
}
node {
  name: "stft/frame/split"
  op: "SplitV"
  input: "stft/frame/Shape"
  input: "stft/frame/packed"
  input: "stft/frame/split/split_dim"
  attr {
    key: "T"
    value {
      type: DT_INT32
    }
  }
  attr {
    key: "Tlen"
    value {
      type: DT_INT32
    }
  }
  attr {
    key: "num_split"
    value {
      i: 3
    }
  }
}
node {
  name: "stft/frame/Reshape/shape"
  op: "Const"
  attr {
    key: "dtype"
    value {
      type: DT_INT32
    }
  }
  attr {
    key: "value"
    value {
      tensor {
        dtype: DT_INT32
        tensor_shape {
          dim {
          }
        }
      }
    }
  }
}
node {
  name: "stft/frame/Reshape"
  op: "Reshape"
  input: "stft/frame/split:1"
  input: "stft/frame/Reshape/shape"
  attr {
    key: "T"
    value {
      type: DT_INT32
    }
  }
  attr {
    key: "Tshape"
    value {
      type: DT_INT32
    }
  }
}
node {
  name: "stft/frame/Size"
  op: "Const"
  attr {
    key: "dtype"
    value {
      type: DT_INT32
    }
  }
  attr {
    key: "value"
    value {
      tensor {
        dtype: DT_INT32
        tensor_shape {
        }
        int_val: 1
      }
    }
  }
}
node {
  name: "stft/frame/Size_1"
  op: "Const"
  attr {
    key: "dtype"
    value {
      type: DT_INT32
    }
  }
  attr {
    key: "value"
    value {
      tensor {
        dtype: DT_INT32
        tensor_shape {
        }
        int_val: 0
      }
    }
  }
}
node {
  name: "stft/frame/Const"
  op: "Const"
  attr {
    key: "dtype"
    value {
      type: DT_FLOAT
    }
  }
  attr {
    key: "value"
    value {
      tensor {
        dtype: DT_FLOAT
        tensor_shape {
        }
        float_val: 0.0
      }
    }
  }
}
node {
  name: "stft/frame/Neg"
  op: "Neg"
  input: "stft/frame/Reshape"
  attr {
    key: "T"
    value {
      type: DT_INT32
    }
  }
}
node {
  name: "stft/frame/floordiv"
  op: "FloorDiv"
  input: "stft/frame/Neg"
  input: "stft/frame_step"
  attr {
    key: "T"
    value {
      type: DT_INT32
    }
  }
}
node {
  name: "stft/frame/Neg_1"
  op: "Neg"
  input: "stft/frame/floordiv"
  attr {
    key: "T"
    value {
      type: DT_INT32
    }
  }
}
node {
  name: "stft/frame/sub_2/y"
  op: "Const"
  attr {
    key: "dtype"
    value {
      type: DT_INT32
    }
  }
  attr {
    key: "value"
    value {
      tensor {
        dtype: DT_INT32
        tensor_shape {
        }
        int_val: 1
      }
    }
  }
}
node {
  name: "stft/frame/sub_2"
  op: "Sub"
  input: "stft/frame/Neg_1"
  input: "stft/frame/sub_2/y"
  attr {
    key: "T"
    value {
      type: DT_INT32
    }
  }
}
node {
  name: "stft/frame/mul"
  op: "Mul"
  input: "stft/frame_step"
  input: "stft/frame/sub_2"
  attr {
    key: "T"
    value {
      type: DT_INT32
    }
  }
}
node {
  name: "stft/frame/add_1"
  op: "Add"
  input: "stft/frame_length"
  input: "stft/frame/mul"
  attr {
    key: "T"
    value {
      type: DT_INT32
    }
  }
}
node {
  name: "stft/frame/sub_3"
  op: "Sub"
  input: "stft/frame/add_1"
  input: "stft/frame/Reshape"
  attr {
    key: "T"
    value {
      type: DT_INT32
    }
  }
}
node {
  name: "stft/frame/Maximum/x"
  op: "Const"
  attr {
    key: "dtype"
    value {
      type: DT_INT32
    }
  }
  attr {
    key: "value"
    value {
      tensor {
        dtype: DT_INT32
        tensor_shape {
        }
        int_val: 0
      }
    }
  }
}
node {
  name: "stft/frame/Maximum"
  op: "Maximum"
  input: "stft/frame/Maximum/x"
  input: "stft/frame/sub_3"
  attr {
    key: "T"
    value {
      type: DT_INT32
    }
  }
}
node {
  name: "stft/frame/zeros/mul/y"
  op: "Const"
  attr {
    key: "dtype"
    value {
      type: DT_INT32
    }
  }
  attr {
    key: "value"
    value {
      tensor {
        dtype: DT_INT32
        tensor_shape {
        }
        int_val: 2
      }
    }
  }
}
node {
  name: "stft/frame/zeros/mul"
  op: "Mul"
  input: "stft/frame/Size"
  input: "stft/frame/zeros/mul/y"
  attr {
    key: "T"
    value {
      type: DT_INT32
    }
  }
}
node {
  name: "stft/frame/zeros/Less/y"
  op: "Const"
  attr {
    key: "dtype"
    value {
      type: DT_INT32
    }
  }
  attr {
    key: "value"
    value {
      tensor {
        dtype: DT_INT32
        tensor_shape {
        }
        int_val: 1000
      }
    }
  }
}
node {
  name: "stft/frame/zeros/Less"
  op: "Less"
  input: "stft/frame/zeros/mul"
  input: "stft/frame/zeros/Less/y"
  attr {
    key: "T"
    value {
      type: DT_INT32
    }
  }
}
node {
  name: "stft/frame/zeros/packed/1"
  op: "Const"
  attr {
    key: "dtype"
    value {
      type: DT_INT32
    }
  }
  attr {
    key: "value"
    value {
      tensor {
        dtype: DT_INT32
        tensor_shape {
        }
        int_val: 2
      }
    }
  }
}
node {
  name: "stft/frame/zeros/packed"
  op: "Pack"
  input: "stft/frame/Size"
  input: "stft/frame/zeros/packed/1"
  attr {
    key: "N"
    value {
      i: 2
    }
  }
  attr {
    key: "T"
    value {
      type: DT_INT32
    }
  }
  attr {
    key: "axis"
    value {
      i: 0
    }
  }
}
node {
  name: "stft/frame/zeros/Const"
  op: "Const"
  attr {
    key: "dtype"
    value {
      type: DT_INT32
    }
  }
  attr {
    key: "value"
    value {
      tensor {
        dtype: DT_INT32
        tensor_shape {
        }
        int_val: 0
      }
    }
  }
}
node {
  name: "stft/frame/zeros"
  op: "Fill"
  input: "stft/frame/zeros/packed"
  input: "stft/frame/zeros/Const"
  attr {
    key: "T"
    value {
      type: DT_INT32
    }
  }
  attr {
    key: "index_type"
    value {
      type: DT_INT32
    }
  }
}
node {
  name: "stft/frame/zeros_1/mul/y"
  op: "Const"
  attr {
    key: "dtype"
    value {
      type: DT_INT32
    }
  }
  attr {
    key: "value"
    value {
      tensor {
        dtype: DT_INT32
        tensor_shape {
        }
        int_val: 2
      }
    }
  }
}
node {
  name: "stft/frame/zeros_1/mul"
  op: "Mul"
  input: "stft/frame/Size_1"
  input: "stft/frame/zeros_1/mul/y"
  attr {
    key: "T"
    value {
      type: DT_INT32
    }
  }
}
node {
  name: "stft/frame/zeros_1/Less/y"
  op: "Const"
  attr {
    key: "dtype"
    value {
      type: DT_INT32
    }
  }
  attr {
    key: "value"
    value {
      tensor {
        dtype: DT_INT32
        tensor_shape {
        }
        int_val: 1000
      }
    }
  }
}
node {
  name: "stft/frame/zeros_1/Less"
  op: "Less"
  input: "stft/frame/zeros_1/mul"
  input: "stft/frame/zeros_1/Less/y"
  attr {
    key: "T"
    value {
      type: DT_INT32
    }
  }
}
node {
  name: "stft/frame/zeros_1/packed/1"
  op: "Const"
  attr {
    key: "dtype"
    value {
      type: DT_INT32
    }
  }
  attr {
    key: "value"
    value {
      tensor {
        dtype: DT_INT32
        tensor_shape {
        }
        int_val: 2
      }
    }
  }
}
node {
  name: "stft/frame/zeros_1/packed"
  op: "Pack"
  input: "stft/frame/Size_1"
  input: "stft/frame/zeros_1/packed/1"
  attr {
    key: "N"
    value {
      i: 2
    }
  }
  attr {
    key: "T"
    value {
      type: DT_INT32
    }
  }
  attr {
    key: "axis"
    value {
      i: 0
    }
  }
}
node {
  name: "stft/frame/zeros_1/Const"
  op: "Const"
  attr {
    key: "dtype"
    value {
      type: DT_INT32
    }
  }
  attr {
    key: "value"
    value {
      tensor {
        dtype: DT_INT32
        tensor_shape {
        }
        int_val: 0
      }
    }
  }
}
node {
  name: "stft/frame/zeros_1"
  op: "Fill"
  input: "stft/frame/zeros_1/packed"
  input: "stft/frame/zeros_1/Const"
  attr {
    key: "T"
    value {
      type: DT_INT32
    }
  }
  attr {
    key: "index_type"
    value {
      type: DT_INT32
    }
  }
}
node {
  name: "stft/frame/concat/values_1/0/0"
  op: "Const"
  attr {
    key: "dtype"
    value {
      type: DT_INT32
    }
  }
  attr {
    key: "value"
    value {
      tensor {
        dtype: DT_INT32
        tensor_shape {
        }
        int_val: 0
      }
    }
  }
}
node {
  name: "stft/frame/concat/values_1/0"
  op: "Pack"
  input: "stft/frame/concat/values_1/0/0"
  input: "stft/frame/Maximum"
  attr {
    key: "N"
    value {
      i: 2
    }
  }
  attr {
    key: "T"
    value {
      type: DT_INT32
    }
  }
  attr {
    key: "axis"
    value {
      i: 0
    }
  }
}
node {
  name: "stft/frame/concat/values_1"
  op: "Pack"
  input: "stft/frame/concat/values_1/0"
  attr {
    key: "N"
    value {
      i: 1
    }
  }
  attr {
    key: "T"
    value {
      type: DT_INT32
    }
  }
  attr {
    key: "axis"
    value {
      i: 0
    }
  }
}
node {
  name: "stft/frame/concat/axis"
  op: "Const"
  attr {
    key: "dtype"
    value {
      type: DT_INT32
    }
  }
  attr {
    key: "value"
    value {
      tensor {
        dtype: DT_INT32
        tensor_shape {
        }
        int_val: 0
      }
    }
  }
}
node {
  name: "stft/frame/concat"
  op: "ConcatV2"
  input: "stft/frame/zeros"
  input: "stft/frame/concat/values_1"
  input: "stft/frame/zeros_1"
  input: "stft/frame/concat/axis"
  attr {
    key: "N"
    value {
      i: 3
    }
  }
  attr {
    key: "T"
    value {
      type: DT_INT32
    }
  }
  attr {
    key: "Tidx"
    value {
      type: DT_INT32
    }
  }
}
node {
  name: "stft/frame/PadV2"
  op: "PadV2"
  input: "transpose"
  input: "stft/frame/concat"
  input: "stft/frame/Const"
  attr {
    key: "T"
    value {
      type: DT_FLOAT
    }
  }
  attr {
    key: "Tpaddings"
    value {
      type: DT_INT32
    }
  }
}
node {
  name: "stft/frame/Shape_1"
  op: "Shape"
  input: "stft/frame/PadV2"
  attr {
    key: "T"
    value {
      type: DT_FLOAT
    }
  }
  attr {
    key: "out_type"
    value {
      type: DT_INT32
    }
  }
  experimental_type {
    type_id: TFT_PRODUCT
    args {
      type_id: TFT_SHAPE_TENSOR
      args {
        type_id: TFT_INT32
      }
    }
  }
}
node {
  name: "stft/frame/add_2/y"
  op: "Const"
  attr {
    key: "dtype"
    value {
      type: DT_INT32
    }
  }
  attr {
    key: "value"
    value {
      tensor {
        dtype: DT_INT32
        tensor_shape {
        }
        int_val: 1
      }
    }
  }
}
node {
  name: "stft/frame/add_2"
  op: "Add"
  input: "stft/frame/strided_slice"
  input: "stft/frame/add_2/y"
  attr {
    key: "T"
    value {
      type: DT_INT32
    }
  }
}
node {
  name: "stft/frame/strided_slice_1/stack"
  op: "Pack"
  input: "stft/frame/strided_slice"
  attr {
    key: "N"
    value {
      i: 1
    }
  }
  attr {
    key: "T"
    value {
      type: DT_INT32
    }
  }
  attr {
    key: "axis"
    value {
      i: 0
    }
  }
}
node {
  name: "stft/frame/strided_slice_1/stack_1"
  op: "Pack"
  input: "stft/frame/add_2"
  attr {
    key: "N"
    value {
      i: 1
    }
  }
  attr {
    key: "T"
    value {
      type: DT_INT32
    }
  }
  attr {
    key: "axis"
    value {
      i: 0
    }
  }
}
node {
  name: "stft/frame/strided_slice_1/stack_2"
  op: "Const"
  attr {
    key: "dtype"
    value {
      type: DT_INT32
    }
  }
  attr {
    key: "value"
    value {
      tensor {
        dtype: DT_INT32
        tensor_shape {
          dim {
            size: 1
          }
        }
        int_val: 1
      }
    }
  }
}
node {
  name: "stft/frame/strided_slice_1"
  op: "StridedSlice"
  input: "stft/frame/Shape_1"
  input: "stft/frame/strided_slice_1/stack"
  input: "stft/frame/strided_slice_1/stack_1"
  input: "stft/frame/strided_slice_1/stack_2"
  attr {
    key: "Index"
    value {
      type: DT_INT32
    }
  }
  attr {
    key: "T"
    value {
      type: DT_INT32
    }
  }
  attr {
    key: "begin_mask"
    value {
      i: 0
    }
  }
  attr {
    key: "ellipsis_mask"
    value {
      i: 0
    }
  }
  attr {
    key: "end_mask"
    value {
      i: 0
    }
  }
  attr {
    key: "new_axis_mask"
    value {
      i: 0
    }
  }
  attr {
    key: "shrink_axis_mask"
    value {
      i: 1
    }
  }
}
node {
  name: "stft/frame/gcd/Const"
  op: "Const"
  attr {
    key: "dtype"
    value {
      type: DT_INT32
    }
  }
  attr {
    key: "value"
    value {
      tensor {
        dtype: DT_INT32
        tensor_shape {
        }
        int_val: 1024
      }
    }
  }
}
node {
  name: "stft/frame/floordiv_1"
  op: "FloorDiv"
  input: "stft/frame_length"
  input: "stft/frame/gcd/Const"
  attr {
    key: "T"
    value {
      type: DT_INT32
    }
  }
}
node {
  name: "stft/frame/floordiv_2"
  op: "FloorDiv"
  input: "stft/frame_step"
  input: "stft/frame/gcd/Const"
  attr {
    key: "T"
    value {
      type: DT_INT32
    }
  }
}
node {
  name: "stft/frame/floordiv_3"
  op: "FloorDiv"
  input: "stft/frame/strided_slice_1"
  input: "stft/frame/gcd/Const"
  attr {
    key: "T"
    value {
      type: DT_INT32
    }
  }
}
node {
  name: "stft/frame/mul_1"
  op: "Mul"
  input: "stft/frame/floordiv_3"
  input: "stft/frame/gcd/Const"
  attr {
    key: "T"
    value {
      type: DT_INT32
    }
  }
}
node {
  name: "stft/frame/concat_1/values_1"
  op: "Pack"
  input: "stft/frame/mul_1"
  attr {
    key: "N"
    value {
      i: 1
    }
  }
  attr {
    key: "T"
    value {
      type: DT_INT32
    }
  }
  attr {
    key: "axis"
    value {
      i: 0
    }
  }
}
node {
  name: "stft/frame/concat_1/axis"
  op: "Const"
  attr {
    key: "dtype"
    value {
      type: DT_INT32
    }
  }
  attr {
    key: "value"
    value {
      tensor {
        dtype: DT_INT32
        tensor_shape {
        }
        int_val: 0
      }
    }
  }
}
node {
  name: "stft/frame/concat_1"
  op: "ConcatV2"
  input: "stft/frame/split"
  input: "stft/frame/concat_1/values_1"
  input: "stft/frame/split:2"
  input: "stft/frame/concat_1/axis"
  attr {
    key: "N"
    value {
      i: 3
    }
  }
  attr {
    key: "T"
    value {
      type: DT_INT32
    }
  }
  attr {
    key: "Tidx"
    value {
      type: DT_INT32
    }
  }
}
node {
  name: "stft/frame/concat_2/values_1"
  op: "Pack"
  input: "stft/frame/floordiv_3"
  input: "stft/frame/gcd/Const"
  attr {
    key: "N"
    value {
      i: 2
    }
  }
  attr {
    key: "T"
    value {
      type: DT_INT32
    }
  }
  attr {
    key: "axis"
    value {
      i: 0
    }
  }
}
node {
  name: "stft/frame/concat_2/axis"
  op: "Const"
  attr {
    key: "dtype"
    value {
      type: DT_INT32
    }
  }
  attr {
    key: "value"
    value {
      tensor {
        dtype: DT_INT32
        tensor_shape {
        }
        int_val: 0
      }
    }
  }
}
node {
  name: "stft/frame/concat_2"
  op: "ConcatV2"
  input: "stft/frame/split"
  input: "stft/frame/concat_2/values_1"
  input: "stft/frame/split:2"
  input: "stft/frame/concat_2/axis"
  attr {
    key: "N"
    value {
      i: 3
    }
  }
  attr {
    key: "T"
    value {
      type: DT_INT32
    }
  }
  attr {
    key: "Tidx"
    value {
      type: DT_INT32
    }
  }
}
node {
  name: "stft/frame/zeros_like"
  op: "Const"
  attr {
    key: "dtype"
    value {
      type: DT_INT32
    }
  }
  attr {
    key: "value"
    value {
      tensor {
        dtype: DT_INT32
        tensor_shape {
          dim {
            size: 2
          }
        }
        int_val: 0
      }
    }
  }
}
node {
  name: "stft/frame/ones_like/Shape"
  op: "Const"
  attr {
    key: "dtype"
    value {
      type: DT_INT32
    }
  }
  attr {
    key: "value"
    value {
      tensor {
        dtype: DT_INT32
        tensor_shape {
          dim {
            size: 1
          }
        }
        int_val: 2
      }
    }
  }
}
node {
  name: "stft/frame/ones_like/Const"
  op: "Const"
  attr {
    key: "dtype"
    value {
      type: DT_INT32
    }
  }
  attr {
    key: "value"
    value {
      tensor {
        dtype: DT_INT32
        tensor_shape {
        }
        int_val: 1
      }
    }
  }
}
node {
  name: "stft/frame/ones_like"
  op: "Fill"
  input: "stft/frame/ones_like/Shape"
  input: "stft/frame/ones_like/Const"
  attr {
    key: "T"
    value {
      type: DT_INT32
    }
  }
  attr {
    key: "index_type"
    value {
      type: DT_INT32
    }
  }
}
node {
  name: "stft/frame/StridedSlice"
  op: "StridedSlice"
  input: "stft/frame/PadV2"
  input: "stft/frame/zeros_like"
  input: "stft/frame/concat_1"
  input: "stft/frame/ones_like"
  attr {
    key: "Index"
    value {
      type: DT_INT32
    }
  }
  attr {
    key: "T"
    value {
      type: DT_FLOAT
    }
  }
  attr {
    key: "begin_mask"
    value {
      i: 0
    }
  }
  attr {
    key: "ellipsis_mask"
    value {
      i: 0
    }
  }
  attr {
    key: "end_mask"
    value {
      i: 0
    }
  }
  attr {
    key: "new_axis_mask"
    value {
      i: 0
    }
  }
  attr {
    key: "shrink_axis_mask"
    value {
      i: 0
    }
  }
}
node {
  name: "stft/frame/Reshape_1"
  op: "Reshape"
  input: "stft/frame/StridedSlice"
  input: "stft/frame/concat_2"
  attr {
    key: "T"
    value {
      type: DT_FLOAT
    }
  }
  attr {
    key: "Tshape"
    value {
      type: DT_INT32
    }
  }
}
node {
  name: "stft/frame/range_1/start"
  op: "Const"
  attr {
    key: "dtype"
    value {
      type: DT_INT32
    }
  }
  attr {
    key: "value"
    value {
      tensor {
        dtype: DT_INT32
        tensor_shape {
        }
        int_val: 0
      }
    }
  }
}
node {
  name: "stft/frame/range_1/delta"
  op: "Const"
  attr {
    key: "dtype"
    value {
      type: DT_INT32
    }
  }
  attr {
    key: "value"
    value {
      tensor {
        dtype: DT_INT32
        tensor_shape {
        }
        int_val: 1
      }
    }
  }
}
node {
  name: "stft/frame/range_1"
  op: "Range"
  input: "stft/frame/range_1/start"
  input: "stft/frame/Neg_1"
  input: "stft/frame/range_1/delta"
  attr {
    key: "Tidx"
    value {
      type: DT_INT32
    }
  }
}
node {
  name: "stft/frame/mul_2"
  op: "Mul"
  input: "stft/frame/range_1"
  input: "stft/frame/floordiv_2"
  attr {
    key: "T"
    value {
      type: DT_INT32
    }
  }
}
node {
  name: "stft/frame/Reshape_2/shape/1"
  op: "Const"
  attr {
    key: "dtype"
    value {
      type: DT_INT32
    }
  }
  attr {
    key: "value"
    value {
      tensor {
        dtype: DT_INT32
        tensor_shape {
        }
        int_val: 1
      }
    }
  }
}
node {
  name: "stft/frame/Reshape_2/shape"
  op: "Pack"
  input: "stft/frame/Neg_1"
  input: "stft/frame/Reshape_2/shape/1"
  attr {
    key: "N"
    value {
      i: 2
    }
  }
  attr {
    key: "T"
    value {
      type: DT_INT32
    }
  }
  attr {
    key: "axis"
    value {
      i: 0
    }
  }
}
node {
  name: "stft/frame/Reshape_2"
  op: "Reshape"
  input: "stft/frame/mul_2"
  input: "stft/frame/Reshape_2/shape"
  attr {
    key: "T"
    value {
      type: DT_INT32
    }
  }
  attr {
    key: "Tshape"
    value {
      type: DT_INT32
    }
  }
}
node {
  name: "stft/frame/range_2/start"
  op: "Const"
  attr {
    key: "dtype"
    value {
      type: DT_INT32
    }
  }
  attr {
    key: "value"
    value {
      tensor {
        dtype: DT_INT32
        tensor_shape {
        }
        int_val: 0
      }
    }
  }
}
node {
  name: "stft/frame/range_2/delta"
  op: "Const"
  attr {
    key: "dtype"
    value {
      type: DT_INT32
    }
  }
  attr {
    key: "value"
    value {
      tensor {
        dtype: DT_INT32
        tensor_shape {
        }
        int_val: 1
      }
    }
  }
}
node {
  name: "stft/frame/range_2"
  op: "Range"
  input: "stft/frame/range_2/start"
  input: "stft/frame/floordiv_1"
  input: "stft/frame/range_2/delta"
  attr {
    key: "Tidx"
    value {
      type: DT_INT32
    }
  }
}
node {
  name: "stft/frame/Reshape_3/shape/0"
  op: "Const"
  attr {
    key: "dtype"
    value {
      type: DT_INT32
    }
  }
  attr {
    key: "value"
    value {
      tensor {
        dtype: DT_INT32
        tensor_shape {
        }
        int_val: 1
      }
    }
  }
}
node {
  name: "stft/frame/Reshape_3/shape"
  op: "Pack"
  input: "stft/frame/Reshape_3/shape/0"
  input: "stft/frame/floordiv_1"
  attr {
    key: "N"
    value {
      i: 2
    }
  }
  attr {
    key: "T"
    value {
      type: DT_INT32
    }
  }
  attr {
    key: "axis"
    value {
      i: 0
    }
  }
}
node {
  name: "stft/frame/Reshape_3"
  op: "Reshape"
  input: "stft/frame/range_2"
  input: "stft/frame/Reshape_3/shape"
  attr {
    key: "T"
    value {
      type: DT_INT32
    }
  }
  attr {
    key: "Tshape"
    value {
      type: DT_INT32
    }
  }
}
node {
  name: "stft/frame/add_3"
  op: "Add"
  input: "stft/frame/Reshape_2"
  input: "stft/frame/Reshape_3"
  attr {
    key: "T"
    value {
      type: DT_INT32
    }
  }
}
node {
  name: "stft/frame/GatherV2"
  op: "GatherV2"
  input: "stft/frame/Reshape_1"
  input: "stft/frame/add_3"
  input: "stft/frame/strided_slice"
  attr {
    key: "Taxis"
    value {
      type: DT_INT32
    }
  }
  attr {
    key: "Tindices"
    value {
      type: DT_INT32
    }
  }
  attr {
    key: "Tparams"
    value {
      type: DT_FLOAT
    }
  }
  attr {
    key: "batch_dims"
    value {
      i: 0
    }
  }
}
node {
  name: "stft/frame/concat_3/values_1"
  op: "Pack"
  input: "stft/frame/Neg_1"
  input: "stft/frame_length"
  attr {
    key: "N"
    value {
      i: 2
    }
  }
  attr {
    key: "T"
    value {
      type: DT_INT32
    }
  }
  attr {
    key: "axis"
    value {
      i: 0
    }
  }
}
node {
  name: "stft/frame/concat_3/axis"
  op: "Const"
  attr {
    key: "dtype"
    value {
      type: DT_INT32
    }
  }
  attr {
    key: "value"
    value {
      tensor {
        dtype: DT_INT32
        tensor_shape {
        }
        int_val: 0
      }
    }
  }
}
node {
  name: "stft/frame/concat_3"
  op: "ConcatV2"
  input: "stft/frame/split"
  input: "stft/frame/concat_3/values_1"
  input: "stft/frame/split:2"
  input: "stft/frame/concat_3/axis"
  attr {
    key: "N"
    value {
      i: 3
    }
  }
  attr {
    key: "T"
    value {
      type: DT_INT32
    }
  }
  attr {
    key: "Tidx"
    value {
      type: DT_INT32
    }
  }
}
node {
  name: "stft/frame/Reshape_4"
  op: "Reshape"
  input: "stft/frame/GatherV2"
  input: "stft/frame/concat_3"
  attr {
    key: "T"
    value {
      type: DT_FLOAT
    }
  }
  attr {
    key: "Tshape"
    value {
      type: DT_INT32
    }
  }
}
node {
  name: "stft/hann_window/periodic"
  op: "Const"
  attr {
    key: "dtype"
    value {
      type: DT_BOOL
    }
  }
  attr {
    key: "value"
    value {
      tensor {
        dtype: DT_BOOL
        tensor_shape {
        }
        bool_val: true
      }
    }
  }
}
node {
  name: "stft/hann_window/Cast"
  op: "Cast"
  input: "stft/hann_window/periodic"
  attr {
    key: "DstT"
    value {
      type: DT_INT32
    }
  }
  attr {
    key: "SrcT"
    value {
      type: DT_BOOL
    }
  }
  attr {
    key: "Truncate"
    value {
      b: false
    }
  }
}
node {
  name: "stft/hann_window/FloorMod/y"
  op: "Const"
  attr {
    key: "dtype"
    value {
      type: DT_INT32
    }
  }
  attr {
    key: "value"
    value {
      tensor {
        dtype: DT_INT32
        tensor_shape {
        }
        int_val: 2
      }
    }
  }
}
node {
  name: "stft/hann_window/FloorMod"
  op: "FloorMod"
  input: "stft/frame_length"
  input: "stft/hann_window/FloorMod/y"
  attr {
    key: "T"
    value {
      type: DT_INT32
    }
  }
}
node {
  name: "stft/hann_window/sub/x"
  op: "Const"
  attr {
    key: "dtype"
    value {
      type: DT_INT32
    }
  }
  attr {
    key: "value"
    value {
      tensor {
        dtype: DT_INT32
        tensor_shape {
        }
        int_val: 1
      }
    }
  }
}
node {
  name: "stft/hann_window/sub"
  op: "Sub"
  input: "stft/hann_window/sub/x"
  input: "stft/hann_window/FloorMod"
  attr {
    key: "T"
    value {
      type: DT_INT32
    }
  }
}
node {
  name: "stft/hann_window/mul"
  op: "Mul"
  input: "stft/hann_window/Cast"
  input: "stft/hann_window/sub"
  attr {
    key: "T"
    value {
      type: DT_INT32
    }
  }
}
node {
  name: "stft/hann_window/add"
  op: "Add"
  input: "stft/frame_length"
  input: "stft/hann_window/mul"
  attr {
    key: "T"
    value {
      type: DT_INT32
    }
  }
}
node {
  name: "stft/hann_window/sub_1/y"
  op: "Const"
  attr {
    key: "dtype"
    value {
      type: DT_INT32
    }
  }
  attr {
    key: "value"
    value {
      tensor {
        dtype: DT_INT32
        tensor_shape {
        }
        int_val: 1
      }
    }
  }
}
node {
  name: "stft/hann_window/sub_1"
  op: "Sub"
  input: "stft/hann_window/add"
  input: "stft/hann_window/sub_1/y"
  attr {
    key: "T"
    value {
      type: DT_INT32
    }
  }
}
node {
  name: "stft/hann_window/Cast_1"
  op: "Cast"
  input: "stft/hann_window/sub_1"
  attr {
    key: "DstT"
    value {
      type: DT_FLOAT
    }
  }
  attr {
    key: "SrcT"
    value {
      type: DT_INT32
    }
  }
  attr {
    key: "Truncate"
    value {
      b: false
    }
  }
}
node {
  name: "stft/hann_window/range/start"
  op: "Const"
  attr {
    key: "dtype"
    value {
      type: DT_INT32
    }
  }
  attr {
    key: "value"
    value {
      tensor {
        dtype: DT_INT32
        tensor_shape {
        }
        int_val: 0
      }
    }
  }
}
node {
  name: "stft/hann_window/range/delta"
  op: "Const"
  attr {
    key: "dtype"
    value {
      type: DT_INT32
    }
  }
  attr {
    key: "value"
    value {
      tensor {
        dtype: DT_INT32
        tensor_shape {
        }
        int_val: 1
      }
    }
  }
}
node {
  name: "stft/hann_window/range"
  op: "Range"
  input: "stft/hann_window/range/start"
  input: "stft/frame_length"
  input: "stft/hann_window/range/delta"
  attr {
    key: "Tidx"
    value {
      type: DT_INT32
    }
  }
}
node {
  name: "stft/hann_window/Cast_2"
  op: "Cast"
  input: "stft/hann_window/range"
  attr {
    key: "DstT"
    value {
      type: DT_FLOAT
    }
  }
  attr {
    key: "SrcT"
    value {
      type: DT_INT32
    }
  }
  attr {
    key: "Truncate"
    value {
      b: false
    }
  }
}
node {
  name: "stft/hann_window/Const"
  op: "Const"
  attr {
    key: "dtype"
    value {
      type: DT_FLOAT
    }
  }
  attr {
    key: "value"
    value {
      tensor {
        dtype: DT_FLOAT
        tensor_shape {
        }
        float_val: 6.2831854820251465
      }
    }
  }
}
node {
  name: "stft/hann_window/mul_1"
  op: "Mul"
  input: "stft/hann_window/Const"
  input: "stft/hann_window/Cast_2"
  attr {
    key: "T"
    value {
      type: DT_FLOAT
    }
  }
}
node {
  name: "stft/hann_window/truediv"
  op: "RealDiv"
  input: "stft/hann_window/mul_1"
  input: "stft/hann_window/Cast_1"
  attr {
    key: "T"
    value {
      type: DT_FLOAT
    }
  }
}
node {
  name: "stft/hann_window/Cos"
  op: "Cos"
  input: "stft/hann_window/truediv"
  attr {
    key: "T"
    value {
      type: DT_FLOAT
    }
  }
}
node {
  name: "stft/hann_window/mul_2/x"
  op: "Const"
  attr {
    key: "dtype"
    value {
      type: DT_FLOAT
    }
  }
  attr {
    key: "value"
    value {
      tensor {
        dtype: DT_FLOAT
        tensor_shape {
        }
        float_val: 0.5
      }
    }
  }
}
node {
  name: "stft/hann_window/mul_2"
  op: "Mul"
  input: "stft/hann_window/mul_2/x"
  input: "stft/hann_window/Cos"
  attr {
    key: "T"
    value {
      type: DT_FLOAT
    }
  }
}
node {
  name: "stft/hann_window/sub_2/x"
  op: "Const"
  attr {
    key: "dtype"
    value {
      type: DT_FLOAT
    }
  }
  attr {
    key: "value"
    value {
      tensor {
        dtype: DT_FLOAT
        tensor_shape {
        }
        float_val: 0.5
      }
    }
  }
}
node {
  name: "stft/hann_window/sub_2"
  op: "Sub"
  input: "stft/hann_window/sub_2/x"
  input: "stft/hann_window/mul_2"
  attr {
    key: "T"
    value {
      type: DT_FLOAT
    }
  }
}
node {
  name: "stft/mul"
  op: "Mul"
  input: "stft/frame/Reshape_4"
  input: "stft/hann_window/sub_2"
  attr {
    key: "T"
    value {
      type: DT_FLOAT
    }
  }
}
node {
  name: "stft/rfft/packed"
  op: "Pack"
  input: "stft/Const"
  attr {
    key: "N"
    value {
      i: 1
    }
  }
  attr {
    key: "T"
    value {
      type: DT_INT32
    }
  }
  attr {
    key: "axis"
    value {
      i: 0
    }
  }
}
node {
  name: "stft/rfft"
  op: "RFFT"
  input: "stft/mul"
  input: "stft/rfft/packed"
  attr {
    key: "Tcomplex"
    value {
      type: DT_COMPLEX64
    }
  }
  attr {
    key: "Treal"
    value {
      type: DT_FLOAT
    }
  }
}
node {
  name: "transpose_1/perm"
  op: "Const"
  attr {
    key: "dtype"
    value {
      type: DT_INT32
    }
  }
  attr {
    key: "value"
    value {
      tensor {
        dtype: DT_INT32
        tensor_shape {
          dim {
            size: 3
          }
        }
        tensor_content: "\001\000\000\000\002\000\000\000\000\000\000\000"
      }
    }
  }
}
node {
  name: "transpose_1"
  op: "Transpose"
  input: "stft/rfft"
  input: "transpose_1/perm"
  attr {
    key: "T"
    value {
      type: DT_COMPLEX64
    }
  }
  attr {
    key: "Tperm"
    value {
      type: DT_INT32
    }
  }
}
node {
  name: "Shape"
  op: "Shape"
  input: "transpose_1"
  attr {
    key: "T"
    value {
      type: DT_COMPLEX64
    }
  }
  attr {
    key: "out_type"
    value {
      type: DT_INT32
    }
  }
  experimental_type {
    type_id: TFT_PRODUCT
    args {
      type_id: TFT_SHAPE_TENSOR
      args {
        type_id: TFT_INT32
      }
    }
  }
}
node {
  name: "strided_slice/stack"
  op: "Const"
  attr {
    key: "dtype"
    value {
      type: DT_INT32
    }
  }
  attr {
    key: "value"
    value {
      tensor {
        dtype: DT_INT32
        tensor_shape {
          dim {
            size: 1
          }
        }
        int_val: 0
      }
    }
  }
}
node {
  name: "strided_slice/stack_1"
  op: "Const"
  attr {
    key: "dtype"
    value {
      type: DT_INT32
    }
  }
  attr {
    key: "value"
    value {
      tensor {
        dtype: DT_INT32
        tensor_shape {
          dim {
            size: 1
          }
        }
        int_val: 1
      }
    }
  }
}
node {
  name: "strided_slice/stack_2"
  op: "Const"
  attr {
    key: "dtype"
    value {
      type: DT_INT32
    }
  }
  attr {
    key: "value"
    value {
      tensor {
        dtype: DT_INT32
        tensor_shape {
          dim {
            size: 1
          }
        }
        int_val: 1
      }
    }
  }
}
node {
  name: "strided_slice"
  op: "StridedSlice"
  input: "Shape"
  input: "strided_slice/stack"
  input: "strided_slice/stack_1"
  input: "strided_slice/stack_2"
  attr {
    key: "Index"
    value {
      type: DT_INT32
    }
  }
  attr {
    key: "T"
    value {
      type: DT_INT32
    }
  }
  attr {
    key: "begin_mask"
    value {
      i: 0
    }
  }
  attr {
    key: "ellipsis_mask"
    value {
      i: 0
    }
  }
  attr {
    key: "end_mask"
    value {
      i: 0
    }
  }
  attr {
    key: "new_axis_mask"
    value {
      i: 0
    }
  }
  attr {
    key: "shrink_axis_mask"
    value {
      i: 1
    }
  }
}
node {
  name: "FloorMod/y"
  op: "Const"
  attr {
    key: "dtype"
    value {
      type: DT_INT32
    }
  }
  attr {
    key: "value"
    value {
      tensor {
        dtype: DT_INT32
        tensor_shape {
        }
        int_val: 512
      }
    }
  }
}
node {
  name: "FloorMod"
  op: "FloorMod"
  input: "strided_slice"
  input: "FloorMod/y"
  attr {
    key: "T"
    value {
      type: DT_INT32
    }
  }
}
node {
  name: "sub/x"
  op: "Const"
  attr {
    key: "dtype"
    value {
      type: DT_INT32
    }
  }
  attr {
    key: "value"
    value {
      tensor {
        dtype: DT_INT32
        tensor_shape {
        }
        int_val: 512
      }
    }
  }
}
node {
  name: "sub"
  op: "Sub"
  input: "sub/x"
  input: "FloorMod"
  attr {
    key: "T"
    value {
      type: DT_INT32
    }
  }
}
node {
  name: "FloorMod_1/y"
  op: "Const"
  attr {
    key: "dtype"
    value {
      type: DT_INT32
    }
  }
  attr {
    key: "value"
    value {
      tensor {
        dtype: DT_INT32
        tensor_shape {
        }
        int_val: 512
      }
    }
  }
}
node {
  name: "FloorMod_1"
  op: "FloorMod"
  input: "sub"
  input: "FloorMod_1/y"
  attr {
    key: "T"
    value {
      type: DT_INT32
    }
  }
}
node {
  name: "Pad/paddings/0/0"
  op: "Const"
  attr {
    key: "dtype"
    value {
      type: DT_INT32
    }
  }
  attr {
    key: "value"
    value {
      tensor {
        dtype: DT_INT32
        tensor_shape {
        }
        int_val: 0
      }
    }
  }
}
node {
  name: "Pad/paddings/0"
  op: "Pack"
  input: "Pad/paddings/0/0"
  input: "FloorMod_1"
  attr {
    key: "N"
    value {
      i: 2
    }
  }
  attr {
    key: "T"
    value {
      type: DT_INT32
    }
  }
  attr {
    key: "axis"
    value {
      i: 0
    }
  }
}
node {
  name: "Pad/paddings/1_1"
  op: "Const"
  attr {
    key: "dtype"
    value {
      type: DT_INT32
    }
  }
  attr {
    key: "value"
    value {
      tensor {
        dtype: DT_INT32
        tensor_shape {
          dim {
            size: 2
          }
        }
        tensor_content: "\000\000\000\000\000\000\000\000"
      }
    }
  }
}
node {
  name: "Pad/paddings/2_1"
  op: "Const"
  attr {
    key: "dtype"
    value {
      type: DT_INT32
    }
  }
  attr {
    key: "value"
    value {
      tensor {
        dtype: DT_INT32
        tensor_shape {
          dim {
            size: 2
          }
        }
        tensor_content: "\000\000\000\000\000\000\000\000"
      }
    }
  }
}
node {
  name: "Pad/paddings"
  op: "Pack"
  input: "Pad/paddings/0"
  input: "Pad/paddings/1_1"
  input: "Pad/paddings/2_1"
  attr {
    key: "N"
    value {
      i: 3
    }
  }
  attr {
    key: "T"
    value {
      type: DT_INT32
    }
  }
  attr {
    key: "axis"
    value {
      i: 0
    }
  }
}
node {
  name: "Pad"
  op: "Pad"
  input: "transpose_1"
  input: "Pad/paddings"
  attr {
    key: "T"
    value {
      type: DT_COMPLEX64
    }
  }
  attr {
    key: "Tpaddings"
    value {
      type: DT_INT32
    }
  }
}
node {
  name: "Shape_1"
  op: "Shape"
  input: "Pad"
  attr {
    key: "T"
    value {
      type: DT_COMPLEX64
    }
  }
  attr {
    key: "out_type"
    value {
      type: DT_INT32
    }
  }
  experimental_type {
    type_id: TFT_PRODUCT
    args {
      type_id: TFT_SHAPE_TENSOR
      args {
        type_id: TFT_INT32
      }
    }
  }
}
node {
  name: "strided_slice_1/stack"
  op: "Const"
  attr {
    key: "dtype"
    value {
      type: DT_INT32
    }
  }
  attr {
    key: "value"
    value {
      tensor {
        dtype: DT_INT32
        tensor_shape {
          dim {
            size: 1
          }
        }
        int_val: 0
      }
    }
  }
}
node {
  name: "strided_slice_1/stack_1"
  op: "Const"
  attr {
    key: "dtype"
    value {
      type: DT_INT32
    }
  }
  attr {
    key: "value"
    value {
      tensor {
        dtype: DT_INT32
        tensor_shape {
          dim {
            size: 1
          }
        }
        int_val: 1
      }
    }
  }
}
node {
  name: "strided_slice_1/stack_2"
  op: "Const"
  attr {
    key: "dtype"
    value {
      type: DT_INT32
    }
  }
  attr {
    key: "value"
    value {
      tensor {
        dtype: DT_INT32
        tensor_shape {
          dim {
            size: 1
          }
        }
        int_val: 1
      }
    }
  }
}
node {
  name: "strided_slice_1"
  op: "StridedSlice"
  input: "Shape_1"
  input: "strided_slice_1/stack"
  input: "strided_slice_1/stack_1"
  input: "strided_slice_1/stack_2"
  attr {
    key: "Index"
    value {
      type: DT_INT32
    }
  }
  attr {
    key: "T"
    value {
      type: DT_INT32
    }
  }
  attr {
    key: "begin_mask"
    value {
      i: 0
    }
  }
  attr {
    key: "ellipsis_mask"
    value {
      i: 0
    }
  }
  attr {
    key: "end_mask"
    value {
      i: 0
    }
  }
  attr {
    key: "new_axis_mask"
    value {
      i: 0
    }
  }
  attr {
    key: "shrink_axis_mask"
    value {
      i: 1
    }
  }
}
node {
  name: "add/y"
  op: "Const"
  attr {
    key: "dtype"
    value {
      type: DT_INT32
    }
  }
  attr {
    key: "value"
    value {
      tensor {
        dtype: DT_INT32
        tensor_shape {
        }
        int_val: 512
      }
    }
  }
}
node {
  name: "add"
  op: "Add"
  input: "strided_slice_1"
  input: "add/y"
  attr {
    key: "T"
    value {
      type: DT_INT32
    }
  }
}
node {
  name: "sub_1/y"
  op: "Const"
  attr {
    key: "dtype"
    value {
      type: DT_INT32
    }
  }
  attr {
    key: "value"
    value {
      tensor {
        dtype: DT_INT32
        tensor_shape {
        }
        int_val: 1
      }
    }
  }
}
node {
  name: "sub_1"
  op: "Sub"
  input: "add"
  input: "sub_1/y"
  attr {
    key: "T"
    value {
      type: DT_INT32
    }
  }
}
node {
  name: "floordiv/y"
  op: "Const"
  attr {
    key: "dtype"
    value {
      type: DT_INT32
    }
  }
  attr {
    key: "value"
    value {
      tensor {
        dtype: DT_INT32
        tensor_shape {
        }
        int_val: 512
      }
    }
  }
}
node {
  name: "floordiv"
  op: "FloorDiv"
  input: "sub_1"
  input: "floordiv/y"
  attr {
    key: "T"
    value {
      type: DT_INT32
    }
  }
}
node {
  name: "Shape_2"
  op: "Shape"
  input: "Pad"
  attr {
    key: "T"
    value {
      type: DT_COMPLEX64
    }
  }
  attr {
    key: "out_type"
    value {
      type: DT_INT32
    }
  }
  experimental_type {
    type_id: TFT_PRODUCT
    args {
      type_id: TFT_SHAPE_TENSOR
      args {
        type_id: TFT_INT32
      }
    }
  }
}
node {
  name: "strided_slice_2/stack"
  op: "Const"
  attr {
    key: "dtype"
    value {
      type: DT_INT32
    }
  }
  attr {
    key: "value"
    value {
      tensor {
        dtype: DT_INT32
        tensor_shape {
          dim {
            size: 1
          }
        }
        int_val: 1
      }
    }
  }
}
node {
  name: "strided_slice_2/stack_1"
  op: "Const"
  attr {
    key: "dtype"
    value {
      type: DT_INT32
    }
  }
  attr {
    key: "value"
    value {
      tensor {
        dtype: DT_INT32
        tensor_shape {
          dim {
            size: 1
          }
        }
        int_val: 0
      }
    }
  }
}
node {
  name: "strided_slice_2/stack_2"
  op: "Const"
  attr {
    key: "dtype"
    value {
      type: DT_INT32
    }
  }
  attr {
    key: "value"
    value {
      tensor {
        dtype: DT_INT32
        tensor_shape {
          dim {
            size: 1
          }
        }
        int_val: 1
      }
    }
  }
}
node {
  name: "strided_slice_2"
  op: "StridedSlice"
  input: "Shape_2"
  input: "strided_slice_2/stack"
  input: "strided_slice_2/stack_1"
  input: "strided_slice_2/stack_2"
  attr {
    key: "Index"
    value {
      type: DT_INT32
    }
  }
  attr {
    key: "T"
    value {
      type: DT_INT32
    }
  }
  attr {
    key: "begin_mask"
    value {
      i: 0
    }
  }
  attr {
    key: "ellipsis_mask"
    value {
      i: 0
    }
  }
  attr {
    key: "end_mask"
    value {
      i: 1
    }
  }
  attr {
    key: "new_axis_mask"
    value {
      i: 0
    }
  }
  attr {
    key: "shrink_axis_mask"
    value {
      i: 0
    }
  }
}
node {
  name: "concat/values_0/1"
  op: "Const"
  attr {
    key: "dtype"
    value {
      type: DT_INT32
    }
  }
  attr {
    key: "value"
    value {
      tensor {
        dtype: DT_INT32
        tensor_shape {
        }
        int_val: 512
      }
    }
  }
}
node {
  name: "concat/values_0"
  op: "Pack"
  input: "floordiv"
  input: "concat/values_0/1"
  attr {
    key: "N"
    value {
      i: 2
    }
  }
  attr {
    key: "T"
    value {
      type: DT_INT32
    }
  }
  attr {
    key: "axis"
    value {
      i: 0
    }
  }
}
node {
  name: "concat/axis"
  op: "Const"
  attr {
    key: "dtype"
    value {
      type: DT_INT32
    }
  }
  attr {
    key: "value"
    value {
      tensor {
        dtype: DT_INT32
        tensor_shape {
        }
        int_val: 0
      }
    }
  }
}
node {
  name: "concat"
  op: "ConcatV2"
  input: "concat/values_0"
  input: "strided_slice_2"
  input: "concat/axis"
  attr {
    key: "N"
    value {
      i: 2
    }
  }
  attr {
    key: "T"
    value {
      type: DT_INT32
    }
  }
  attr {
    key: "Tidx"
    value {
      type: DT_INT32
    }
  }
}
node {
  name: "Reshape"
  op: "Reshape"
  input: "Pad"
  input: "concat"
  attr {
    key: "T"
    value {
      type: DT_COMPLEX64
    }
  }
  attr {
    key: "Tshape"
    value {
      type: DT_INT32
    }
  }
}
node {
  name: "Abs"
  op: "ComplexAbs"
  input: "Reshape"
  attr {
    key: "T"
    value {
      type: DT_COMPLEX64
    }
  }
  attr {
    key: "Tout"
    value {
      type: DT_FLOAT
    }
  }
}
node {
  name: "strided_slice_3/stack"
  op: "Const"
  attr {
    key: "dtype"
    value {
      type: DT_INT32
    }
  }
  attr {
    key: "value"
    value {
      tensor {
        dtype: DT_INT32
        tensor_shape {
          dim {
            size: 4
          }
        }
        tensor_content: "\000\000\000\000\000\000\000\000\000\000\000\000\000\000\000\000"
      }
    }
  }
}
node {
  name: "strided_slice_3/stack_1"
  op: "Const"
  attr {
    key: "dtype"
    value {
      type: DT_INT32
    }
  }
  attr {
    key: "value"
    value {
      tensor {
        dtype: DT_INT32
        tensor_shape {
          dim {
            size: 4
          }
        }
        tensor_content: "\000\000\000\000\000\000\000\000\000\004\000\000\000\000\000\000"
      }
    }
  }
}
node {
  name: "strided_slice_3/stack_2"
  op: "Const"
  attr {
    key: "dtype"
    value {
      type: DT_INT32
    }
  }
  attr {
    key: "value"
    value {
      tensor {
        dtype: DT_INT32
        tensor_shape {
          dim {
            size: 4
          }
        }
        tensor_content: "\001\000\000\000\001\000\000\000\001\000\000\000\001\000\000\000"
      }
    }
  }
}
node {
  name: "strided_slice_3"
  op: "StridedSlice"
  input: "Abs"
  input: "strided_slice_3/stack"
  input: "strided_slice_3/stack_1"
  input: "strided_slice_3/stack_2"
  attr {
    key: "Index"
    value {
      type: DT_INT32
    }
  }
  attr {
    key: "T"
    value {
      type: DT_FLOAT
    }
  }
  attr {
    key: "begin_mask"
    value {
      i: 15
    }
  }
  attr {
    key: "ellipsis_mask"
    value {
      i: 0
    }
  }
  attr {
    key: "end_mask"
    value {
      i: 11
    }
  }
  attr {
    key: "new_axis_mask"
    value {
      i: 0
    }
  }
  attr {
    key: "shrink_axis_mask"
    value {
      i: 0
    }
  }
}
node {
  name: "conv2d/kernel/Initializer/random_uniform/shape"
  op: "Const"
  attr {
    key: "_class"
    value {
      list {
        s: "loc:@conv2d/kernel"
      }
    }
  }
  attr {
    key: "dtype"
    value {
      type: DT_INT32
    }
  }
  attr {
    key: "value"
    value {
      tensor {
        dtype: DT_INT32
        tensor_shape {
          dim {
            size: 4
          }
        }
        tensor_content: "\005\000\000\000\005\000\000\000\002\000\000\000\020\000\000\000"
      }
    }
  }
}
node {
  name: "conv2d/kernel/Initializer/random_uniform/min"
  op: "Const"
  attr {
    key: "_class"
    value {
      list {
        s: "loc:@conv2d/kernel"
      }
    }
  }
  attr {
    key: "dtype"
    value {
      type: DT_FLOAT
    }
  }
  attr {
    key: "value"
    value {
      tensor {
        dtype: DT_FLOAT
        tensor_shape {
        }
        float_val: -0.3464101552963257
      }
    }
  }
}
node {
  name: "conv2d/kernel/Initializer/random_uniform/max"
  op: "Const"
  attr {
    key: "_class"
    value {
      list {
        s: "loc:@conv2d/kernel"
      }
    }
  }
  attr {
    key: "dtype"
    value {
      type: DT_FLOAT
    }
  }
  attr {
    key: "value"
    value {
      tensor {
        dtype: DT_FLOAT
        tensor_shape {
        }
        float_val: 0.3464101552963257
      }
    }
  }
}
node {
  name: "conv2d/kernel/Initializer/random_uniform/RandomUniform"
  op: "RandomUniform"
  input: "conv2d/kernel/Initializer/random_uniform/shape"
  attr {
    key: "T"
    value {
      type: DT_INT32
    }
  }
  attr {
    key: "_class"
    value {
      list {
        s: "loc:@conv2d/kernel"
      }
    }
  }
  attr {
    key: "dtype"
    value {
      type: DT_FLOAT
    }
  }
  attr {
    key: "seed"
    value {
      i: 87654321
    }
  }
  attr {
    key: "seed2"
    value {
      i: 50
    }
  }
}
node {
  name: "conv2d/kernel/Initializer/random_uniform/sub"
  op: "Sub"
  input: "conv2d/kernel/Initializer/random_uniform/max"
  input: "conv2d/kernel/Initializer/random_uniform/min"
  attr {
    key: "T"
    value {
      type: DT_FLOAT
    }
  }
  attr {
    key: "_class"
    value {
      list {
        s: "loc:@conv2d/kernel"
      }
    }
  }
}
node {
  name: "conv2d/kernel/Initializer/random_uniform/mul"
  op: "Mul"
  input: "conv2d/kernel/Initializer/random_uniform/RandomUniform"
  input: "conv2d/kernel/Initializer/random_uniform/sub"
  attr {
    key: "T"
    value {
      type: DT_FLOAT
    }
  }
  attr {
    key: "_class"
    value {
      list {
        s: "loc:@conv2d/kernel"
      }
    }
  }
}
node {
  name: "conv2d/kernel/Initializer/random_uniform"
  op: "Add"
  input: "conv2d/kernel/Initializer/random_uniform/mul"
  input: "conv2d/kernel/Initializer/random_uniform/min"
  attr {
    key: "T"
    value {
      type: DT_FLOAT
    }
  }
  attr {
    key: "_class"
    value {
      list {
        s: "loc:@conv2d/kernel"
      }
    }
  }
}
node {
  name: "conv2d/kernel"
  op: "VarHandleOp"
  attr {
    key: "_class"
    value {
      list {
        s: "loc:@conv2d/kernel"
      }
    }
  }
  attr {
    key: "allowed_devices"
    value {
      list {
      }
    }
  }
  attr {
    key: "container"
    value {
      s: ""
    }
  }
  attr {
    key: "dtype"
    value {
      type: DT_FLOAT
    }
  }
  attr {
    key: "shape"
    value {
      shape {
        dim {
          size: 5
        }
        dim {
          size: 5
        }
        dim {
          size: 2
        }
        dim {
          size: 16
        }
      }
    }
  }
  attr {
    key: "shared_name"
    value {
      s: "conv2d/kernel"
    }
  }
}
node {
  name: "conv2d/kernel/IsInitialized/VarIsInitializedOp"
  op: "VarIsInitializedOp"
  input: "conv2d/kernel"
}
node {
  name: "conv2d/kernel/Assign"
  op: "AssignVariableOp"
  input: "conv2d/kernel"
  input: "conv2d/kernel/Initializer/random_uniform"
  attr {
    key: "_class"
    value {
      list {
        s: "loc:@conv2d/kernel"
      }
    }
  }
  attr {
    key: "dtype"
    value {
      type: DT_FLOAT
    }
  }
  attr {
    key: "validate_shape"
    value {
      b: false
    }
  }
}
node {
  name: "conv2d/kernel/Read/ReadVariableOp"
  op: "ReadVariableOp"
  input: "conv2d/kernel"
  attr {
    key: "_class"
    value {
      list {
        s: "loc:@conv2d/kernel"
      }
    }
  }
  attr {
    key: "dtype"
    value {
      type: DT_FLOAT
    }
  }
}
node {
  name: "conv2d/bias/Initializer/zeros"
  op: "Const"
  attr {
    key: "_class"
    value {
      list {
        s: "loc:@conv2d/bias"
      }
    }
  }
  attr {
    key: "dtype"
    value {
      type: DT_FLOAT
    }
  }
  attr {
    key: "value"
    value {
      tensor {
        dtype: DT_FLOAT
        tensor_shape {
          dim {
            size: 16
          }
        }
        float_val: 0.0
      }
    }
  }
}
node {
  name: "conv2d/bias"
  op: "VarHandleOp"
  attr {
    key: "_class"
    value {
      list {
        s: "loc:@conv2d/bias"
      }
    }
  }
  attr {
    key: "allowed_devices"
    value {
      list {
      }
    }
  }
  attr {
    key: "container"
    value {
      s: ""
    }
  }
  attr {
    key: "dtype"
    value {
      type: DT_FLOAT
    }
  }
  attr {
    key: "shape"
    value {
      shape {
        dim {
          size: 16
        }
      }
    }
  }
  attr {
    key: "shared_name"
    value {
      s: "conv2d/bias"
    }
  }
}
node {
  name: "conv2d/bias/IsInitialized/VarIsInitializedOp"
  op: "VarIsInitializedOp"
  input: "conv2d/bias"
}
node {
  name: "conv2d/bias/Assign"
  op: "AssignVariableOp"
  input: "conv2d/bias"
  input: "conv2d/bias/Initializer/zeros"
  attr {
    key: "_class"
    value {
      list {
        s: "loc:@conv2d/bias"
      }
    }
  }
  attr {
    key: "dtype"
    value {
      type: DT_FLOAT
    }
  }
  attr {
    key: "validate_shape"
    value {
      b: false
    }
  }
}
node {
  name: "conv2d/bias/Read/ReadVariableOp"
  op: "ReadVariableOp"
  input: "conv2d/bias"
  attr {
    key: "_class"
    value {
      list {
        s: "loc:@conv2d/bias"
      }
    }
  }
  attr {
    key: "dtype"
    value {
      type: DT_FLOAT
    }
  }
}
node {
  name: "conv2d/dilation_rate"
  op: "Const"
  attr {
    key: "dtype"
    value {
      type: DT_INT32
    }
  }
  attr {
    key: "value"
    value {
      tensor {
        dtype: DT_INT32
        tensor_shape {
          dim {
            size: 2
          }
        }
        tensor_content: "\001\000\000\000\001\000\000\000"
      }
    }
  }
}
node {
  name: "conv2d/Conv2D/ReadVariableOp"
  op: "ReadVariableOp"
  input: "conv2d/kernel"
  attr {
    key: "dtype"
    value {
      type: DT_FLOAT
    }
  }
}
node {
  name: "conv2d/Conv2D"
  op: "Conv2D"
  input: "strided_slice_3"
  input: "conv2d/Conv2D/ReadVariableOp"
  attr {
    key: "T"
    value {
      type: DT_FLOAT
    }
  }
  attr {
    key: "data_format"
    value {
      s: "NHWC"
    }
  }
  attr {
    key: "dilations"
    value {
      list {
        i: 1
        i: 1
        i: 1
        i: 1
      }
    }
  }
  attr {
    key: "explicit_paddings"
    value {
      list {
      }
    }
  }
  attr {
    key: "padding"
    value {
      s: "SAME"
    }
  }
  attr {
    key: "strides"
    value {
      list {
        i: 1
        i: 2
        i: 2
        i: 1
      }
    }
  }
  attr {
    key: "use_cudnn_on_gpu"
    value {
      b: true
    }
  }
}
node {
  name: "conv2d/BiasAdd/ReadVariableOp"
  op: "ReadVariableOp"
  input: "conv2d/bias"
  attr {
    key: "dtype"
    value {
      type: DT_FLOAT
    }
  }
}
node {
  name: "conv2d/BiasAdd"
  op: "BiasAdd"
  input: "conv2d/Conv2D"
  input: "conv2d/BiasAdd/ReadVariableOp"
  attr {
    key: "T"
    value {
      type: DT_FLOAT
    }
  }
  attr {
    key: "data_format"
    value {
      s: "NHWC"
    }
  }
}
node {
  name: "batch_normalization/gamma/Initializer/ones"
  op: "Const"
  attr {
    key: "_class"
    value {
      list {
        s: "loc:@batch_normalization/gamma"
      }
    }
  }
  attr {
    key: "dtype"
    value {
      type: DT_FLOAT
    }
  }
  attr {
    key: "value"
    value {
      tensor {
        dtype: DT_FLOAT
        tensor_shape {
          dim {
            size: 16
          }
        }
        float_val: 1.0
      }
    }
  }
}
node {
  name: "batch_normalization/gamma"
  op: "VarHandleOp"
  attr {
    key: "_class"
    value {
      list {
        s: "loc:@batch_normalization/gamma"
      }
    }
  }
  attr {
    key: "allowed_devices"
    value {
      list {
      }
    }
  }
  attr {
    key: "container"
    value {
      s: ""
    }
  }
  attr {
    key: "dtype"
    value {
      type: DT_FLOAT
    }
  }
  attr {
    key: "shape"
    value {
      shape {
        dim {
          size: 16
        }
      }
    }
  }
  attr {
    key: "shared_name"
    value {
      s: "batch_normalization/gamma"
    }
  }
}
node {
  name: "batch_normalization/gamma/IsInitialized/VarIsInitializedOp"
  op: "VarIsInitializedOp"
  input: "batch_normalization/gamma"
}
node {
  name: "batch_normalization/gamma/Assign"
  op: "AssignVariableOp"
  input: "batch_normalization/gamma"
  input: "batch_normalization/gamma/Initializer/ones"
  attr {
    key: "_class"
    value {
      list {
        s: "loc:@batch_normalization/gamma"
      }
    }
  }
  attr {
    key: "dtype"
    value {
      type: DT_FLOAT
    }
  }
  attr {
    key: "validate_shape"
    value {
      b: false
    }
  }
}
node {
  name: "batch_normalization/gamma/Read/ReadVariableOp"
  op: "ReadVariableOp"
  input: "batch_normalization/gamma"
  attr {
    key: "_class"
    value {
      list {
        s: "loc:@batch_normalization/gamma"
      }
    }
  }
  attr {
    key: "dtype"
    value {
      type: DT_FLOAT
    }
  }
}
node {
  name: "batch_normalization/beta/Initializer/zeros"
  op: "Const"
  attr {
    key: "_class"
    value {
      list {
        s: "loc:@batch_normalization/beta"
      }
    }
  }
  attr {
    key: "dtype"
    value {
      type: DT_FLOAT
    }
  }
  attr {
    key: "value"
    value {
      tensor {
        dtype: DT_FLOAT
        tensor_shape {
          dim {
            size: 16
          }
        }
        float_val: 0.0
      }
    }
  }
}
node {
  name: "batch_normalization/beta"
  op: "VarHandleOp"
  attr {
    key: "_class"
    value {
      list {
        s: "loc:@batch_normalization/beta"
      }
    }
  }
  attr {
    key: "allowed_devices"
    value {
      list {
      }
    }
  }
  attr {
    key: "container"
    value {
      s: ""
    }
  }
  attr {
    key: "dtype"
    value {
      type: DT_FLOAT
    }
  }
  attr {
    key: "shape"
    value {
      shape {
        dim {
          size: 16
        }
      }
    }
  }
  attr {
    key: "shared_name"
    value {
      s: "batch_normalization/beta"
    }
  }
}
node {
  name: "batch_normalization/beta/IsInitialized/VarIsInitializedOp"
  op: "VarIsInitializedOp"
  input: "batch_normalization/beta"
}
node {
  name: "batch_normalization/beta/Assign"
  op: "AssignVariableOp"
  input: "batch_normalization/beta"
  input: "batch_normalization/beta/Initializer/zeros"
  attr {
    key: "_class"
    value {
      list {
        s: "loc:@batch_normalization/beta"
      }
    }
  }
  attr {
    key: "dtype"
    value {
      type: DT_FLOAT
    }
  }
  attr {
    key: "validate_shape"
    value {
      b: false
    }
  }
}
node {
  name: "batch_normalization/beta/Read/ReadVariableOp"
  op: "ReadVariableOp"
  input: "batch_normalization/beta"
  attr {
    key: "_class"
    value {
      list {
        s: "loc:@batch_normalization/beta"
      }
    }
  }
  attr {
    key: "dtype"
    value {
      type: DT_FLOAT
    }
  }
}
node {
  name: "batch_normalization/moving_mean/Initializer/zeros"
  op: "Const"
  attr {
    key: "_class"
    value {
      list {
        s: "loc:@batch_normalization/moving_mean"
      }
    }
  }
  attr {
    key: "dtype"
    value {
      type: DT_FLOAT
    }
  }
  attr {
    key: "value"
    value {
      tensor {
        dtype: DT_FLOAT
        tensor_shape {
          dim {
            size: 16
          }
        }
        float_val: 0.0
      }
    }
  }
}
node {
  name: "batch_normalization/moving_mean"
  op: "VarHandleOp"
  attr {
    key: "_class"
    value {
      list {
        s: "loc:@batch_normalization/moving_mean"
      }
    }
  }
  attr {
    key: "allowed_devices"
    value {
      list {
      }
    }
  }
  attr {
    key: "container"
    value {
      s: ""
    }
  }
  attr {
    key: "dtype"
    value {
      type: DT_FLOAT
    }
  }
  attr {
    key: "shape"
    value {
      shape {
        dim {
          size: 16
        }
      }
    }
  }
  attr {
    key: "shared_name"
    value {
      s: "batch_normalization/moving_mean"
    }
  }
}
node {
  name: "batch_normalization/moving_mean/IsInitialized/VarIsInitializedOp"
  op: "VarIsInitializedOp"
  input: "batch_normalization/moving_mean"
}
node {
  name: "batch_normalization/moving_mean/Assign"
  op: "AssignVariableOp"
  input: "batch_normalization/moving_mean"
  input: "batch_normalization/moving_mean/Initializer/zeros"
  attr {
    key: "_class"
    value {
      list {
        s: "loc:@batch_normalization/moving_mean"
      }
    }
  }
  attr {
    key: "dtype"
    value {
      type: DT_FLOAT
    }
  }
  attr {
    key: "validate_shape"
    value {
      b: false
    }
  }
}
node {
  name: "batch_normalization/moving_mean/Read/ReadVariableOp"
  op: "ReadVariableOp"
  input: "batch_normalization/moving_mean"
  attr {
    key: "_class"
    value {
      list {
        s: "loc:@batch_normalization/moving_mean"
      }
    }
  }
  attr {
    key: "dtype"
    value {
      type: DT_FLOAT
    }
  }
}
node {
  name: "batch_normalization/moving_variance/Initializer/ones"
  op: "Const"
  attr {
    key: "_class"
    value {
      list {
        s: "loc:@batch_normalization/moving_variance"
      }
    }
  }
  attr {
    key: "dtype"
    value {
      type: DT_FLOAT
    }
  }
  attr {
    key: "value"
    value {
      tensor {
        dtype: DT_FLOAT
        tensor_shape {
          dim {
            size: 16
          }
        }
        float_val: 1.0
      }
    }
  }
}
node {
  name: "batch_normalization/moving_variance"
  op: "VarHandleOp"
  attr {
    key: "_class"
    value {
      list {
        s: "loc:@batch_normalization/moving_variance"
      }
    }
  }
  attr {
    key: "allowed_devices"
    value {
      list {
      }
    }
  }
  attr {
    key: "container"
    value {
      s: ""
    }
  }
  attr {
    key: "dtype"
    value {
      type: DT_FLOAT
    }
  }
  attr {
    key: "shape"
    value {
      shape {
        dim {
          size: 16
        }
      }
    }
  }
  attr {
    key: "shared_name"
    value {
      s: "batch_normalization/moving_variance"
    }
  }
}
node {
  name: "batch_normalization/moving_variance/IsInitialized/VarIsInitializedOp"
  op: "VarIsInitializedOp"
  input: "batch_normalization/moving_variance"
}
node {
  name: "batch_normalization/moving_variance/Assign"
  op: "AssignVariableOp"
  input: "batch_normalization/moving_variance"
  input: "batch_normalization/moving_variance/Initializer/ones"
  attr {
    key: "_class"
    value {
      list {
        s: "loc:@batch_normalization/moving_variance"
      }
    }
  }
  attr {
    key: "dtype"
    value {
      type: DT_FLOAT
    }
  }
  attr {
    key: "validate_shape"
    value {
      b: false
    }
  }
}
node {
  name: "batch_normalization/moving_variance/Read/ReadVariableOp"
  op: "ReadVariableOp"
  input: "batch_normalization/moving_variance"
  attr {
    key: "_class"
    value {
      list {
        s: "loc:@batch_normalization/moving_variance"
      }
    }
  }
  attr {
    key: "dtype"
    value {
      type: DT_FLOAT
    }
  }
}
node {
  name: "keras_learning_phase/input"
  op: "Const"
  attr {
    key: "dtype"
    value {
      type: DT_BOOL
    }
  }
  attr {
    key: "value"
    value {
      tensor {
        dtype: DT_BOOL
        tensor_shape {
        }
        bool_val: false
      }
    }
  }
}
node {
  name: "keras_learning_phase"
  op: "PlaceholderWithDefault"
  input: "keras_learning_phase/input"
  attr {
    key: "dtype"
    value {
      type: DT_BOOL
    }
  }
  attr {
    key: "shape"
    value {
      shape {
      }
    }
  }
}
node {
  name: "batch_normalization/cond/Switch"
  op: "Switch"
  input: "keras_learning_phase"
  input: "keras_learning_phase"
  attr {
    key: "T"
    value {
      type: DT_BOOL
    }
  }
}
node {
  name: "batch_normalization/cond/switch_t"
  op: "Identity"
  input: "batch_normalization/cond/Switch:1"
  attr {
    key: "T"
    value {
      type: DT_BOOL
    }
  }
}
node {
  name: "batch_normalization/cond/switch_f"
  op: "Identity"
  input: "batch_normalization/cond/Switch"
  attr {
    key: "T"
    value {
      type: DT_BOOL
    }
  }
}
node {
  name: "batch_normalization/cond/pred_id"
  op: "Identity"
  input: "keras_learning_phase"
  attr {
    key: "T"
    value {
      type: DT_BOOL
    }
  }
}
node {
  name: "batch_normalization/cond/ReadVariableOp/Switch"
  op: "Switch"
  input: "batch_normalization/gamma"
  input: "batch_normalization/cond/pred_id"
  attr {
    key: "T"
    value {
      type: DT_RESOURCE
    }
  }
  attr {
    key: "_class"
    value {
      list {
        s: "loc:@batch_normalization/gamma"
      }
    }
  }
}
node {
  name: "batch_normalization/cond/ReadVariableOp"
  op: "ReadVariableOp"
  input: "batch_normalization/cond/ReadVariableOp/Switch:1"
  attr {
    key: "dtype"
    value {
      type: DT_FLOAT
    }
  }
}
node {
  name: "batch_normalization/cond/ReadVariableOp_1/Switch"
  op: "Switch"
  input: "batch_normalization/beta"
  input: "batch_normalization/cond/pred_id"
  attr {
    key: "T"
    value {
      type: DT_RESOURCE
    }
  }
  attr {
    key: "_class"
    value {
      list {
        s: "loc:@batch_normalization/beta"
      }
    }
  }
}
node {
  name: "batch_normalization/cond/ReadVariableOp_1"
  op: "ReadVariableOp"
  input: "batch_normalization/cond/ReadVariableOp_1/Switch:1"
  attr {
    key: "dtype"
    value {
      type: DT_FLOAT
    }
  }
}
node {
  name: "batch_normalization/cond/Const"
  op: "Const"
  input: "^batch_normalization/cond/switch_t"
  attr {
    key: "dtype"
    value {
      type: DT_FLOAT
    }
  }
  attr {
    key: "value"
    value {
      tensor {
        dtype: DT_FLOAT
        tensor_shape {
          dim {
          }
        }
      }
    }
  }
}
node {
  name: "batch_normalization/cond/Const_1"
  op: "Const"
  input: "^batch_normalization/cond/switch_t"
  attr {
    key: "dtype"
    value {
      type: DT_FLOAT
    }
  }
  attr {
    key: "value"
    value {
      tensor {
        dtype: DT_FLOAT
        tensor_shape {
          dim {
          }
        }
      }
    }
  }
}
node {
  name: "batch_normalization/cond/FusedBatchNorm/Switch"
  op: "Switch"
  input: "conv2d/BiasAdd"
  input: "batch_normalization/cond/pred_id"
  attr {
    key: "T"
    value {
      type: DT_FLOAT
    }
  }
  attr {
    key: "_class"
    value {
      list {
        s: "loc:@conv2d/BiasAdd"
      }
    }
  }
}
node {
  name: "batch_normalization/cond/FusedBatchNorm"
  op: "FusedBatchNorm"
  input: "batch_normalization/cond/FusedBatchNorm/Switch:1"
  input: "batch_normalization/cond/ReadVariableOp"
  input: "batch_normalization/cond/ReadVariableOp_1"
  input: "batch_normalization/cond/Const"
  input: "batch_normalization/cond/Const_1"
  attr {
    key: "T"
    value {
      type: DT_FLOAT
    }
  }
  attr {
    key: "data_format"
    value {
      s: "NHWC"
    }
  }
  attr {
    key: "epsilon"
    value {
      f: 0.0010000000474974513
    }
  }
  attr {
    key: "exponential_avg_factor"
    value {
      f: 1.0
    }
  }
  attr {
    key: "is_training"
    value {
      b: true
    }
  }
}
node {
  name: "batch_normalization/cond/ReadVariableOp_2/Switch"
  op: "Switch"
  input: "batch_normalization/gamma"
  input: "batch_normalization/cond/pred_id"
  attr {
    key: "T"
    value {
      type: DT_RESOURCE
    }
  }
  attr {
    key: "_class"
    value {
      list {
        s: "loc:@batch_normalization/gamma"
      }
    }
  }
}
node {
  name: "batch_normalization/cond/ReadVariableOp_2"
  op: "ReadVariableOp"
  input: "batch_normalization/cond/ReadVariableOp_2/Switch"
  attr {
    key: "dtype"
    value {
      type: DT_FLOAT
    }
  }
}
node {
  name: "batch_normalization/cond/ReadVariableOp_3/Switch"
  op: "Switch"
  input: "batch_normalization/beta"
  input: "batch_normalization/cond/pred_id"
  attr {
    key: "T"
    value {
      type: DT_RESOURCE
    }
  }
  attr {
    key: "_class"
    value {
      list {
        s: "loc:@batch_normalization/beta"
      }
    }
  }
}
node {
  name: "batch_normalization/cond/ReadVariableOp_3"
  op: "ReadVariableOp"
  input: "batch_normalization/cond/ReadVariableOp_3/Switch"
  attr {
    key: "dtype"
    value {
      type: DT_FLOAT
    }
  }
}
node {
  name: "batch_normalization/cond/FusedBatchNorm_1/ReadVariableOp/Switch"
  op: "Switch"
  input: "batch_normalization/moving_mean"
  input: "batch_normalization/cond/pred_id"
  attr {
    key: "T"
    value {
      type: DT_RESOURCE
    }
  }
  attr {
    key: "_class"
    value {
      list {
        s: "loc:@batch_normalization/moving_mean"
      }
    }
  }
}
node {
  name: "batch_normalization/cond/FusedBatchNorm_1/ReadVariableOp"
  op: "ReadVariableOp"
  input: "batch_normalization/cond/FusedBatchNorm_1/ReadVariableOp/Switch"
  attr {
    key: "dtype"
    value {
      type: DT_FLOAT
    }
  }
}
node {
  name: "batch_normalization/cond/FusedBatchNorm_1/ReadVariableOp_1/Switch"
  op: "Switch"
  input: "batch_normalization/moving_variance"
  input: "batch_normalization/cond/pred_id"
  attr {
    key: "T"
    value {
      type: DT_RESOURCE
    }
  }
  attr {
    key: "_class"
    value {
      list {
        s: "loc:@batch_normalization/moving_variance"
      }
    }
  }
}
node {
  name: "batch_normalization/cond/FusedBatchNorm_1/ReadVariableOp_1"
  op: "ReadVariableOp"
  input: "batch_normalization/cond/FusedBatchNorm_1/ReadVariableOp_1/Switch"
  attr {
    key: "dtype"
    value {
      type: DT_FLOAT
    }
  }
}
node {
  name: "batch_normalization/cond/FusedBatchNorm_1/Switch"
  op: "Switch"
  input: "conv2d/BiasAdd"
  input: "batch_normalization/cond/pred_id"
  attr {
    key: "T"
    value {
      type: DT_FLOAT
    }
  }
  attr {
    key: "_class"
    value {
      list {
        s: "loc:@conv2d/BiasAdd"
      }
    }
  }
}
node {
  name: "batch_normalization/cond/FusedBatchNorm_1"
  op: "FusedBatchNorm"
  input: "batch_normalization/cond/FusedBatchNorm_1/Switch"
  input: "batch_normalization/cond/ReadVariableOp_2"
  input: "batch_normalization/cond/ReadVariableOp_3"
  input: "batch_normalization/cond/FusedBatchNorm_1/ReadVariableOp"
  input: "batch_normalization/cond/FusedBatchNorm_1/ReadVariableOp_1"
  attr {
    key: "T"
    value {
      type: DT_FLOAT
    }
  }
  attr {
    key: "data_format"
    value {
      s: "NHWC"
    }
  }
  attr {
    key: "epsilon"
    value {
      f: 0.0010000000474974513
    }
  }
  attr {
    key: "exponential_avg_factor"
    value {
      f: 1.0
    }
  }
  attr {
    key: "is_training"
    value {
      b: false
    }
  }
}
node {
  name: "batch_normalization/cond/Merge"
  op: "Merge"
  input: "batch_normalization/cond/FusedBatchNorm_1"
  input: "batch_normalization/cond/FusedBatchNorm"
  attr {
    key: "N"
    value {
      i: 2
    }
  }
  attr {
    key: "T"
    value {
      type: DT_FLOAT
    }
  }
}
node {
  name: "batch_normalization/cond/Merge_1"
  op: "Merge"
  input: "batch_normalization/cond/FusedBatchNorm_1:1"
  input: "batch_normalization/cond/FusedBatchNorm:1"
  attr {
    key: "N"
    value {
      i: 2
    }
  }
  attr {
    key: "T"
    value {
      type: DT_FLOAT
    }
  }
}
node {
  name: "batch_normalization/cond/Merge_2"
  op: "Merge"
  input: "batch_normalization/cond/FusedBatchNorm_1:2"
  input: "batch_normalization/cond/FusedBatchNorm:2"
  attr {
    key: "N"
    value {
      i: 2
    }
  }
  attr {
    key: "T"
    value {
      type: DT_FLOAT
    }
  }
}
node {
  name: "batch_normalization/cond_1/Switch"
  op: "Switch"
  input: "keras_learning_phase"
  input: "keras_learning_phase"
  attr {
    key: "T"
    value {
      type: DT_BOOL
    }
  }
}
node {
  name: "batch_normalization/cond_1/switch_t"
  op: "Identity"
  input: "batch_normalization/cond_1/Switch:1"
  attr {
    key: "T"
    value {
      type: DT_BOOL
    }
  }
}
node {
  name: "batch_normalization/cond_1/switch_f"
  op: "Identity"
  input: "batch_normalization/cond_1/Switch"
  attr {
    key: "T"
    value {
      type: DT_BOOL
    }
  }
}
node {
  name: "batch_normalization/cond_1/pred_id"
  op: "Identity"
  input: "keras_learning_phase"
  attr {
    key: "T"
    value {
      type: DT_BOOL
    }
  }
}
node {
  name: "batch_normalization/cond_1/Const"
  op: "Const"
  input: "^batch_normalization/cond_1/switch_t"
  attr {
    key: "dtype"
    value {
      type: DT_FLOAT
    }
  }
  attr {
    key: "value"
    value {
      tensor {
        dtype: DT_FLOAT
        tensor_shape {
        }
        float_val: 0.9900000095367432
      }
    }
  }
}
node {
  name: "batch_normalization/cond_1/Const_1"
  op: "Const"
  input: "^batch_normalization/cond_1/switch_f"
  attr {
    key: "dtype"
    value {
      type: DT_FLOAT
    }
  }
  attr {
    key: "value"
    value {
      tensor {
        dtype: DT_FLOAT
        tensor_shape {
        }
        float_val: 1.0
      }
    }
  }
}
node {
  name: "batch_normalization/cond_1/Merge"
  op: "Merge"
  input: "batch_normalization/cond_1/Const_1"
  input: "batch_normalization/cond_1/Const"
  attr {
    key: "N"
    value {
      i: 2
    }
  }
  attr {
    key: "T"
    value {
      type: DT_FLOAT
    }
  }
}
node {
  name: "batch_normalization/AssignMovingAvg/sub/x"
  op: "Const"
  attr {
    key: "_class"
    value {
      list {
        s: "loc:@batch_normalization/moving_mean"
      }
    }
  }
  attr {
    key: "dtype"
    value {
      type: DT_FLOAT
    }
  }
  attr {
    key: "value"
    value {
      tensor {
        dtype: DT_FLOAT
        tensor_shape {
        }
        float_val: 1.0
      }
    }
  }
}
node {
  name: "batch_normalization/AssignMovingAvg/sub"
  op: "Sub"
  input: "batch_normalization/AssignMovingAvg/sub/x"
  input: "batch_normalization/cond_1/Merge"
  attr {
    key: "T"
    value {
      type: DT_FLOAT
    }
  }
  attr {
    key: "_class"
    value {
      list {
        s: "loc:@batch_normalization/moving_mean"
      }
    }
  }
}
node {
  name: "batch_normalization/AssignMovingAvg/ReadVariableOp"
  op: "ReadVariableOp"
  input: "batch_normalization/moving_mean"
  attr {
    key: "dtype"
    value {
      type: DT_FLOAT
    }
  }
}
node {
  name: "batch_normalization/AssignMovingAvg/sub_1"
  op: "Sub"
  input: "batch_normalization/AssignMovingAvg/ReadVariableOp"
  input: "batch_normalization/cond/Merge_1"
  attr {
    key: "T"
    value {
      type: DT_FLOAT
    }
  }
  attr {
    key: "_class"
    value {
      list {
        s: "loc:@batch_normalization/moving_mean"
      }
    }
  }
}
node {
  name: "batch_normalization/AssignMovingAvg/mul"
  op: "Mul"
  input: "batch_normalization/AssignMovingAvg/sub_1"
  input: "batch_normalization/AssignMovingAvg/sub"
  attr {
    key: "T"
    value {
      type: DT_FLOAT
    }
  }
  attr {
    key: "_class"
    value {
      list {
        s: "loc:@batch_normalization/moving_mean"
      }
    }
  }
}
node {
  name: "batch_normalization/AssignMovingAvg/AssignSubVariableOp"
  op: "AssignSubVariableOp"
  input: "batch_normalization/moving_mean"
  input: "batch_normalization/AssignMovingAvg/mul"
  attr {
    key: "_class"
    value {
      list {
        s: "loc:@batch_normalization/moving_mean"
      }
    }
  }
  attr {
    key: "dtype"
    value {
      type: DT_FLOAT
    }
  }
}
node {
  name: "batch_normalization/AssignMovingAvg/ReadVariableOp_1"
  op: "ReadVariableOp"
  input: "batch_normalization/moving_mean"
  input: "^batch_normalization/AssignMovingAvg/AssignSubVariableOp"
  attr {
    key: "_class"
    value {
      list {
        s: "loc:@batch_normalization/moving_mean"
      }
    }
  }
  attr {
    key: "dtype"
    value {
      type: DT_FLOAT
    }
  }
}
node {
  name: "batch_normalization/AssignMovingAvg_1/sub/x"
  op: "Const"
  attr {
    key: "_class"
    value {
      list {
        s: "loc:@batch_normalization/moving_variance"
      }
    }
  }
  attr {
    key: "dtype"
    value {
      type: DT_FLOAT
    }
  }
  attr {
    key: "value"
    value {
      tensor {
        dtype: DT_FLOAT
        tensor_shape {
        }
        float_val: 1.0
      }
    }
  }
}
node {
  name: "batch_normalization/AssignMovingAvg_1/sub"
  op: "Sub"
  input: "batch_normalization/AssignMovingAvg_1/sub/x"
  input: "batch_normalization/cond_1/Merge"
  attr {
    key: "T"
    value {
      type: DT_FLOAT
    }
  }
  attr {
    key: "_class"
    value {
      list {
        s: "loc:@batch_normalization/moving_variance"
      }
    }
  }
}
node {
  name: "batch_normalization/AssignMovingAvg_1/ReadVariableOp"
  op: "ReadVariableOp"
  input: "batch_normalization/moving_variance"
  attr {
    key: "dtype"
    value {
      type: DT_FLOAT
    }
  }
}
node {
  name: "batch_normalization/AssignMovingAvg_1/sub_1"
  op: "Sub"
  input: "batch_normalization/AssignMovingAvg_1/ReadVariableOp"
  input: "batch_normalization/cond/Merge_2"
  attr {
    key: "T"
    value {
      type: DT_FLOAT
    }
  }
  attr {
    key: "_class"
    value {
      list {
        s: "loc:@batch_normalization/moving_variance"
      }
    }
  }
}
node {
  name: "batch_normalization/AssignMovingAvg_1/mul"
  op: "Mul"
  input: "batch_normalization/AssignMovingAvg_1/sub_1"
  input: "batch_normalization/AssignMovingAvg_1/sub"
  attr {
    key: "T"
    value {
      type: DT_FLOAT
    }
  }
  attr {
    key: "_class"
    value {
      list {
        s: "loc:@batch_normalization/moving_variance"
      }
    }
  }
}
node {
  name: "batch_normalization/AssignMovingAvg_1/AssignSubVariableOp"
  op: "AssignSubVariableOp"
  input: "batch_normalization/moving_variance"
  input: "batch_normalization/AssignMovingAvg_1/mul"
  attr {
    key: "_class"
    value {
      list {
        s: "loc:@batch_normalization/moving_variance"
      }
    }
  }
  attr {
    key: "dtype"
    value {
      type: DT_FLOAT
    }
  }
}
node {
  name: "batch_normalization/AssignMovingAvg_1/ReadVariableOp_1"
  op: "ReadVariableOp"
  input: "batch_normalization/moving_variance"
  input: "^batch_normalization/AssignMovingAvg_1/AssignSubVariableOp"
  attr {
    key: "_class"
    value {
      list {
        s: "loc:@batch_normalization/moving_variance"
      }
    }
  }
  attr {
    key: "dtype"
    value {
      type: DT_FLOAT
    }
  }
}
node {
  name: "leaky_re_lu/LeakyRelu"
  op: "LeakyRelu"
  input: "batch_normalization/cond/Merge"
  attr {
    key: "T"
    value {
      type: DT_FLOAT
    }
  }
  attr {
    key: "alpha"
    value {
      f: 0.20000000298023224
    }
  }
}
node {
  name: "conv2d_1/kernel/Initializer/random_uniform/shape"
  op: "Const"
  attr {
    key: "_class"
    value {
      list {
        s: "loc:@conv2d_1/kernel"
      }
    }
  }
  attr {
    key: "dtype"
    value {
      type: DT_INT32
    }
  }
  attr {
    key: "value"
    value {
      tensor {
        dtype: DT_INT32
        tensor_shape {
          dim {
            size: 4
          }
        }
        tensor_content: "\005\000\000\000\005\000\000\000\020\000\000\000 \000\000\000"
      }
    }
  }
}
node {
  name: "conv2d_1/kernel/Initializer/random_uniform/min"
  op: "Const"
  attr {
    key: "_class"
    value {
      list {
        s: "loc:@conv2d_1/kernel"
      }
    }
  }
  attr {
    key: "dtype"
    value {
      type: DT_FLOAT
    }
  }
  attr {
    key: "value"
    value {
      tensor {
        dtype: DT_FLOAT
        tensor_shape {
        }
        float_val: -0.12247448414564133
      }
    }
  }
}
node {
  name: "conv2d_1/kernel/Initializer/random_uniform/max"
  op: "Const"
  attr {
    key: "_class"
    value {
      list {
        s: "loc:@conv2d_1/kernel"
      }
    }
  }
  attr {
    key: "dtype"
    value {
      type: DT_FLOAT
    }
  }
  attr {
    key: "value"
    value {
      tensor {
        dtype: DT_FLOAT
        tensor_shape {
        }
        float_val: 0.12247448414564133
      }
    }
  }
}
node {
  name: "conv2d_1/kernel/Initializer/random_uniform/RandomUniform"
  op: "RandomUniform"
  input: "conv2d_1/kernel/Initializer/random_uniform/shape"
  attr {
    key: "T"
    value {
      type: DT_INT32
    }
  }
  attr {
    key: "_class"
    value {
      list {
        s: "loc:@conv2d_1/kernel"
      }
    }
  }
  attr {
    key: "dtype"
    value {
      type: DT_FLOAT
    }
  }
  attr {
    key: "seed"
    value {
      i: 87654321
    }
  }
  attr {
    key: "seed2"
    value {
      i: 50
    }
  }
}
node {
  name: "conv2d_1/kernel/Initializer/random_uniform/sub"
  op: "Sub"
  input: "conv2d_1/kernel/Initializer/random_uniform/max"
  input: "conv2d_1/kernel/Initializer/random_uniform/min"
  attr {
    key: "T"
    value {
      type: DT_FLOAT
    }
  }
  attr {
    key: "_class"
    value {
      list {
        s: "loc:@conv2d_1/kernel"
      }
    }
  }
}
node {
  name: "conv2d_1/kernel/Initializer/random_uniform/mul"
  op: "Mul"
  input: "conv2d_1/kernel/Initializer/random_uniform/RandomUniform"
  input: "conv2d_1/kernel/Initializer/random_uniform/sub"
  attr {
    key: "T"
    value {
      type: DT_FLOAT
    }
  }
  attr {
    key: "_class"
    value {
      list {
        s: "loc:@conv2d_1/kernel"
      }
    }
  }
}
node {
  name: "conv2d_1/kernel/Initializer/random_uniform"
  op: "Add"
  input: "conv2d_1/kernel/Initializer/random_uniform/mul"
  input: "conv2d_1/kernel/Initializer/random_uniform/min"
  attr {
    key: "T"
    value {
      type: DT_FLOAT
    }
  }
  attr {
    key: "_class"
    value {
      list {
        s: "loc:@conv2d_1/kernel"
      }
    }
  }
}
node {
  name: "conv2d_1/kernel"
  op: "VarHandleOp"
  attr {
    key: "_class"
    value {
      list {
        s: "loc:@conv2d_1/kernel"
      }
    }
  }
  attr {
    key: "allowed_devices"
    value {
      list {
      }
    }
  }
  attr {
    key: "container"
    value {
      s: ""
    }
  }
  attr {
    key: "dtype"
    value {
      type: DT_FLOAT
    }
  }
  attr {
    key: "shape"
    value {
      shape {
        dim {
          size: 5
        }
        dim {
          size: 5
        }
        dim {
          size: 16
        }
        dim {
          size: 32
        }
      }
    }
  }
  attr {
    key: "shared_name"
    value {
      s: "conv2d_1/kernel"
    }
  }
}
node {
  name: "conv2d_1/kernel/IsInitialized/VarIsInitializedOp"
  op: "VarIsInitializedOp"
  input: "conv2d_1/kernel"
}
node {
  name: "conv2d_1/kernel/Assign"
  op: "AssignVariableOp"
  input: "conv2d_1/kernel"
  input: "conv2d_1/kernel/Initializer/random_uniform"
  attr {
    key: "_class"
    value {
      list {
        s: "loc:@conv2d_1/kernel"
      }
    }
  }
  attr {
    key: "dtype"
    value {
      type: DT_FLOAT
    }
  }
  attr {
    key: "validate_shape"
    value {
      b: false
    }
  }
}
node {
  name: "conv2d_1/kernel/Read/ReadVariableOp"
  op: "ReadVariableOp"
  input: "conv2d_1/kernel"
  attr {
    key: "_class"
    value {
      list {
        s: "loc:@conv2d_1/kernel"
      }
    }
  }
  attr {
    key: "dtype"
    value {
      type: DT_FLOAT
    }
  }
}
node {
  name: "conv2d_1/bias/Initializer/zeros"
  op: "Const"
  attr {
    key: "_class"
    value {
      list {
        s: "loc:@conv2d_1/bias"
      }
    }
  }
  attr {
    key: "dtype"
    value {
      type: DT_FLOAT
    }
  }
  attr {
    key: "value"
    value {
      tensor {
        dtype: DT_FLOAT
        tensor_shape {
          dim {
            size: 32
          }
        }
        float_val: 0.0
      }
    }
  }
}
node {
  name: "conv2d_1/bias"
  op: "VarHandleOp"
  attr {
    key: "_class"
    value {
      list {
        s: "loc:@conv2d_1/bias"
      }
    }
  }
  attr {
    key: "allowed_devices"
    value {
      list {
      }
    }
  }
  attr {
    key: "container"
    value {
      s: ""
    }
  }
  attr {
    key: "dtype"
    value {
      type: DT_FLOAT
    }
  }
  attr {
    key: "shape"
    value {
      shape {
        dim {
          size: 32
        }
      }
    }
  }
  attr {
    key: "shared_name"
    value {
      s: "conv2d_1/bias"
    }
  }
}
node {
  name: "conv2d_1/bias/IsInitialized/VarIsInitializedOp"
  op: "VarIsInitializedOp"
  input: "conv2d_1/bias"
}
node {
  name: "conv2d_1/bias/Assign"
  op: "AssignVariableOp"
  input: "conv2d_1/bias"
  input: "conv2d_1/bias/Initializer/zeros"
  attr {
    key: "_class"
    value {
      list {
        s: "loc:@conv2d_1/bias"
      }
    }
  }
  attr {
    key: "dtype"
    value {
      type: DT_FLOAT
    }
  }
  attr {
    key: "validate_shape"
    value {
      b: false
    }
  }
}
node {
  name: "conv2d_1/bias/Read/ReadVariableOp"
  op: "ReadVariableOp"
  input: "conv2d_1/bias"
  attr {
    key: "_class"
    value {
      list {
        s: "loc:@conv2d_1/bias"
      }
    }
  }
  attr {
    key: "dtype"
    value {
      type: DT_FLOAT
    }
  }
}
node {
  name: "conv2d_1/dilation_rate"
  op: "Const"
  attr {
    key: "dtype"
    value {
      type: DT_INT32
    }
  }
  attr {
    key: "value"
    value {
      tensor {
        dtype: DT_INT32
        tensor_shape {
          dim {
            size: 2
          }
        }
        tensor_content: "\001\000\000\000\001\000\000\000"
      }
    }
  }
}
node {
  name: "conv2d_1/Conv2D/ReadVariableOp"
  op: "ReadVariableOp"
  input: "conv2d_1/kernel"
  attr {
    key: "dtype"
    value {
      type: DT_FLOAT
    }
  }
}
node {
  name: "conv2d_1/Conv2D"
  op: "Conv2D"
  input: "leaky_re_lu/LeakyRelu"
  input: "conv2d_1/Conv2D/ReadVariableOp"
  attr {
    key: "T"
    value {
      type: DT_FLOAT
    }
  }
  attr {
    key: "data_format"
    value {
      s: "NHWC"
    }
  }
  attr {
    key: "dilations"
    value {
      list {
        i: 1
        i: 1
        i: 1
        i: 1
      }
    }
  }
  attr {
    key: "explicit_paddings"
    value {
      list {
      }
    }
  }
  attr {
    key: "padding"
    value {
      s: "SAME"
    }
  }
  attr {
    key: "strides"
    value {
      list {
        i: 1
        i: 2
        i: 2
        i: 1
      }
    }
  }
  attr {
    key: "use_cudnn_on_gpu"
    value {
      b: true
    }
  }
}
node {
  name: "conv2d_1/BiasAdd/ReadVariableOp"
  op: "ReadVariableOp"
  input: "conv2d_1/bias"
  attr {
    key: "dtype"
    value {
      type: DT_FLOAT
    }
  }
}
node {
  name: "conv2d_1/BiasAdd"
  op: "BiasAdd"
  input: "conv2d_1/Conv2D"
  input: "conv2d_1/BiasAdd/ReadVariableOp"
  attr {
    key: "T"
    value {
      type: DT_FLOAT
    }
  }
  attr {
    key: "data_format"
    value {
      s: "NHWC"
    }
  }
}
node {
  name: "batch_normalization_1/gamma/Initializer/ones"
  op: "Const"
  attr {
    key: "_class"
    value {
      list {
        s: "loc:@batch_normalization_1/gamma"
      }
    }
  }
  attr {
    key: "dtype"
    value {
      type: DT_FLOAT
    }
  }
  attr {
    key: "value"
    value {
      tensor {
        dtype: DT_FLOAT
        tensor_shape {
          dim {
            size: 32
          }
        }
        float_val: 1.0
      }
    }
  }
}
node {
  name: "batch_normalization_1/gamma"
  op: "VarHandleOp"
  attr {
    key: "_class"
    value {
      list {
        s: "loc:@batch_normalization_1/gamma"
      }
    }
  }
  attr {
    key: "allowed_devices"
    value {
      list {
      }
    }
  }
  attr {
    key: "container"
    value {
      s: ""
    }
  }
  attr {
    key: "dtype"
    value {
      type: DT_FLOAT
    }
  }
  attr {
    key: "shape"
    value {
      shape {
        dim {
          size: 32
        }
      }
    }
  }
  attr {
    key: "shared_name"
    value {
      s: "batch_normalization_1/gamma"
    }
  }
}
node {
  name: "batch_normalization_1/gamma/IsInitialized/VarIsInitializedOp"
  op: "VarIsInitializedOp"
  input: "batch_normalization_1/gamma"
}
node {
  name: "batch_normalization_1/gamma/Assign"
  op: "AssignVariableOp"
  input: "batch_normalization_1/gamma"
  input: "batch_normalization_1/gamma/Initializer/ones"
  attr {
    key: "_class"
    value {
      list {
        s: "loc:@batch_normalization_1/gamma"
      }
    }
  }
  attr {
    key: "dtype"
    value {
      type: DT_FLOAT
    }
  }
  attr {
    key: "validate_shape"
    value {
      b: false
    }
  }
}
node {
  name: "batch_normalization_1/gamma/Read/ReadVariableOp"
  op: "ReadVariableOp"
  input: "batch_normalization_1/gamma"
  attr {
    key: "_class"
    value {
      list {
        s: "loc:@batch_normalization_1/gamma"
      }
    }
  }
  attr {
    key: "dtype"
    value {
      type: DT_FLOAT
    }
  }
}
node {
  name: "batch_normalization_1/beta/Initializer/zeros"
  op: "Const"
  attr {
    key: "_class"
    value {
      list {
        s: "loc:@batch_normalization_1/beta"
      }
    }
  }
  attr {
    key: "dtype"
    value {
      type: DT_FLOAT
    }
  }
  attr {
    key: "value"
    value {
      tensor {
        dtype: DT_FLOAT
        tensor_shape {
          dim {
            size: 32
          }
        }
        float_val: 0.0
      }
    }
  }
}
node {
  name: "batch_normalization_1/beta"
  op: "VarHandleOp"
  attr {
    key: "_class"
    value {
      list {
        s: "loc:@batch_normalization_1/beta"
      }
    }
  }
  attr {
    key: "allowed_devices"
    value {
      list {
      }
    }
  }
  attr {
    key: "container"
    value {
      s: ""
    }
  }
  attr {
    key: "dtype"
    value {
      type: DT_FLOAT
    }
  }
  attr {
    key: "shape"
    value {
      shape {
        dim {
          size: 32
        }
      }
    }
  }
  attr {
    key: "shared_name"
    value {
      s: "batch_normalization_1/beta"
    }
  }
}
node {
  name: "batch_normalization_1/beta/IsInitialized/VarIsInitializedOp"
  op: "VarIsInitializedOp"
  input: "batch_normalization_1/beta"
}
node {
  name: "batch_normalization_1/beta/Assign"
  op: "AssignVariableOp"
  input: "batch_normalization_1/beta"
  input: "batch_normalization_1/beta/Initializer/zeros"
  attr {
    key: "_class"
    value {
      list {
        s: "loc:@batch_normalization_1/beta"
      }
    }
  }
  attr {
    key: "dtype"
    value {
      type: DT_FLOAT
    }
  }
  attr {
    key: "validate_shape"
    value {
      b: false
    }
  }
}
node {
  name: "batch_normalization_1/beta/Read/ReadVariableOp"
  op: "ReadVariableOp"
  input: "batch_normalization_1/beta"
  attr {
    key: "_class"
    value {
      list {
        s: "loc:@batch_normalization_1/beta"
      }
    }
  }
  attr {
    key: "dtype"
    value {
      type: DT_FLOAT
    }
  }
}
node {
  name: "batch_normalization_1/moving_mean/Initializer/zeros"
  op: "Const"
  attr {
    key: "_class"
    value {
      list {
        s: "loc:@batch_normalization_1/moving_mean"
      }
    }
  }
  attr {
    key: "dtype"
    value {
      type: DT_FLOAT
    }
  }
  attr {
    key: "value"
    value {
      tensor {
        dtype: DT_FLOAT
        tensor_shape {
          dim {
            size: 32
          }
        }
        float_val: 0.0
      }
    }
  }
}
node {
  name: "batch_normalization_1/moving_mean"
  op: "VarHandleOp"
  attr {
    key: "_class"
    value {
      list {
        s: "loc:@batch_normalization_1/moving_mean"
      }
    }
  }
  attr {
    key: "allowed_devices"
    value {
      list {
      }
    }
  }
  attr {
    key: "container"
    value {
      s: ""
    }
  }
  attr {
    key: "dtype"
    value {
      type: DT_FLOAT
    }
  }
  attr {
    key: "shape"
    value {
      shape {
        dim {
          size: 32
        }
      }
    }
  }
  attr {
    key: "shared_name"
    value {
      s: "batch_normalization_1/moving_mean"
    }
  }
}
node {
  name: "batch_normalization_1/moving_mean/IsInitialized/VarIsInitializedOp"
  op: "VarIsInitializedOp"
  input: "batch_normalization_1/moving_mean"
}
node {
  name: "batch_normalization_1/moving_mean/Assign"
  op: "AssignVariableOp"
  input: "batch_normalization_1/moving_mean"
  input: "batch_normalization_1/moving_mean/Initializer/zeros"
  attr {
    key: "_class"
    value {
      list {
        s: "loc:@batch_normalization_1/moving_mean"
      }
    }
  }
  attr {
    key: "dtype"
    value {
      type: DT_FLOAT
    }
  }
  attr {
    key: "validate_shape"
    value {
      b: false
    }
  }
}
node {
  name: "batch_normalization_1/moving_mean/Read/ReadVariableOp"
  op: "ReadVariableOp"
  input: "batch_normalization_1/moving_mean"
  attr {
    key: "_class"
    value {
      list {
        s: "loc:@batch_normalization_1/moving_mean"
      }
    }
  }
  attr {
    key: "dtype"
    value {
      type: DT_FLOAT
    }
  }
}
node {
  name: "batch_normalization_1/moving_variance/Initializer/ones"
  op: "Const"
  attr {
    key: "_class"
    value {
      list {
        s: "loc:@batch_normalization_1/moving_variance"
      }
    }
  }
  attr {
    key: "dtype"
    value {
      type: DT_FLOAT
    }
  }
  attr {
    key: "value"
    value {
      tensor {
        dtype: DT_FLOAT
        tensor_shape {
          dim {
            size: 32
          }
        }
        float_val: 1.0
      }
    }
  }
}
node {
  name: "batch_normalization_1/moving_variance"
  op: "VarHandleOp"
  attr {
    key: "_class"
    value {
      list {
        s: "loc:@batch_normalization_1/moving_variance"
      }
    }
  }
  attr {
    key: "allowed_devices"
    value {
      list {
      }
    }
  }
  attr {
    key: "container"
    value {
      s: ""
    }
  }
  attr {
    key: "dtype"
    value {
      type: DT_FLOAT
    }
  }
  attr {
    key: "shape"
    value {
      shape {
        dim {
          size: 32
        }
      }
    }
  }
  attr {
    key: "shared_name"
    value {
      s: "batch_normalization_1/moving_variance"
    }
  }
}
node {
  name: "batch_normalization_1/moving_variance/IsInitialized/VarIsInitializedOp"
  op: "VarIsInitializedOp"
  input: "batch_normalization_1/moving_variance"
}
node {
  name: "batch_normalization_1/moving_variance/Assign"
  op: "AssignVariableOp"
  input: "batch_normalization_1/moving_variance"
  input: "batch_normalization_1/moving_variance/Initializer/ones"
  attr {
    key: "_class"
    value {
      list {
        s: "loc:@batch_normalization_1/moving_variance"
      }
    }
  }
  attr {
    key: "dtype"
    value {
      type: DT_FLOAT
    }
  }
  attr {
    key: "validate_shape"
    value {
      b: false
    }
  }
}
node {
  name: "batch_normalization_1/moving_variance/Read/ReadVariableOp"
  op: "ReadVariableOp"
  input: "batch_normalization_1/moving_variance"
  attr {
    key: "_class"
    value {
      list {
        s: "loc:@batch_normalization_1/moving_variance"
      }
    }
  }
  attr {
    key: "dtype"
    value {
      type: DT_FLOAT
    }
  }
}
node {
  name: "batch_normalization_1/cond/Switch"
  op: "Switch"
  input: "keras_learning_phase"
  input: "keras_learning_phase"
  attr {
    key: "T"
    value {
      type: DT_BOOL
    }
  }
}
node {
  name: "batch_normalization_1/cond/switch_t"
  op: "Identity"
  input: "batch_normalization_1/cond/Switch:1"
  attr {
    key: "T"
    value {
      type: DT_BOOL
    }
  }
}
node {
  name: "batch_normalization_1/cond/switch_f"
  op: "Identity"
  input: "batch_normalization_1/cond/Switch"
  attr {
    key: "T"
    value {
      type: DT_BOOL
    }
  }
}
node {
  name: "batch_normalization_1/cond/pred_id"
  op: "Identity"
  input: "keras_learning_phase"
  attr {
    key: "T"
    value {
      type: DT_BOOL
    }
  }
}
node {
  name: "batch_normalization_1/cond/ReadVariableOp/Switch"
  op: "Switch"
  input: "batch_normalization_1/gamma"
  input: "batch_normalization_1/cond/pred_id"
  attr {
    key: "T"
    value {
      type: DT_RESOURCE
    }
  }
  attr {
    key: "_class"
    value {
      list {
        s: "loc:@batch_normalization_1/gamma"
      }
    }
  }
}
node {
  name: "batch_normalization_1/cond/ReadVariableOp"
  op: "ReadVariableOp"
  input: "batch_normalization_1/cond/ReadVariableOp/Switch:1"
  attr {
    key: "dtype"
    value {
      type: DT_FLOAT
    }
  }
}
node {
  name: "batch_normalization_1/cond/ReadVariableOp_1/Switch"
  op: "Switch"
  input: "batch_normalization_1/beta"
  input: "batch_normalization_1/cond/pred_id"
  attr {
    key: "T"
    value {
      type: DT_RESOURCE
    }
  }
  attr {
    key: "_class"
    value {
      list {
        s: "loc:@batch_normalization_1/beta"
      }
    }
  }
}
node {
  name: "batch_normalization_1/cond/ReadVariableOp_1"
  op: "ReadVariableOp"
  input: "batch_normalization_1/cond/ReadVariableOp_1/Switch:1"
  attr {
    key: "dtype"
    value {
      type: DT_FLOAT
    }
  }
}
node {
  name: "batch_normalization_1/cond/Const"
  op: "Const"
  input: "^batch_normalization_1/cond/switch_t"
  attr {
    key: "dtype"
    value {
      type: DT_FLOAT
    }
  }
  attr {
    key: "value"
    value {
      tensor {
        dtype: DT_FLOAT
        tensor_shape {
          dim {
          }
        }
      }
    }
  }
}
node {
  name: "batch_normalization_1/cond/Const_1"
  op: "Const"
  input: "^batch_normalization_1/cond/switch_t"
  attr {
    key: "dtype"
    value {
      type: DT_FLOAT
    }
  }
  attr {
    key: "value"
    value {
      tensor {
        dtype: DT_FLOAT
        tensor_shape {
          dim {
          }
        }
      }
    }
  }
}
node {
  name: "batch_normalization_1/cond/FusedBatchNorm/Switch"
  op: "Switch"
  input: "conv2d_1/BiasAdd"
  input: "batch_normalization_1/cond/pred_id"
  attr {
    key: "T"
    value {
      type: DT_FLOAT
    }
  }
  attr {
    key: "_class"
    value {
      list {
        s: "loc:@conv2d_1/BiasAdd"
      }
    }
  }
}
node {
  name: "batch_normalization_1/cond/FusedBatchNorm"
  op: "FusedBatchNorm"
  input: "batch_normalization_1/cond/FusedBatchNorm/Switch:1"
  input: "batch_normalization_1/cond/ReadVariableOp"
  input: "batch_normalization_1/cond/ReadVariableOp_1"
  input: "batch_normalization_1/cond/Const"
  input: "batch_normalization_1/cond/Const_1"
  attr {
    key: "T"
    value {
      type: DT_FLOAT
    }
  }
  attr {
    key: "data_format"
    value {
      s: "NHWC"
    }
  }
  attr {
    key: "epsilon"
    value {
      f: 0.0010000000474974513
    }
  }
  attr {
    key: "exponential_avg_factor"
    value {
      f: 1.0
    }
  }
  attr {
    key: "is_training"
    value {
      b: true
    }
  }
}
node {
  name: "batch_normalization_1/cond/ReadVariableOp_2/Switch"
  op: "Switch"
  input: "batch_normalization_1/gamma"
  input: "batch_normalization_1/cond/pred_id"
  attr {
    key: "T"
    value {
      type: DT_RESOURCE
    }
  }
  attr {
    key: "_class"
    value {
      list {
        s: "loc:@batch_normalization_1/gamma"
      }
    }
  }
}
node {
  name: "batch_normalization_1/cond/ReadVariableOp_2"
  op: "ReadVariableOp"
  input: "batch_normalization_1/cond/ReadVariableOp_2/Switch"
  attr {
    key: "dtype"
    value {
      type: DT_FLOAT
    }
  }
}
node {
  name: "batch_normalization_1/cond/ReadVariableOp_3/Switch"
  op: "Switch"
  input: "batch_normalization_1/beta"
  input: "batch_normalization_1/cond/pred_id"
  attr {
    key: "T"
    value {
      type: DT_RESOURCE
    }
  }
  attr {
    key: "_class"
    value {
      list {
        s: "loc:@batch_normalization_1/beta"
      }
    }
  }
}
node {
  name: "batch_normalization_1/cond/ReadVariableOp_3"
  op: "ReadVariableOp"
  input: "batch_normalization_1/cond/ReadVariableOp_3/Switch"
  attr {
    key: "dtype"
    value {
      type: DT_FLOAT
    }
  }
}
node {
  name: "batch_normalization_1/cond/FusedBatchNorm_1/ReadVariableOp/Switch"
  op: "Switch"
  input: "batch_normalization_1/moving_mean"
  input: "batch_normalization_1/cond/pred_id"
  attr {
    key: "T"
    value {
      type: DT_RESOURCE
    }
  }
  attr {
    key: "_class"
    value {
      list {
        s: "loc:@batch_normalization_1/moving_mean"
      }
    }
  }
}
node {
  name: "batch_normalization_1/cond/FusedBatchNorm_1/ReadVariableOp"
  op: "ReadVariableOp"
  input: "batch_normalization_1/cond/FusedBatchNorm_1/ReadVariableOp/Switch"
  attr {
    key: "dtype"
    value {
      type: DT_FLOAT
    }
  }
}
node {
  name: "batch_normalization_1/cond/FusedBatchNorm_1/ReadVariableOp_1/Switch"
  op: "Switch"
  input: "batch_normalization_1/moving_variance"
  input: "batch_normalization_1/cond/pred_id"
  attr {
    key: "T"
    value {
      type: DT_RESOURCE
    }
  }
  attr {
    key: "_class"
    value {
      list {
        s: "loc:@batch_normalization_1/moving_variance"
      }
    }
  }
}
node {
  name: "batch_normalization_1/cond/FusedBatchNorm_1/ReadVariableOp_1"
  op: "ReadVariableOp"
  input: "batch_normalization_1/cond/FusedBatchNorm_1/ReadVariableOp_1/Switch"
  attr {
    key: "dtype"
    value {
      type: DT_FLOAT
    }
  }
}
node {
  name: "batch_normalization_1/cond/FusedBatchNorm_1/Switch"
  op: "Switch"
  input: "conv2d_1/BiasAdd"
  input: "batch_normalization_1/cond/pred_id"
  attr {
    key: "T"
    value {
      type: DT_FLOAT
    }
  }
  attr {
    key: "_class"
    value {
      list {
        s: "loc:@conv2d_1/BiasAdd"
      }
    }
  }
}
node {
  name: "batch_normalization_1/cond/FusedBatchNorm_1"
  op: "FusedBatchNorm"
  input: "batch_normalization_1/cond/FusedBatchNorm_1/Switch"
  input: "batch_normalization_1/cond/ReadVariableOp_2"
  input: "batch_normalization_1/cond/ReadVariableOp_3"
  input: "batch_normalization_1/cond/FusedBatchNorm_1/ReadVariableOp"
  input: "batch_normalization_1/cond/FusedBatchNorm_1/ReadVariableOp_1"
  attr {
    key: "T"
    value {
      type: DT_FLOAT
    }
  }
  attr {
    key: "data_format"
    value {
      s: "NHWC"
    }
  }
  attr {
    key: "epsilon"
    value {
      f: 0.0010000000474974513
    }
  }
  attr {
    key: "exponential_avg_factor"
    value {
      f: 1.0
    }
  }
  attr {
    key: "is_training"
    value {
      b: false
    }
  }
}
node {
  name: "batch_normalization_1/cond/Merge"
  op: "Merge"
  input: "batch_normalization_1/cond/FusedBatchNorm_1"
  input: "batch_normalization_1/cond/FusedBatchNorm"
  attr {
    key: "N"
    value {
      i: 2
    }
  }
  attr {
    key: "T"
    value {
      type: DT_FLOAT
    }
  }
}
node {
  name: "batch_normalization_1/cond/Merge_1"
  op: "Merge"
  input: "batch_normalization_1/cond/FusedBatchNorm_1:1"
  input: "batch_normalization_1/cond/FusedBatchNorm:1"
  attr {
    key: "N"
    value {
      i: 2
    }
  }
  attr {
    key: "T"
    value {
      type: DT_FLOAT
    }
  }
}
node {
  name: "batch_normalization_1/cond/Merge_2"
  op: "Merge"
  input: "batch_normalization_1/cond/FusedBatchNorm_1:2"
  input: "batch_normalization_1/cond/FusedBatchNorm:2"
  attr {
    key: "N"
    value {
      i: 2
    }
  }
  attr {
    key: "T"
    value {
      type: DT_FLOAT
    }
  }
}
node {
  name: "batch_normalization_1/cond_1/Switch"
  op: "Switch"
  input: "keras_learning_phase"
  input: "keras_learning_phase"
  attr {
    key: "T"
    value {
      type: DT_BOOL
    }
  }
}
node {
  name: "batch_normalization_1/cond_1/switch_t"
  op: "Identity"
  input: "batch_normalization_1/cond_1/Switch:1"
  attr {
    key: "T"
    value {
      type: DT_BOOL
    }
  }
}
node {
  name: "batch_normalization_1/cond_1/switch_f"
  op: "Identity"
  input: "batch_normalization_1/cond_1/Switch"
  attr {
    key: "T"
    value {
      type: DT_BOOL
    }
  }
}
node {
  name: "batch_normalization_1/cond_1/pred_id"
  op: "Identity"
  input: "keras_learning_phase"
  attr {
    key: "T"
    value {
      type: DT_BOOL
    }
  }
}
node {
  name: "batch_normalization_1/cond_1/Const"
  op: "Const"
  input: "^batch_normalization_1/cond_1/switch_t"
  attr {
    key: "dtype"
    value {
      type: DT_FLOAT
    }
  }
  attr {
    key: "value"
    value {
      tensor {
        dtype: DT_FLOAT
        tensor_shape {
        }
        float_val: 0.9900000095367432
      }
    }
  }
}
node {
  name: "batch_normalization_1/cond_1/Const_1"
  op: "Const"
  input: "^batch_normalization_1/cond_1/switch_f"
  attr {
    key: "dtype"
    value {
      type: DT_FLOAT
    }
  }
  attr {
    key: "value"
    value {
      tensor {
        dtype: DT_FLOAT
        tensor_shape {
        }
        float_val: 1.0
      }
    }
  }
}
node {
  name: "batch_normalization_1/cond_1/Merge"
  op: "Merge"
  input: "batch_normalization_1/cond_1/Const_1"
  input: "batch_normalization_1/cond_1/Const"
  attr {
    key: "N"
    value {
      i: 2
    }
  }
  attr {
    key: "T"
    value {
      type: DT_FLOAT
    }
  }
}
node {
  name: "batch_normalization_1/AssignMovingAvg/sub/x"
  op: "Const"
  attr {
    key: "_class"
    value {
      list {
        s: "loc:@batch_normalization_1/moving_mean"
      }
    }
  }
  attr {
    key: "dtype"
    value {
      type: DT_FLOAT
    }
  }
  attr {
    key: "value"
    value {
      tensor {
        dtype: DT_FLOAT
        tensor_shape {
        }
        float_val: 1.0
      }
    }
  }
}
node {
  name: "batch_normalization_1/AssignMovingAvg/sub"
  op: "Sub"
  input: "batch_normalization_1/AssignMovingAvg/sub/x"
  input: "batch_normalization_1/cond_1/Merge"
  attr {
    key: "T"
    value {
      type: DT_FLOAT
    }
  }
  attr {
    key: "_class"
    value {
      list {
        s: "loc:@batch_normalization_1/moving_mean"
      }
    }
  }
}
node {
  name: "batch_normalization_1/AssignMovingAvg/ReadVariableOp"
  op: "ReadVariableOp"
  input: "batch_normalization_1/moving_mean"
  attr {
    key: "dtype"
    value {
      type: DT_FLOAT
    }
  }
}
node {
  name: "batch_normalization_1/AssignMovingAvg/sub_1"
  op: "Sub"
  input: "batch_normalization_1/AssignMovingAvg/ReadVariableOp"
  input: "batch_normalization_1/cond/Merge_1"
  attr {
    key: "T"
    value {
      type: DT_FLOAT
    }
  }
  attr {
    key: "_class"
    value {
      list {
        s: "loc:@batch_normalization_1/moving_mean"
      }
    }
  }
}
node {
  name: "batch_normalization_1/AssignMovingAvg/mul"
  op: "Mul"
  input: "batch_normalization_1/AssignMovingAvg/sub_1"
  input: "batch_normalization_1/AssignMovingAvg/sub"
  attr {
    key: "T"
    value {
      type: DT_FLOAT
    }
  }
  attr {
    key: "_class"
    value {
      list {
        s: "loc:@batch_normalization_1/moving_mean"
      }
    }
  }
}
node {
  name: "batch_normalization_1/AssignMovingAvg/AssignSubVariableOp"
  op: "AssignSubVariableOp"
  input: "batch_normalization_1/moving_mean"
  input: "batch_normalization_1/AssignMovingAvg/mul"
  attr {
    key: "_class"
    value {
      list {
        s: "loc:@batch_normalization_1/moving_mean"
      }
    }
  }
  attr {
    key: "dtype"
    value {
      type: DT_FLOAT
    }
  }
}
node {
  name: "batch_normalization_1/AssignMovingAvg/ReadVariableOp_1"
  op: "ReadVariableOp"
  input: "batch_normalization_1/moving_mean"
  input: "^batch_normalization_1/AssignMovingAvg/AssignSubVariableOp"
  attr {
    key: "_class"
    value {
      list {
        s: "loc:@batch_normalization_1/moving_mean"
      }
    }
  }
  attr {
    key: "dtype"
    value {
      type: DT_FLOAT
    }
  }
}
node {
  name: "batch_normalization_1/AssignMovingAvg_1/sub/x"
  op: "Const"
  attr {
    key: "_class"
    value {
      list {
        s: "loc:@batch_normalization_1/moving_variance"
      }
    }
  }
  attr {
    key: "dtype"
    value {
      type: DT_FLOAT
    }
  }
  attr {
    key: "value"
    value {
      tensor {
        dtype: DT_FLOAT
        tensor_shape {
        }
        float_val: 1.0
      }
    }
  }
}
node {
  name: "batch_normalization_1/AssignMovingAvg_1/sub"
  op: "Sub"
  input: "batch_normalization_1/AssignMovingAvg_1/sub/x"
  input: "batch_normalization_1/cond_1/Merge"
  attr {
    key: "T"
    value {
      type: DT_FLOAT
    }
  }
  attr {
    key: "_class"
    value {
      list {
        s: "loc:@batch_normalization_1/moving_variance"
      }
    }
  }
}
node {
  name: "batch_normalization_1/AssignMovingAvg_1/ReadVariableOp"
  op: "ReadVariableOp"
  input: "batch_normalization_1/moving_variance"
  attr {
    key: "dtype"
    value {
      type: DT_FLOAT
    }
  }
}
node {
  name: "batch_normalization_1/AssignMovingAvg_1/sub_1"
  op: "Sub"
  input: "batch_normalization_1/AssignMovingAvg_1/ReadVariableOp"
  input: "batch_normalization_1/cond/Merge_2"
  attr {
    key: "T"
    value {
      type: DT_FLOAT
    }
  }
  attr {
    key: "_class"
    value {
      list {
        s: "loc:@batch_normalization_1/moving_variance"
      }
    }
  }
}
node {
  name: "batch_normalization_1/AssignMovingAvg_1/mul"
  op: "Mul"
  input: "batch_normalization_1/AssignMovingAvg_1/sub_1"
  input: "batch_normalization_1/AssignMovingAvg_1/sub"
  attr {
    key: "T"
    value {
      type: DT_FLOAT
    }
  }
  attr {
    key: "_class"
    value {
      list {
        s: "loc:@batch_normalization_1/moving_variance"
      }
    }
  }
}
node {
  name: "batch_normalization_1/AssignMovingAvg_1/AssignSubVariableOp"
  op: "AssignSubVariableOp"
  input: "batch_normalization_1/moving_variance"
  input: "batch_normalization_1/AssignMovingAvg_1/mul"
  attr {
    key: "_class"
    value {
      list {
        s: "loc:@batch_normalization_1/moving_variance"
      }
    }
  }
  attr {
    key: "dtype"
    value {
      type: DT_FLOAT
    }
  }
}
node {
  name: "batch_normalization_1/AssignMovingAvg_1/ReadVariableOp_1"
  op: "ReadVariableOp"
  input: "batch_normalization_1/moving_variance"
  input: "^batch_normalization_1/AssignMovingAvg_1/AssignSubVariableOp"
  attr {
    key: "_class"
    value {
      list {
        s: "loc:@batch_normalization_1/moving_variance"
      }
    }
  }
  attr {
    key: "dtype"
    value {
      type: DT_FLOAT
    }
  }
}
node {
  name: "leaky_re_lu_1/LeakyRelu"
  op: "LeakyRelu"
  input: "batch_normalization_1/cond/Merge"
  attr {
    key: "T"
    value {
      type: DT_FLOAT
    }
  }
  attr {
    key: "alpha"
    value {
      f: 0.20000000298023224
    }
  }
}
node {
  name: "conv2d_2/kernel/Initializer/random_uniform/shape"
  op: "Const"
  attr {
    key: "_class"
    value {
      list {
        s: "loc:@conv2d_2/kernel"
      }
    }
  }
  attr {
    key: "dtype"
    value {
      type: DT_INT32
    }
  }
  attr {
    key: "value"
    value {
      tensor {
        dtype: DT_INT32
        tensor_shape {
          dim {
            size: 4
          }
        }
        tensor_content: "\005\000\000\000\005\000\000\000 \000\000\000@\000\000\000"
      }
    }
  }
}
node {
  name: "conv2d_2/kernel/Initializer/random_uniform/min"
  op: "Const"
  attr {
    key: "_class"
    value {
      list {
        s: "loc:@conv2d_2/kernel"
      }
    }
  }
  attr {
    key: "dtype"
    value {
      type: DT_FLOAT
    }
  }
  attr {
    key: "value"
    value {
      tensor {
        dtype: DT_FLOAT
        tensor_shape {
        }
        float_val: -0.08660253882408142
      }
    }
  }
}
node {
  name: "conv2d_2/kernel/Initializer/random_uniform/max"
  op: "Const"
  attr {
    key: "_class"
    value {
      list {
        s: "loc:@conv2d_2/kernel"
      }
    }
  }
  attr {
    key: "dtype"
    value {
      type: DT_FLOAT
    }
  }
  attr {
    key: "value"
    value {
      tensor {
        dtype: DT_FLOAT
        tensor_shape {
        }
        float_val: 0.08660253882408142
      }
    }
  }
}
node {
  name: "conv2d_2/kernel/Initializer/random_uniform/RandomUniform"
  op: "RandomUniform"
  input: "conv2d_2/kernel/Initializer/random_uniform/shape"
  attr {
    key: "T"
    value {
      type: DT_INT32
    }
  }
  attr {
    key: "_class"
    value {
      list {
        s: "loc:@conv2d_2/kernel"
      }
    }
  }
  attr {
    key: "dtype"
    value {
      type: DT_FLOAT
    }
  }
  attr {
    key: "seed"
    value {
      i: 87654321
    }
  }
  attr {
    key: "seed2"
    value {
      i: 50
    }
  }
}
node {
  name: "conv2d_2/kernel/Initializer/random_uniform/sub"
  op: "Sub"
  input: "conv2d_2/kernel/Initializer/random_uniform/max"
  input: "conv2d_2/kernel/Initializer/random_uniform/min"
  attr {
    key: "T"
    value {
      type: DT_FLOAT
    }
  }
  attr {
    key: "_class"
    value {
      list {
        s: "loc:@conv2d_2/kernel"
      }
    }
  }
}
node {
  name: "conv2d_2/kernel/Initializer/random_uniform/mul"
  op: "Mul"
  input: "conv2d_2/kernel/Initializer/random_uniform/RandomUniform"
  input: "conv2d_2/kernel/Initializer/random_uniform/sub"
  attr {
    key: "T"
    value {
      type: DT_FLOAT
    }
  }
  attr {
    key: "_class"
    value {
      list {
        s: "loc:@conv2d_2/kernel"
      }
    }
  }
}
node {
  name: "conv2d_2/kernel/Initializer/random_uniform"
  op: "Add"
  input: "conv2d_2/kernel/Initializer/random_uniform/mul"
  input: "conv2d_2/kernel/Initializer/random_uniform/min"
  attr {
    key: "T"
    value {
      type: DT_FLOAT
    }
  }
  attr {
    key: "_class"
    value {
      list {
        s: "loc:@conv2d_2/kernel"
      }
    }
  }
}
node {
  name: "conv2d_2/kernel"
  op: "VarHandleOp"
  attr {
    key: "_class"
    value {
      list {
        s: "loc:@conv2d_2/kernel"
      }
    }
  }
  attr {
    key: "allowed_devices"
    value {
      list {
      }
    }
  }
  attr {
    key: "container"
    value {
      s: ""
    }
  }
  attr {
    key: "dtype"
    value {
      type: DT_FLOAT
    }
  }
  attr {
    key: "shape"
    value {
      shape {
        dim {
          size: 5
        }
        dim {
          size: 5
        }
        dim {
          size: 32
        }
        dim {
          size: 64
        }
      }
    }
  }
  attr {
    key: "shared_name"
    value {
      s: "conv2d_2/kernel"
    }
  }
}
node {
  name: "conv2d_2/kernel/IsInitialized/VarIsInitializedOp"
  op: "VarIsInitializedOp"
  input: "conv2d_2/kernel"
}
node {
  name: "conv2d_2/kernel/Assign"
  op: "AssignVariableOp"
  input: "conv2d_2/kernel"
  input: "conv2d_2/kernel/Initializer/random_uniform"
  attr {
    key: "_class"
    value {
      list {
        s: "loc:@conv2d_2/kernel"
      }
    }
  }
  attr {
    key: "dtype"
    value {
      type: DT_FLOAT
    }
  }
  attr {
    key: "validate_shape"
    value {
      b: false
    }
  }
}
node {
  name: "conv2d_2/kernel/Read/ReadVariableOp"
  op: "ReadVariableOp"
  input: "conv2d_2/kernel"
  attr {
    key: "_class"
    value {
      list {
        s: "loc:@conv2d_2/kernel"
      }
    }
  }
  attr {
    key: "dtype"
    value {
      type: DT_FLOAT
    }
  }
}
node {
  name: "conv2d_2/bias/Initializer/zeros"
  op: "Const"
  attr {
    key: "_class"
    value {
      list {
        s: "loc:@conv2d_2/bias"
      }
    }
  }
  attr {
    key: "dtype"
    value {
      type: DT_FLOAT
    }
  }
  attr {
    key: "value"
    value {
      tensor {
        dtype: DT_FLOAT
        tensor_shape {
          dim {
            size: 64
          }
        }
        float_val: 0.0
      }
    }
  }
}
node {
  name: "conv2d_2/bias"
  op: "VarHandleOp"
  attr {
    key: "_class"
    value {
      list {
        s: "loc:@conv2d_2/bias"
      }
    }
  }
  attr {
    key: "allowed_devices"
    value {
      list {
      }
    }
  }
  attr {
    key: "container"
    value {
      s: ""
    }
  }
  attr {
    key: "dtype"
    value {
      type: DT_FLOAT
    }
  }
  attr {
    key: "shape"
    value {
      shape {
        dim {
          size: 64
        }
      }
    }
  }
  attr {
    key: "shared_name"
    value {
      s: "conv2d_2/bias"
    }
  }
}
node {
  name: "conv2d_2/bias/IsInitialized/VarIsInitializedOp"
  op: "VarIsInitializedOp"
  input: "conv2d_2/bias"
}
node {
  name: "conv2d_2/bias/Assign"
  op: "AssignVariableOp"
  input: "conv2d_2/bias"
  input: "conv2d_2/bias/Initializer/zeros"
  attr {
    key: "_class"
    value {
      list {
        s: "loc:@conv2d_2/bias"
      }
    }
  }
  attr {
    key: "dtype"
    value {
      type: DT_FLOAT
    }
  }
  attr {
    key: "validate_shape"
    value {
      b: false
    }
  }
}
node {
  name: "conv2d_2/bias/Read/ReadVariableOp"
  op: "ReadVariableOp"
  input: "conv2d_2/bias"
  attr {
    key: "_class"
    value {
      list {
        s: "loc:@conv2d_2/bias"
      }
    }
  }
  attr {
    key: "dtype"
    value {
      type: DT_FLOAT
    }
  }
}
node {
  name: "conv2d_2/dilation_rate"
  op: "Const"
  attr {
    key: "dtype"
    value {
      type: DT_INT32
    }
  }
  attr {
    key: "value"
    value {
      tensor {
        dtype: DT_INT32
        tensor_shape {
          dim {
            size: 2
          }
        }
        tensor_content: "\001\000\000\000\001\000\000\000"
      }
    }
  }
}
node {
  name: "conv2d_2/Conv2D/ReadVariableOp"
  op: "ReadVariableOp"
  input: "conv2d_2/kernel"
  attr {
    key: "dtype"
    value {
      type: DT_FLOAT
    }
  }
}
node {
  name: "conv2d_2/Conv2D"
  op: "Conv2D"
  input: "leaky_re_lu_1/LeakyRelu"
  input: "conv2d_2/Conv2D/ReadVariableOp"
  attr {
    key: "T"
    value {
      type: DT_FLOAT
    }
  }
  attr {
    key: "data_format"
    value {
      s: "NHWC"
    }
  }
  attr {
    key: "dilations"
    value {
      list {
        i: 1
        i: 1
        i: 1
        i: 1
      }
    }
  }
  attr {
    key: "explicit_paddings"
    value {
      list {
      }
    }
  }
  attr {
    key: "padding"
    value {
      s: "SAME"
    }
  }
  attr {
    key: "strides"
    value {
      list {
        i: 1
        i: 2
        i: 2
        i: 1
      }
    }
  }
  attr {
    key: "use_cudnn_on_gpu"
    value {
      b: true
    }
  }
}
node {
  name: "conv2d_2/BiasAdd/ReadVariableOp"
  op: "ReadVariableOp"
  input: "conv2d_2/bias"
  attr {
    key: "dtype"
    value {
      type: DT_FLOAT
    }
  }
}
node {
  name: "conv2d_2/BiasAdd"
  op: "BiasAdd"
  input: "conv2d_2/Conv2D"
  input: "conv2d_2/BiasAdd/ReadVariableOp"
  attr {
    key: "T"
    value {
      type: DT_FLOAT
    }
  }
  attr {
    key: "data_format"
    value {
      s: "NHWC"
    }
  }
}
node {
  name: "batch_normalization_2/gamma/Initializer/ones"
  op: "Const"
  attr {
    key: "_class"
    value {
      list {
        s: "loc:@batch_normalization_2/gamma"
      }
    }
  }
  attr {
    key: "dtype"
    value {
      type: DT_FLOAT
    }
  }
  attr {
    key: "value"
    value {
      tensor {
        dtype: DT_FLOAT
        tensor_shape {
          dim {
            size: 64
          }
        }
        float_val: 1.0
      }
    }
  }
}
node {
  name: "batch_normalization_2/gamma"
  op: "VarHandleOp"
  attr {
    key: "_class"
    value {
      list {
        s: "loc:@batch_normalization_2/gamma"
      }
    }
  }
  attr {
    key: "allowed_devices"
    value {
      list {
      }
    }
  }
  attr {
    key: "container"
    value {
      s: ""
    }
  }
  attr {
    key: "dtype"
    value {
      type: DT_FLOAT
    }
  }
  attr {
    key: "shape"
    value {
      shape {
        dim {
          size: 64
        }
      }
    }
  }
  attr {
    key: "shared_name"
    value {
      s: "batch_normalization_2/gamma"
    }
  }
}
node {
  name: "batch_normalization_2/gamma/IsInitialized/VarIsInitializedOp"
  op: "VarIsInitializedOp"
  input: "batch_normalization_2/gamma"
}
node {
  name: "batch_normalization_2/gamma/Assign"
  op: "AssignVariableOp"
  input: "batch_normalization_2/gamma"
  input: "batch_normalization_2/gamma/Initializer/ones"
  attr {
    key: "_class"
    value {
      list {
        s: "loc:@batch_normalization_2/gamma"
      }
    }
  }
  attr {
    key: "dtype"
    value {
      type: DT_FLOAT
    }
  }
  attr {
    key: "validate_shape"
    value {
      b: false
    }
  }
}
node {
  name: "batch_normalization_2/gamma/Read/ReadVariableOp"
  op: "ReadVariableOp"
  input: "batch_normalization_2/gamma"
  attr {
    key: "_class"
    value {
      list {
        s: "loc:@batch_normalization_2/gamma"
      }
    }
  }
  attr {
    key: "dtype"
    value {
      type: DT_FLOAT
    }
  }
}
node {
  name: "batch_normalization_2/beta/Initializer/zeros"
  op: "Const"
  attr {
    key: "_class"
    value {
      list {
        s: "loc:@batch_normalization_2/beta"
      }
    }
  }
  attr {
    key: "dtype"
    value {
      type: DT_FLOAT
    }
  }
  attr {
    key: "value"
    value {
      tensor {
        dtype: DT_FLOAT
        tensor_shape {
          dim {
            size: 64
          }
        }
        float_val: 0.0
      }
    }
  }
}
node {
  name: "batch_normalization_2/beta"
  op: "VarHandleOp"
  attr {
    key: "_class"
    value {
      list {
        s: "loc:@batch_normalization_2/beta"
      }
    }
  }
  attr {
    key: "allowed_devices"
    value {
      list {
      }
    }
  }
  attr {
    key: "container"
    value {
      s: ""
    }
  }
  attr {
    key: "dtype"
    value {
      type: DT_FLOAT
    }
  }
  attr {
    key: "shape"
    value {
      shape {
        dim {
          size: 64
        }
      }
    }
  }
  attr {
    key: "shared_name"
    value {
      s: "batch_normalization_2/beta"
    }
  }
}
node {
  name: "batch_normalization_2/beta/IsInitialized/VarIsInitializedOp"
  op: "VarIsInitializedOp"
  input: "batch_normalization_2/beta"
}
node {
  name: "batch_normalization_2/beta/Assign"
  op: "AssignVariableOp"
  input: "batch_normalization_2/beta"
  input: "batch_normalization_2/beta/Initializer/zeros"
  attr {
    key: "_class"
    value {
      list {
        s: "loc:@batch_normalization_2/beta"
      }
    }
  }
  attr {
    key: "dtype"
    value {
      type: DT_FLOAT
    }
  }
  attr {
    key: "validate_shape"
    value {
      b: false
    }
  }
}
node {
  name: "batch_normalization_2/beta/Read/ReadVariableOp"
  op: "ReadVariableOp"
  input: "batch_normalization_2/beta"
  attr {
    key: "_class"
    value {
      list {
        s: "loc:@batch_normalization_2/beta"
      }
    }
  }
  attr {
    key: "dtype"
    value {
      type: DT_FLOAT
    }
  }
}
node {
  name: "batch_normalization_2/moving_mean/Initializer/zeros"
  op: "Const"
  attr {
    key: "_class"
    value {
      list {
        s: "loc:@batch_normalization_2/moving_mean"
      }
    }
  }
  attr {
    key: "dtype"
    value {
      type: DT_FLOAT
    }
  }
  attr {
    key: "value"
    value {
      tensor {
        dtype: DT_FLOAT
        tensor_shape {
          dim {
            size: 64
          }
        }
        float_val: 0.0
      }
    }
  }
}
node {
  name: "batch_normalization_2/moving_mean"
  op: "VarHandleOp"
  attr {
    key: "_class"
    value {
      list {
        s: "loc:@batch_normalization_2/moving_mean"
      }
    }
  }
  attr {
    key: "allowed_devices"
    value {
      list {
      }
    }
  }
  attr {
    key: "container"
    value {
      s: ""
    }
  }
  attr {
    key: "dtype"
    value {
      type: DT_FLOAT
    }
  }
  attr {
    key: "shape"
    value {
      shape {
        dim {
          size: 64
        }
      }
    }
  }
  attr {
    key: "shared_name"
    value {
      s: "batch_normalization_2/moving_mean"
    }
  }
}
node {
  name: "batch_normalization_2/moving_mean/IsInitialized/VarIsInitializedOp"
  op: "VarIsInitializedOp"
  input: "batch_normalization_2/moving_mean"
}
node {
  name: "batch_normalization_2/moving_mean/Assign"
  op: "AssignVariableOp"
  input: "batch_normalization_2/moving_mean"
  input: "batch_normalization_2/moving_mean/Initializer/zeros"
  attr {
    key: "_class"
    value {
      list {
        s: "loc:@batch_normalization_2/moving_mean"
      }
    }
  }
  attr {
    key: "dtype"
    value {
      type: DT_FLOAT
    }
  }
  attr {
    key: "validate_shape"
    value {
      b: false
    }
  }
}
node {
  name: "batch_normalization_2/moving_mean/Read/ReadVariableOp"
  op: "ReadVariableOp"
  input: "batch_normalization_2/moving_mean"
  attr {
    key: "_class"
    value {
      list {
        s: "loc:@batch_normalization_2/moving_mean"
      }
    }
  }
  attr {
    key: "dtype"
    value {
      type: DT_FLOAT
    }
  }
}
node {
  name: "batch_normalization_2/moving_variance/Initializer/ones"
  op: "Const"
  attr {
    key: "_class"
    value {
      list {
        s: "loc:@batch_normalization_2/moving_variance"
      }
    }
  }
  attr {
    key: "dtype"
    value {
      type: DT_FLOAT
    }
  }
  attr {
    key: "value"
    value {
      tensor {
        dtype: DT_FLOAT
        tensor_shape {
          dim {
            size: 64
          }
        }
        float_val: 1.0
      }
    }
  }
}
node {
  name: "batch_normalization_2/moving_variance"
  op: "VarHandleOp"
  attr {
    key: "_class"
    value {
      list {
        s: "loc:@batch_normalization_2/moving_variance"
      }
    }
  }
  attr {
    key: "allowed_devices"
    value {
      list {
      }
    }
  }
  attr {
    key: "container"
    value {
      s: ""
    }
  }
  attr {
    key: "dtype"
    value {
      type: DT_FLOAT
    }
  }
  attr {
    key: "shape"
    value {
      shape {
        dim {
          size: 64
        }
      }
    }
  }
  attr {
    key: "shared_name"
    value {
      s: "batch_normalization_2/moving_variance"
    }
  }
}
node {
  name: "batch_normalization_2/moving_variance/IsInitialized/VarIsInitializedOp"
  op: "VarIsInitializedOp"
  input: "batch_normalization_2/moving_variance"
}
node {
  name: "batch_normalization_2/moving_variance/Assign"
  op: "AssignVariableOp"
  input: "batch_normalization_2/moving_variance"
  input: "batch_normalization_2/moving_variance/Initializer/ones"
  attr {
    key: "_class"
    value {
      list {
        s: "loc:@batch_normalization_2/moving_variance"
      }
    }
  }
  attr {
    key: "dtype"
    value {
      type: DT_FLOAT
    }
  }
  attr {
    key: "validate_shape"
    value {
      b: false
    }
  }
}
node {
  name: "batch_normalization_2/moving_variance/Read/ReadVariableOp"
  op: "ReadVariableOp"
  input: "batch_normalization_2/moving_variance"
  attr {
    key: "_class"
    value {
      list {
        s: "loc:@batch_normalization_2/moving_variance"
      }
    }
  }
  attr {
    key: "dtype"
    value {
      type: DT_FLOAT
    }
  }
}
node {
  name: "batch_normalization_2/cond/Switch"
  op: "Switch"
  input: "keras_learning_phase"
  input: "keras_learning_phase"
  attr {
    key: "T"
    value {
      type: DT_BOOL
    }
  }
}
node {
  name: "batch_normalization_2/cond/switch_t"
  op: "Identity"
  input: "batch_normalization_2/cond/Switch:1"
  attr {
    key: "T"
    value {
      type: DT_BOOL
    }
  }
}
node {
  name: "batch_normalization_2/cond/switch_f"
  op: "Identity"
  input: "batch_normalization_2/cond/Switch"
  attr {
    key: "T"
    value {
      type: DT_BOOL
    }
  }
}
node {
  name: "batch_normalization_2/cond/pred_id"
  op: "Identity"
  input: "keras_learning_phase"
  attr {
    key: "T"
    value {
      type: DT_BOOL
    }
  }
}
node {
  name: "batch_normalization_2/cond/ReadVariableOp/Switch"
  op: "Switch"
  input: "batch_normalization_2/gamma"
  input: "batch_normalization_2/cond/pred_id"
  attr {
    key: "T"
    value {
      type: DT_RESOURCE
    }
  }
  attr {
    key: "_class"
    value {
      list {
        s: "loc:@batch_normalization_2/gamma"
      }
    }
  }
}
node {
  name: "batch_normalization_2/cond/ReadVariableOp"
  op: "ReadVariableOp"
  input: "batch_normalization_2/cond/ReadVariableOp/Switch:1"
  attr {
    key: "dtype"
    value {
      type: DT_FLOAT
    }
  }
}
node {
  name: "batch_normalization_2/cond/ReadVariableOp_1/Switch"
  op: "Switch"
  input: "batch_normalization_2/beta"
  input: "batch_normalization_2/cond/pred_id"
  attr {
    key: "T"
    value {
      type: DT_RESOURCE
    }
  }
  attr {
    key: "_class"
    value {
      list {
        s: "loc:@batch_normalization_2/beta"
      }
    }
  }
}
node {
  name: "batch_normalization_2/cond/ReadVariableOp_1"
  op: "ReadVariableOp"
  input: "batch_normalization_2/cond/ReadVariableOp_1/Switch:1"
  attr {
    key: "dtype"
    value {
      type: DT_FLOAT
    }
  }
}
node {
  name: "batch_normalization_2/cond/Const"
  op: "Const"
  input: "^batch_normalization_2/cond/switch_t"
  attr {
    key: "dtype"
    value {
      type: DT_FLOAT
    }
  }
  attr {
    key: "value"
    value {
      tensor {
        dtype: DT_FLOAT
        tensor_shape {
          dim {
          }
        }
      }
    }
  }
}
node {
  name: "batch_normalization_2/cond/Const_1"
  op: "Const"
  input: "^batch_normalization_2/cond/switch_t"
  attr {
    key: "dtype"
    value {
      type: DT_FLOAT
    }
  }
  attr {
    key: "value"
    value {
      tensor {
        dtype: DT_FLOAT
        tensor_shape {
          dim {
          }
        }
      }
    }
  }
}
node {
  name: "batch_normalization_2/cond/FusedBatchNorm/Switch"
  op: "Switch"
  input: "conv2d_2/BiasAdd"
  input: "batch_normalization_2/cond/pred_id"
  attr {
    key: "T"
    value {
      type: DT_FLOAT
    }
  }
  attr {
    key: "_class"
    value {
      list {
        s: "loc:@conv2d_2/BiasAdd"
      }
    }
  }
}
node {
  name: "batch_normalization_2/cond/FusedBatchNorm"
  op: "FusedBatchNorm"
  input: "batch_normalization_2/cond/FusedBatchNorm/Switch:1"
  input: "batch_normalization_2/cond/ReadVariableOp"
  input: "batch_normalization_2/cond/ReadVariableOp_1"
  input: "batch_normalization_2/cond/Const"
  input: "batch_normalization_2/cond/Const_1"
  attr {
    key: "T"
    value {
      type: DT_FLOAT
    }
  }
  attr {
    key: "data_format"
    value {
      s: "NHWC"
    }
  }
  attr {
    key: "epsilon"
    value {
      f: 0.0010000000474974513
    }
  }
  attr {
    key: "exponential_avg_factor"
    value {
      f: 1.0
    }
  }
  attr {
    key: "is_training"
    value {
      b: true
    }
  }
}
node {
  name: "batch_normalization_2/cond/ReadVariableOp_2/Switch"
  op: "Switch"
  input: "batch_normalization_2/gamma"
  input: "batch_normalization_2/cond/pred_id"
  attr {
    key: "T"
    value {
      type: DT_RESOURCE
    }
  }
  attr {
    key: "_class"
    value {
      list {
        s: "loc:@batch_normalization_2/gamma"
      }
    }
  }
}
node {
  name: "batch_normalization_2/cond/ReadVariableOp_2"
  op: "ReadVariableOp"
  input: "batch_normalization_2/cond/ReadVariableOp_2/Switch"
  attr {
    key: "dtype"
    value {
      type: DT_FLOAT
    }
  }
}
node {
  name: "batch_normalization_2/cond/ReadVariableOp_3/Switch"
  op: "Switch"
  input: "batch_normalization_2/beta"
  input: "batch_normalization_2/cond/pred_id"
  attr {
    key: "T"
    value {
      type: DT_RESOURCE
    }
  }
  attr {
    key: "_class"
    value {
      list {
        s: "loc:@batch_normalization_2/beta"
      }
    }
  }
}
node {
  name: "batch_normalization_2/cond/ReadVariableOp_3"
  op: "ReadVariableOp"
  input: "batch_normalization_2/cond/ReadVariableOp_3/Switch"
  attr {
    key: "dtype"
    value {
      type: DT_FLOAT
    }
  }
}
node {
  name: "batch_normalization_2/cond/FusedBatchNorm_1/ReadVariableOp/Switch"
  op: "Switch"
  input: "batch_normalization_2/moving_mean"
  input: "batch_normalization_2/cond/pred_id"
  attr {
    key: "T"
    value {
      type: DT_RESOURCE
    }
  }
  attr {
    key: "_class"
    value {
      list {
        s: "loc:@batch_normalization_2/moving_mean"
      }
    }
  }
}
node {
  name: "batch_normalization_2/cond/FusedBatchNorm_1/ReadVariableOp"
  op: "ReadVariableOp"
  input: "batch_normalization_2/cond/FusedBatchNorm_1/ReadVariableOp/Switch"
  attr {
    key: "dtype"
    value {
      type: DT_FLOAT
    }
  }
}
node {
  name: "batch_normalization_2/cond/FusedBatchNorm_1/ReadVariableOp_1/Switch"
  op: "Switch"
  input: "batch_normalization_2/moving_variance"
  input: "batch_normalization_2/cond/pred_id"
  attr {
    key: "T"
    value {
      type: DT_RESOURCE
    }
  }
  attr {
    key: "_class"
    value {
      list {
        s: "loc:@batch_normalization_2/moving_variance"
      }
    }
  }
}
node {
  name: "batch_normalization_2/cond/FusedBatchNorm_1/ReadVariableOp_1"
  op: "ReadVariableOp"
  input: "batch_normalization_2/cond/FusedBatchNorm_1/ReadVariableOp_1/Switch"
  attr {
    key: "dtype"
    value {
      type: DT_FLOAT
    }
  }
}
node {
  name: "batch_normalization_2/cond/FusedBatchNorm_1/Switch"
  op: "Switch"
  input: "conv2d_2/BiasAdd"
  input: "batch_normalization_2/cond/pred_id"
  attr {
    key: "T"
    value {
      type: DT_FLOAT
    }
  }
  attr {
    key: "_class"
    value {
      list {
        s: "loc:@conv2d_2/BiasAdd"
      }
    }
  }
}
node {
  name: "batch_normalization_2/cond/FusedBatchNorm_1"
  op: "FusedBatchNorm"
  input: "batch_normalization_2/cond/FusedBatchNorm_1/Switch"
  input: "batch_normalization_2/cond/ReadVariableOp_2"
  input: "batch_normalization_2/cond/ReadVariableOp_3"
  input: "batch_normalization_2/cond/FusedBatchNorm_1/ReadVariableOp"
  input: "batch_normalization_2/cond/FusedBatchNorm_1/ReadVariableOp_1"
  attr {
    key: "T"
    value {
      type: DT_FLOAT
    }
  }
  attr {
    key: "data_format"
    value {
      s: "NHWC"
    }
  }
  attr {
    key: "epsilon"
    value {
      f: 0.0010000000474974513
    }
  }
  attr {
    key: "exponential_avg_factor"
    value {
      f: 1.0
    }
  }
  attr {
    key: "is_training"
    value {
      b: false
    }
  }
}
node {
  name: "batch_normalization_2/cond/Merge"
  op: "Merge"
  input: "batch_normalization_2/cond/FusedBatchNorm_1"
  input: "batch_normalization_2/cond/FusedBatchNorm"
  attr {
    key: "N"
    value {
      i: 2
    }
  }
  attr {
    key: "T"
    value {
      type: DT_FLOAT
    }
  }
}
node {
  name: "batch_normalization_2/cond/Merge_1"
  op: "Merge"
  input: "batch_normalization_2/cond/FusedBatchNorm_1:1"
  input: "batch_normalization_2/cond/FusedBatchNorm:1"
  attr {
    key: "N"
    value {
      i: 2
    }
  }
  attr {
    key: "T"
    value {
      type: DT_FLOAT
    }
  }
}
node {
  name: "batch_normalization_2/cond/Merge_2"
  op: "Merge"
  input: "batch_normalization_2/cond/FusedBatchNorm_1:2"
  input: "batch_normalization_2/cond/FusedBatchNorm:2"
  attr {
    key: "N"
    value {
      i: 2
    }
  }
  attr {
    key: "T"
    value {
      type: DT_FLOAT
    }
  }
}
node {
  name: "batch_normalization_2/cond_1/Switch"
  op: "Switch"
  input: "keras_learning_phase"
  input: "keras_learning_phase"
  attr {
    key: "T"
    value {
      type: DT_BOOL
    }
  }
}
node {
  name: "batch_normalization_2/cond_1/switch_t"
  op: "Identity"
  input: "batch_normalization_2/cond_1/Switch:1"
  attr {
    key: "T"
    value {
      type: DT_BOOL
    }
  }
}
node {
  name: "batch_normalization_2/cond_1/switch_f"
  op: "Identity"
  input: "batch_normalization_2/cond_1/Switch"
  attr {
    key: "T"
    value {
      type: DT_BOOL
    }
  }
}
node {
  name: "batch_normalization_2/cond_1/pred_id"
  op: "Identity"
  input: "keras_learning_phase"
  attr {
    key: "T"
    value {
      type: DT_BOOL
    }
  }
}
node {
  name: "batch_normalization_2/cond_1/Const"
  op: "Const"
  input: "^batch_normalization_2/cond_1/switch_t"
  attr {
    key: "dtype"
    value {
      type: DT_FLOAT
    }
  }
  attr {
    key: "value"
    value {
      tensor {
        dtype: DT_FLOAT
        tensor_shape {
        }
        float_val: 0.9900000095367432
      }
    }
  }
}
node {
  name: "batch_normalization_2/cond_1/Const_1"
  op: "Const"
  input: "^batch_normalization_2/cond_1/switch_f"
  attr {
    key: "dtype"
    value {
      type: DT_FLOAT
    }
  }
  attr {
    key: "value"
    value {
      tensor {
        dtype: DT_FLOAT
        tensor_shape {
        }
        float_val: 1.0
      }
    }
  }
}
node {
  name: "batch_normalization_2/cond_1/Merge"
  op: "Merge"
  input: "batch_normalization_2/cond_1/Const_1"
  input: "batch_normalization_2/cond_1/Const"
  attr {
    key: "N"
    value {
      i: 2
    }
  }
  attr {
    key: "T"
    value {
      type: DT_FLOAT
    }
  }
}
node {
  name: "batch_normalization_2/AssignMovingAvg/sub/x"
  op: "Const"
  attr {
    key: "_class"
    value {
      list {
        s: "loc:@batch_normalization_2/moving_mean"
      }
    }
  }
  attr {
    key: "dtype"
    value {
      type: DT_FLOAT
    }
  }
  attr {
    key: "value"
    value {
      tensor {
        dtype: DT_FLOAT
        tensor_shape {
        }
        float_val: 1.0
      }
    }
  }
}
node {
  name: "batch_normalization_2/AssignMovingAvg/sub"
  op: "Sub"
  input: "batch_normalization_2/AssignMovingAvg/sub/x"
  input: "batch_normalization_2/cond_1/Merge"
  attr {
    key: "T"
    value {
      type: DT_FLOAT
    }
  }
  attr {
    key: "_class"
    value {
      list {
        s: "loc:@batch_normalization_2/moving_mean"
      }
    }
  }
}
node {
  name: "batch_normalization_2/AssignMovingAvg/ReadVariableOp"
  op: "ReadVariableOp"
  input: "batch_normalization_2/moving_mean"
  attr {
    key: "dtype"
    value {
      type: DT_FLOAT
    }
  }
}
node {
  name: "batch_normalization_2/AssignMovingAvg/sub_1"
  op: "Sub"
  input: "batch_normalization_2/AssignMovingAvg/ReadVariableOp"
  input: "batch_normalization_2/cond/Merge_1"
  attr {
    key: "T"
    value {
      type: DT_FLOAT
    }
  }
  attr {
    key: "_class"
    value {
      list {
        s: "loc:@batch_normalization_2/moving_mean"
      }
    }
  }
}
node {
  name: "batch_normalization_2/AssignMovingAvg/mul"
  op: "Mul"
  input: "batch_normalization_2/AssignMovingAvg/sub_1"
  input: "batch_normalization_2/AssignMovingAvg/sub"
  attr {
    key: "T"
    value {
      type: DT_FLOAT
    }
  }
  attr {
    key: "_class"
    value {
      list {
        s: "loc:@batch_normalization_2/moving_mean"
      }
    }
  }
}
node {
  name: "batch_normalization_2/AssignMovingAvg/AssignSubVariableOp"
  op: "AssignSubVariableOp"
  input: "batch_normalization_2/moving_mean"
  input: "batch_normalization_2/AssignMovingAvg/mul"
  attr {
    key: "_class"
    value {
      list {
        s: "loc:@batch_normalization_2/moving_mean"
      }
    }
  }
  attr {
    key: "dtype"
    value {
      type: DT_FLOAT
    }
  }
}
node {
  name: "batch_normalization_2/AssignMovingAvg/ReadVariableOp_1"
  op: "ReadVariableOp"
  input: "batch_normalization_2/moving_mean"
  input: "^batch_normalization_2/AssignMovingAvg/AssignSubVariableOp"
  attr {
    key: "_class"
    value {
      list {
        s: "loc:@batch_normalization_2/moving_mean"
      }
    }
  }
  attr {
    key: "dtype"
    value {
      type: DT_FLOAT
    }
  }
}
node {
  name: "batch_normalization_2/AssignMovingAvg_1/sub/x"
  op: "Const"
  attr {
    key: "_class"
    value {
      list {
        s: "loc:@batch_normalization_2/moving_variance"
      }
    }
  }
  attr {
    key: "dtype"
    value {
      type: DT_FLOAT
    }
  }
  attr {
    key: "value"
    value {
      tensor {
        dtype: DT_FLOAT
        tensor_shape {
        }
        float_val: 1.0
      }
    }
  }
}
node {
  name: "batch_normalization_2/AssignMovingAvg_1/sub"
  op: "Sub"
  input: "batch_normalization_2/AssignMovingAvg_1/sub/x"
  input: "batch_normalization_2/cond_1/Merge"
  attr {
    key: "T"
    value {
      type: DT_FLOAT
    }
  }
  attr {
    key: "_class"
    value {
      list {
        s: "loc:@batch_normalization_2/moving_variance"
      }
    }
  }
}
node {
  name: "batch_normalization_2/AssignMovingAvg_1/ReadVariableOp"
  op: "ReadVariableOp"
  input: "batch_normalization_2/moving_variance"
  attr {
    key: "dtype"
    value {
      type: DT_FLOAT
    }
  }
}
node {
  name: "batch_normalization_2/AssignMovingAvg_1/sub_1"
  op: "Sub"
  input: "batch_normalization_2/AssignMovingAvg_1/ReadVariableOp"
  input: "batch_normalization_2/cond/Merge_2"
  attr {
    key: "T"
    value {
      type: DT_FLOAT
    }
  }
  attr {
    key: "_class"
    value {
      list {
        s: "loc:@batch_normalization_2/moving_variance"
      }
    }
  }
}
node {
  name: "batch_normalization_2/AssignMovingAvg_1/mul"
  op: "Mul"
  input: "batch_normalization_2/AssignMovingAvg_1/sub_1"
  input: "batch_normalization_2/AssignMovingAvg_1/sub"
  attr {
    key: "T"
    value {
      type: DT_FLOAT
    }
  }
  attr {
    key: "_class"
    value {
      list {
        s: "loc:@batch_normalization_2/moving_variance"
      }
    }
  }
}
node {
  name: "batch_normalization_2/AssignMovingAvg_1/AssignSubVariableOp"
  op: "AssignSubVariableOp"
  input: "batch_normalization_2/moving_variance"
  input: "batch_normalization_2/AssignMovingAvg_1/mul"
  attr {
    key: "_class"
    value {
      list {
        s: "loc:@batch_normalization_2/moving_variance"
      }
    }
  }
  attr {
    key: "dtype"
    value {
      type: DT_FLOAT
    }
  }
}
node {
  name: "batch_normalization_2/AssignMovingAvg_1/ReadVariableOp_1"
  op: "ReadVariableOp"
  input: "batch_normalization_2/moving_variance"
  input: "^batch_normalization_2/AssignMovingAvg_1/AssignSubVariableOp"
  attr {
    key: "_class"
    value {
      list {
        s: "loc:@batch_normalization_2/moving_variance"
      }
    }
  }
  attr {
    key: "dtype"
    value {
      type: DT_FLOAT
    }
  }
}
node {
  name: "leaky_re_lu_2/LeakyRelu"
  op: "LeakyRelu"
  input: "batch_normalization_2/cond/Merge"
  attr {
    key: "T"
    value {
      type: DT_FLOAT
    }
  }
  attr {
    key: "alpha"
    value {
      f: 0.20000000298023224
    }
  }
}
node {
  name: "conv2d_3/kernel/Initializer/random_uniform/shape"
  op: "Const"
  attr {
    key: "_class"
    value {
      list {
        s: "loc:@conv2d_3/kernel"
      }
    }
  }
  attr {
    key: "dtype"
    value {
      type: DT_INT32
    }
  }
  attr {
    key: "value"
    value {
      tensor {
        dtype: DT_INT32
        tensor_shape {
          dim {
            size: 4
          }
        }
        tensor_content: "\005\000\000\000\005\000\000\000@\000\000\000\200\000\000\000"
      }
    }
  }
}
node {
  name: "conv2d_3/kernel/Initializer/random_uniform/min"
  op: "Const"
  attr {
    key: "_class"
    value {
      list {
        s: "loc:@conv2d_3/kernel"
      }
    }
  }
  attr {
    key: "dtype"
    value {
      type: DT_FLOAT
    }
  }
  attr {
    key: "value"
    value {
      tensor {
        dtype: DT_FLOAT
        tensor_shape {
        }
        float_val: -0.06123724207282066
      }
    }
  }
}
node {
  name: "conv2d_3/kernel/Initializer/random_uniform/max"
  op: "Const"
  attr {
    key: "_class"
    value {
      list {
        s: "loc:@conv2d_3/kernel"
      }
    }
  }
  attr {
    key: "dtype"
    value {
      type: DT_FLOAT
    }
  }
  attr {
    key: "value"
    value {
      tensor {
        dtype: DT_FLOAT
        tensor_shape {
        }
        float_val: 0.06123724207282066
      }
    }
  }
}
node {
  name: "conv2d_3/kernel/Initializer/random_uniform/RandomUniform"
  op: "RandomUniform"
  input: "conv2d_3/kernel/Initializer/random_uniform/shape"
  attr {
    key: "T"
    value {
      type: DT_INT32
    }
  }
  attr {
    key: "_class"
    value {
      list {
        s: "loc:@conv2d_3/kernel"
      }
    }
  }
  attr {
    key: "dtype"
    value {
      type: DT_FLOAT
    }
  }
  attr {
    key: "seed"
    value {
      i: 87654321
    }
  }
  attr {
    key: "seed2"
    value {
      i: 50
    }
  }
}
node {
  name: "conv2d_3/kernel/Initializer/random_uniform/sub"
  op: "Sub"
  input: "conv2d_3/kernel/Initializer/random_uniform/max"
  input: "conv2d_3/kernel/Initializer/random_uniform/min"
  attr {
    key: "T"
    value {
      type: DT_FLOAT
    }
  }
  attr {
    key: "_class"
    value {
      list {
        s: "loc:@conv2d_3/kernel"
      }
    }
  }
}
node {
  name: "conv2d_3/kernel/Initializer/random_uniform/mul"
  op: "Mul"
  input: "conv2d_3/kernel/Initializer/random_uniform/RandomUniform"
  input: "conv2d_3/kernel/Initializer/random_uniform/sub"
  attr {
    key: "T"
    value {
      type: DT_FLOAT
    }
  }
  attr {
    key: "_class"
    value {
      list {
        s: "loc:@conv2d_3/kernel"
      }
    }
  }
}
node {
  name: "conv2d_3/kernel/Initializer/random_uniform"
  op: "Add"
  input: "conv2d_3/kernel/Initializer/random_uniform/mul"
  input: "conv2d_3/kernel/Initializer/random_uniform/min"
  attr {
    key: "T"
    value {
      type: DT_FLOAT
    }
  }
  attr {
    key: "_class"
    value {
      list {
        s: "loc:@conv2d_3/kernel"
      }
    }
  }
}
node {
  name: "conv2d_3/kernel"
  op: "VarHandleOp"
  attr {
    key: "_class"
    value {
      list {
        s: "loc:@conv2d_3/kernel"
      }
    }
  }
  attr {
    key: "allowed_devices"
    value {
      list {
      }
    }
  }
  attr {
    key: "container"
    value {
      s: ""
    }
  }
  attr {
    key: "dtype"
    value {
      type: DT_FLOAT
    }
  }
  attr {
    key: "shape"
    value {
      shape {
        dim {
          size: 5
        }
        dim {
          size: 5
        }
        dim {
          size: 64
        }
        dim {
          size: 128
        }
      }
    }
  }
  attr {
    key: "shared_name"
    value {
      s: "conv2d_3/kernel"
    }
  }
}
node {
  name: "conv2d_3/kernel/IsInitialized/VarIsInitializedOp"
  op: "VarIsInitializedOp"
  input: "conv2d_3/kernel"
}
node {
  name: "conv2d_3/kernel/Assign"
  op: "AssignVariableOp"
  input: "conv2d_3/kernel"
  input: "conv2d_3/kernel/Initializer/random_uniform"
  attr {
    key: "_class"
    value {
      list {
        s: "loc:@conv2d_3/kernel"
      }
    }
  }
  attr {
    key: "dtype"
    value {
      type: DT_FLOAT
    }
  }
  attr {
    key: "validate_shape"
    value {
      b: false
    }
  }
}
node {
  name: "conv2d_3/kernel/Read/ReadVariableOp"
  op: "ReadVariableOp"
  input: "conv2d_3/kernel"
  attr {
    key: "_class"
    value {
      list {
        s: "loc:@conv2d_3/kernel"
      }
    }
  }
  attr {
    key: "dtype"
    value {
      type: DT_FLOAT
    }
  }
}
node {
  name: "conv2d_3/bias/Initializer/zeros"
  op: "Const"
  attr {
    key: "_class"
    value {
      list {
        s: "loc:@conv2d_3/bias"
      }
    }
  }
  attr {
    key: "dtype"
    value {
      type: DT_FLOAT
    }
  }
  attr {
    key: "value"
    value {
      tensor {
        dtype: DT_FLOAT
        tensor_shape {
          dim {
            size: 128
          }
        }
        float_val: 0.0
      }
    }
  }
}
node {
  name: "conv2d_3/bias"
  op: "VarHandleOp"
  attr {
    key: "_class"
    value {
      list {
        s: "loc:@conv2d_3/bias"
      }
    }
  }
  attr {
    key: "allowed_devices"
    value {
      list {
      }
    }
  }
  attr {
    key: "container"
    value {
      s: ""
    }
  }
  attr {
    key: "dtype"
    value {
      type: DT_FLOAT
    }
  }
  attr {
    key: "shape"
    value {
      shape {
        dim {
          size: 128
        }
      }
    }
  }
  attr {
    key: "shared_name"
    value {
      s: "conv2d_3/bias"
    }
  }
}
node {
  name: "conv2d_3/bias/IsInitialized/VarIsInitializedOp"
  op: "VarIsInitializedOp"
  input: "conv2d_3/bias"
}
node {
  name: "conv2d_3/bias/Assign"
  op: "AssignVariableOp"
  input: "conv2d_3/bias"
  input: "conv2d_3/bias/Initializer/zeros"
  attr {
    key: "_class"
    value {
      list {
        s: "loc:@conv2d_3/bias"
      }
    }
  }
  attr {
    key: "dtype"
    value {
      type: DT_FLOAT
    }
  }
  attr {
    key: "validate_shape"
    value {
      b: false
    }
  }
}
node {
  name: "conv2d_3/bias/Read/ReadVariableOp"
  op: "ReadVariableOp"
  input: "conv2d_3/bias"
  attr {
    key: "_class"
    value {
      list {
        s: "loc:@conv2d_3/bias"
      }
    }
  }
  attr {
    key: "dtype"
    value {
      type: DT_FLOAT
    }
  }
}
node {
  name: "conv2d_3/dilation_rate"
  op: "Const"
  attr {
    key: "dtype"
    value {
      type: DT_INT32
    }
  }
  attr {
    key: "value"
    value {
      tensor {
        dtype: DT_INT32
        tensor_shape {
          dim {
            size: 2
          }
        }
        tensor_content: "\001\000\000\000\001\000\000\000"
      }
    }
  }
}
node {
  name: "conv2d_3/Conv2D/ReadVariableOp"
  op: "ReadVariableOp"
  input: "conv2d_3/kernel"
  attr {
    key: "dtype"
    value {
      type: DT_FLOAT
    }
  }
}
node {
  name: "conv2d_3/Conv2D"
  op: "Conv2D"
  input: "leaky_re_lu_2/LeakyRelu"
  input: "conv2d_3/Conv2D/ReadVariableOp"
  attr {
    key: "T"
    value {
      type: DT_FLOAT
    }
  }
  attr {
…
    }
  }
  attr {
    key: "validate_shape"
    value {
      b: false
    }
  }
}
node {
  name: "save_1/Identity_47"
  op: "Identity"
  input: "save_1/RestoreV2:47"
  attr {
    key: "T"
    value {
      type: DT_FLOAT
    }
  }
}
node {
  name: "save_1/AssignVariableOp_47"
  op: "AssignVariableOp"
  input: "batch_normalization_19/moving_variance"
  input: "save_1/Identity_47"
  attr {
    key: "dtype"
    value {
      type: DT_FLOAT
    }
  }
  attr {
    key: "validate_shape"
    value {
      b: false
    }
  }
}
node {
  name: "save_1/Identity_48"
  op: "Identity"
  input: "save_1/RestoreV2:48"
  attr {
    key: "T"
    value {
      type: DT_FLOAT
    }
  }
}
node {
  name: "save_1/AssignVariableOp_48"
  op: "AssignVariableOp"
  input: "batch_normalization_2/beta"
  input: "save_1/Identity_48"
  attr {
    key: "dtype"
    value {
      type: DT_FLOAT
    }
  }
  attr {
    key: "validate_shape"
    value {
      b: false
    }
  }
}
node {
  name: "save_1/Identity_49"
  op: "Identity"
  input: "save_1/RestoreV2:49"
  attr {
    key: "T"
    value {
      type: DT_FLOAT
    }
  }
}
node {
  name: "save_1/AssignVariableOp_49"
  op: "AssignVariableOp"
  input: "batch_normalization_2/gamma"
  input: "save_1/Identity_49"
  attr {
    key: "dtype"
    value {
      type: DT_FLOAT
    }
  }
  attr {
    key: "validate_shape"
    value {
      b: false
    }
  }
}
node {
  name: "save_1/Identity_50"
  op: "Identity"
  input: "save_1/RestoreV2:50"
  attr {
    key: "T"
    value {
      type: DT_FLOAT
    }
  }
}
node {
  name: "save_1/AssignVariableOp_50"
  op: "AssignVariableOp"
  input: "batch_normalization_2/moving_mean"
  input: "save_1/Identity_50"
  attr {
    key: "dtype"
    value {
      type: DT_FLOAT
    }
  }
  attr {
    key: "validate_shape"
    value {
      b: false
    }
  }
}
node {
  name: "save_1/Identity_51"
  op: "Identity"
  input: "save_1/RestoreV2:51"
  attr {
    key: "T"
    value {
      type: DT_FLOAT
    }
  }
}
node {
  name: "save_1/AssignVariableOp_51"
  op: "AssignVariableOp"
  input: "batch_normalization_2/moving_variance"
  input: "save_1/Identity_51"
  attr {
    key: "dtype"
    value {
      type: DT_FLOAT
    }
  }
  attr {
    key: "validate_shape"
    value {
      b: false
    }
  }
}
node {
  name: "save_1/Identity_52"
  op: "Identity"
  input: "save_1/RestoreV2:52"
  attr {
    key: "T"
    value {
      type: DT_FLOAT
    }
  }
}
node {
  name: "save_1/AssignVariableOp_52"
  op: "AssignVariableOp"
  input: "batch_normalization_20/beta"
  input: "save_1/Identity_52"
  attr {
    key: "dtype"
    value {
      type: DT_FLOAT
    }
  }
  attr {
    key: "validate_shape"
    value {
      b: false
    }
  }
}
node {
  name: "save_1/Identity_53"
  op: "Identity"
  input: "save_1/RestoreV2:53"
  attr {
    key: "T"
    value {
      type: DT_FLOAT
    }
  }
}
node {
  name: "save_1/AssignVariableOp_53"
  op: "AssignVariableOp"
  input: "batch_normalization_20/gamma"
  input: "save_1/Identity_53"
  attr {
    key: "dtype"
    value {
      type: DT_FLOAT
    }
  }
  attr {
    key: "validate_shape"
    value {
      b: false
    }
  }
}
node {
  name: "save_1/Identity_54"
  op: "Identity"
  input: "save_1/RestoreV2:54"
  attr {
    key: "T"
    value {
      type: DT_FLOAT
    }
  }
}
node {
  name: "save_1/AssignVariableOp_54"
  op: "AssignVariableOp"
  input: "batch_normalization_20/moving_mean"
  input: "save_1/Identity_54"
  attr {
    key: "dtype"
    value {
      type: DT_FLOAT
    }
  }
  attr {
    key: "validate_shape"
    value {
      b: false
    }
  }
}
node {
  name: "save_1/Identity_55"
  op: "Identity"
  input: "save_1/RestoreV2:55"
  attr {
    key: "T"
    value {
      type: DT_FLOAT
    }
  }
}
node {
  name: "save_1/AssignVariableOp_55"
  op: "AssignVariableOp"
  input: "batch_normalization_20/moving_variance"
  input: "save_1/Identity_55"
  attr {
    key: "dtype"
    value {
      type: DT_FLOAT
    }
  }
  attr {
    key: "validate_shape"
    value {
      b: false
    }
  }
}
node {
  name: "save_1/Identity_56"
  op: "Identity"
  input: "save_1/RestoreV2:56"
  attr {
    key: "T"
    value {
      type: DT_FLOAT
    }
  }
}
node {
  name: "save_1/AssignVariableOp_56"
  op: "AssignVariableOp"
  input: "batch_normalization_21/beta"
  input: "save_1/Identity_56"
  attr {
    key: "dtype"
    value {
      type: DT_FLOAT
    }
  }
  attr {
    key: "validate_shape"
    value {
      b: false
    }
  }
}
node {
  name: "save_1/Identity_57"
  op: "Identity"
  input: "save_1/RestoreV2:57"
  attr {
    key: "T"
    value {
      type: DT_FLOAT
    }
  }
}
node {
  name: "save_1/AssignVariableOp_57"
  op: "AssignVariableOp"
  input: "batch_normalization_21/gamma"
  input: "save_1/Identity_57"
  attr {
    key: "dtype"
    value {
      type: DT_FLOAT
    }
  }
  attr {
    key: "validate_shape"
    value {
      b: false
    }
  }
}
node {
  name: "save_1/Identity_58"
  op: "Identity"
  input: "save_1/RestoreV2:58"
  attr {
    key: "T"
    value {
      type: DT_FLOAT
    }
  }
}
node {
  name: "save_1/AssignVariableOp_58"
  op: "AssignVariableOp"
  input: "batch_normalization_21/moving_mean"
  input: "save_1/Identity_58"
  attr {
    key: "dtype"
    value {
      type: DT_FLOAT
    }
  }
  attr {
    key: "validate_shape"
    value {
      b: false
    }
  }
}
node {
  name: "save_1/Identity_59"
  op: "Identity"
  input: "save_1/RestoreV2:59"
  attr {
    key: "T"
    value {
      type: DT_FLOAT
    }
  }
}
node {
  name: "save_1/AssignVariableOp_59"
  op: "AssignVariableOp"
  input: "batch_normalization_21/moving_variance"
  input: "save_1/Identity_59"
  attr {
    key: "dtype"
    value {
      type: DT_FLOAT
    }
  }
  attr {
    key: "validate_shape"
    value {
      b: false
    }
  }
}
node {
  name: "save_1/Identity_60"
  op: "Identity"
  input: "save_1/RestoreV2:60"
  attr {
    key: "T"
    value {
      type: DT_FLOAT
    }
  }
}
node {
  name: "save_1/AssignVariableOp_60"
  op: "AssignVariableOp"
  input: "batch_normalization_22/beta"
  input: "save_1/Identity_60"
  attr {
    key: "dtype"
    value {
      type: DT_FLOAT
    }
  }
  attr {
    key: "validate_shape"
    value {
      b: false
    }
  }
}
node {
  name: "save_1/Identity_61"
  op: "Identity"
  input: "save_1/RestoreV2:61"
  attr {
    key: "T"
    value {
      type: DT_FLOAT
    }
  }
}
node {
  name: "save_1/AssignVariableOp_61"
  op: "AssignVariableOp"
  input: "batch_normalization_22/gamma"
  input: "save_1/Identity_61"
  attr {
    key: "dtype"
    value {
      type: DT_FLOAT
    }
  }
  attr {
    key: "validate_shape"
    value {
      b: false
    }
  }
}
node {
  name: "save_1/Identity_62"
  op: "Identity"
  input: "save_1/RestoreV2:62"
  attr {
    key: "T"
    value {
      type: DT_FLOAT
    }
  }
}
node {
  name: "save_1/AssignVariableOp_62"
  op: "AssignVariableOp"
  input: "batch_normalization_22/moving_mean"
  input: "save_1/Identity_62"
  attr {
    key: "dtype"
    value {
      type: DT_FLOAT
    }
  }
  attr {
    key: "validate_shape"
    value {
      b: false
    }
  }
}
node {
  name: "save_1/Identity_63"
  op: "Identity"
  input: "save_1/RestoreV2:63"
  attr {
    key: "T"
    value {
      type: DT_FLOAT
    }
  }
}
node {
  name: "save_1/AssignVariableOp_63"
  op: "AssignVariableOp"
  input: "batch_normalization_22/moving_variance"
  input: "save_1/Identity_63"
  attr {
    key: "dtype"
    value {
      type: DT_FLOAT
    }
  }
  attr {
    key: "validate_shape"
    value {
      b: false
    }
  }
}
node {
  name: "save_1/Identity_64"
  op: "Identity"
  input: "save_1/RestoreV2:64"
  attr {
    key: "T"
    value {
      type: DT_FLOAT
    }
  }
}
node {
  name: "save_1/AssignVariableOp_64"
  op: "AssignVariableOp"
  input: "batch_normalization_23/beta"
  input: "save_1/Identity_64"
  attr {
    key: "dtype"
    value {
      type: DT_FLOAT
    }
  }
  attr {
    key: "validate_shape"
    value {
      b: false
    }
  }
}
node {
  name: "save_1/Identity_65"
  op: "Identity"
  input: "save_1/RestoreV2:65"
  attr {
    key: "T"
    value {
      type: DT_FLOAT
    }
  }
}
node {
  name: "save_1/AssignVariableOp_65"
  op: "AssignVariableOp"
  input: "batch_normalization_23/gamma"
  input: "save_1/Identity_65"
  attr {
    key: "dtype"
    value {
      type: DT_FLOAT
    }
  }
  attr {
    key: "validate_shape"
    value {
      b: false
    }
  }
}
node {
  name: "save_1/Identity_66"
  op: "Identity"
  input: "save_1/RestoreV2:66"
  attr {
    key: "T"
    value {
      type: DT_FLOAT
    }
  }
}
node {
  name: "save_1/AssignVariableOp_66"
  op: "AssignVariableOp"
  input: "batch_normalization_23/moving_mean"
  input: "save_1/Identity_66"
  attr {
    key: "dtype"
    value {
      type: DT_FLOAT
    }
  }
  attr {
    key: "validate_shape"
    value {
      b: false
    }
  }
}
node {
  name: "save_1/Identity_67"
  op: "Identity"
  input: "save_1/RestoreV2:67"
  attr {
    key: "T"
    value {
      type: DT_FLOAT
    }
  }
}
node {
  name: "save_1/AssignVariableOp_67"
  op: "AssignVariableOp"
  input: "batch_normalization_23/moving_variance"
  input: "save_1/Identity_67"
  attr {
    key: "dtype"
    value {
      type: DT_FLOAT
    }
  }
  attr {
    key: "validate_shape"
    value {
      b: false
    }
  }
}
node {
  name: "save_1/Identity_68"
  op: "Identity"
  input: "save_1/RestoreV2:68"
  attr {
    key: "T"
    value {
      type: DT_FLOAT
    }
  }
}
node {
  name: "save_1/AssignVariableOp_68"
  op: "AssignVariableOp"
  input: "batch_normalization_3/beta"
  input: "save_1/Identity_68"
  attr {
    key: "dtype"
    value {
      type: DT_FLOAT
    }
  }
  attr {
    key: "validate_shape"
    value {
      b: false
    }
  }
}
node {
  name: "save_1/Identity_69"
  op: "Identity"
  input: "save_1/RestoreV2:69"
  attr {
    key: "T"
    value {
      type: DT_FLOAT
    }
  }
}
node {
  name: "save_1/AssignVariableOp_69"
  op: "AssignVariableOp"
  input: "batch_normalization_3/gamma"
  input: "save_1/Identity_69"
  attr {
    key: "dtype"
    value {
      type: DT_FLOAT
    }
  }
  attr {
    key: "validate_shape"
    value {
      b: false
    }
  }
}
node {
  name: "save_1/Identity_70"
  op: "Identity"
  input: "save_1/RestoreV2:70"
  attr {
    key: "T"
    value {
      type: DT_FLOAT
    }
  }
}
node {
  name: "save_1/AssignVariableOp_70"
  op: "AssignVariableOp"
  input: "batch_normalization_3/moving_mean"
  input: "save_1/Identity_70"
  attr {
    key: "dtype"
    value {
      type: DT_FLOAT
    }
  }
  attr {
    key: "validate_shape"
    value {
      b: false
    }
  }
}
node {
  name: "save_1/Identity_71"
  op: "Identity"
  input: "save_1/RestoreV2:71"
  attr {
    key: "T"
    value {
      type: DT_FLOAT
    }
  }
}
node {
  name: "save_1/AssignVariableOp_71"
  op: "AssignVariableOp"
  input: "batch_normalization_3/moving_variance"
  input: "save_1/Identity_71"
  attr {
    key: "dtype"
    value {
      type: DT_FLOAT
    }
  }
  attr {
    key: "validate_shape"
    value {
      b: false
    }
  }
}
node {
  name: "save_1/Identity_72"
  op: "Identity"
  input: "save_1/RestoreV2:72"
  attr {
    key: "T"
    value {
      type: DT_FLOAT
    }
  }
}
node {
  name: "save_1/AssignVariableOp_72"
  op: "AssignVariableOp"
  input: "batch_normalization_4/beta"
  input: "save_1/Identity_72"
  attr {
    key: "dtype"
    value {
      type: DT_FLOAT
    }
  }
  attr {
    key: "validate_shape"
    value {
      b: false
    }
  }
}
node {
  name: "save_1/Identity_73"
  op: "Identity"
  input: "save_1/RestoreV2:73"
  attr {
    key: "T"
    value {
      type: DT_FLOAT
    }
  }
}
node {
  name: "save_1/AssignVariableOp_73"
  op: "AssignVariableOp"
  input: "batch_normalization_4/gamma"
  input: "save_1/Identity_73"
  attr {
    key: "dtype"
    value {
      type: DT_FLOAT
    }
  }
  attr {
    key: "validate_shape"
    value {
      b: false
    }
  }
}
node {
  name: "save_1/Identity_74"
  op: "Identity"
  input: "save_1/RestoreV2:74"
  attr {
    key: "T"
    value {
      type: DT_FLOAT
    }
  }
}
node {
  name: "save_1/AssignVariableOp_74"
  op: "AssignVariableOp"
  input: "batch_normalization_4/moving_mean"
  input: "save_1/Identity_74"
  attr {
    key: "dtype"
    value {
      type: DT_FLOAT
    }
  }
  attr {
    key: "validate_shape"
    value {
      b: false
    }
  }
}
node {
  name: "save_1/Identity_75"
  op: "Identity"
  input: "save_1/RestoreV2:75"
  attr {
    key: "T"
    value {
      type: DT_FLOAT
    }
  }
}
node {
  name: "save_1/AssignVariableOp_75"
  op: "AssignVariableOp"
  input: "batch_normalization_4/moving_variance"
  input: "save_1/Identity_75"
  attr {
    key: "dtype"
    value {
      type: DT_FLOAT
    }
  }
  attr {
    key: "validate_shape"
    value {
      b: false
    }
  }
}
node {
  name: "save_1/Identity_76"
  op: "Identity"
  input: "save_1/RestoreV2:76"
  attr {
    key: "T"
    value {
      type: DT_FLOAT
    }
  }
}
node {
  name: "save_1/AssignVariableOp_76"
  op: "AssignVariableOp"
  input: "batch_normalization_5/beta"
  input: "save_1/Identity_76"
  attr {
    key: "dtype"
    value {
      type: DT_FLOAT
    }
  }
  attr {
    key: "validate_shape"
    value {
      b: false
    }
  }
}
node {
  name: "save_1/Identity_77"
  op: "Identity"
  input: "save_1/RestoreV2:77"
  attr {
    key: "T"
    value {
      type: DT_FLOAT
    }
  }
}
node {
  name: "save_1/AssignVariableOp_77"
  op: "AssignVariableOp"
  input: "batch_normalization_5/gamma"
  input: "save_1/Identity_77"
  attr {
    key: "dtype"
    value {
      type: DT_FLOAT
    }
  }
  attr {
    key: "validate_shape"
    value {
      b: false
    }
  }
}
node {
  name: "save_1/Identity_78"
  op: "Identity"
  input: "save_1/RestoreV2:78"
  attr {
    key: "T"
    value {
      type: DT_FLOAT
    }
  }
}
node {
  name: "save_1/AssignVariableOp_78"
  op: "AssignVariableOp"
  input: "batch_normalization_5/moving_mean"
  input: "save_1/Identity_78"
  attr {
    key: "dtype"
    value {
      type: DT_FLOAT
    }
  }
  attr {
    key: "validate_shape"
    value {
      b: false
    }
  }
}
node {
  name: "save_1/Identity_79"
  op: "Identity"
  input: "save_1/RestoreV2:79"
  attr {
    key: "T"
    value {
      type: DT_FLOAT
    }
  }
}
node {
  name: "save_1/AssignVariableOp_79"
  op: "AssignVariableOp"
  input: "batch_normalization_5/moving_variance"
  input: "save_1/Identity_79"
  attr {
    key: "dtype"
    value {
      type: DT_FLOAT
    }
  }
  attr {
    key: "validate_shape"
    value {
      b: false
    }
  }
}
node {
  name: "save_1/Identity_80"
  op: "Identity"
  input: "save_1/RestoreV2:80"
  attr {
    key: "T"
    value {
      type: DT_FLOAT
    }
  }
}
node {
  name: "save_1/AssignVariableOp_80"
  op: "AssignVariableOp"
  input: "batch_normalization_6/beta"
  input: "save_1/Identity_80"
  attr {
    key: "dtype"
    value {
      type: DT_FLOAT
    }
  }
  attr {
    key: "validate_shape"
    value {
      b: false
    }
  }
}
node {
  name: "save_1/Identity_81"
  op: "Identity"
  input: "save_1/RestoreV2:81"
  attr {
    key: "T"
    value {
      type: DT_FLOAT
    }
  }
}
node {
  name: "save_1/AssignVariableOp_81"
  op: "AssignVariableOp"
  input: "batch_normalization_6/gamma"
  input: "save_1/Identity_81"
  attr {
    key: "dtype"
    value {
      type: DT_FLOAT
    }
  }
  attr {
    key: "validate_shape"
    value {
      b: false
    }
  }
}
node {
  name: "save_1/Identity_82"
  op: "Identity"
  input: "save_1/RestoreV2:82"
  attr {
    key: "T"
    value {
      type: DT_FLOAT
    }
  }
}
node {
  name: "save_1/AssignVariableOp_82"
  op: "AssignVariableOp"
  input: "batch_normalization_6/moving_mean"
  input: "save_1/Identity_82"
  attr {
    key: "dtype"
    value {
      type: DT_FLOAT
    }
  }
  attr {
    key: "validate_shape"
    value {
      b: false
    }
  }
}
node {
  name: "save_1/Identity_83"
  op: "Identity"
  input: "save_1/RestoreV2:83"
  attr {
    key: "T"
    value {
      type: DT_FLOAT
    }
  }
}
node {
  name: "save_1/AssignVariableOp_83"
  op: "AssignVariableOp"
  input: "batch_normalization_6/moving_variance"
  input: "save_1/Identity_83"
  attr {
    key: "dtype"
    value {
      type: DT_FLOAT
    }
  }
  attr {
    key: "validate_shape"
    value {
      b: false
    }
  }
}
node {
  name: "save_1/Identity_84"
  op: "Identity"
  input: "save_1/RestoreV2:84"
  attr {
    key: "T"
    value {
      type: DT_FLOAT
    }
  }
}
node {
  name: "save_1/AssignVariableOp_84"
  op: "AssignVariableOp"
  input: "batch_normalization_7/beta"
  input: "save_1/Identity_84"
  attr {
    key: "dtype"
    value {
      type: DT_FLOAT
    }
  }
  attr {
    key: "validate_shape"
    value {
      b: false
    }
  }
}
node {
  name: "save_1/Identity_85"
  op: "Identity"
  input: "save_1/RestoreV2:85"
  attr {
    key: "T"
    value {
      type: DT_FLOAT
    }
  }
}
node {
  name: "save_1/AssignVariableOp_85"
  op: "AssignVariableOp"
  input: "batch_normalization_7/gamma"
  input: "save_1/Identity_85"
  attr {
    key: "dtype"
    value {
      type: DT_FLOAT
    }
  }
  attr {
    key: "validate_shape"
    value {
      b: false
    }
  }
}
node {
  name: "save_1/Identity_86"
  op: "Identity"
  input: "save_1/RestoreV2:86"
  attr {
    key: "T"
    value {
      type: DT_FLOAT
    }
  }
}
node {
  name: "save_1/AssignVariableOp_86"
  op: "AssignVariableOp"
  input: "batch_normalization_7/moving_mean"
  input: "save_1/Identity_86"
  attr {
    key: "dtype"
    value {
      type: DT_FLOAT
    }
  }
  attr {
    key: "validate_shape"
    value {
      b: false
    }
  }
}
node {
  name: "save_1/Identity_87"
  op: "Identity"
  input: "save_1/RestoreV2:87"
  attr {
    key: "T"
    value {
      type: DT_FLOAT
    }
  }
}
node {
  name: "save_1/AssignVariableOp_87"
  op: "AssignVariableOp"
  input: "batch_normalization_7/moving_variance"
  input: "save_1/Identity_87"
  attr {
    key: "dtype"
    value {
      type: DT_FLOAT
    }
  }
  attr {
    key: "validate_shape"
    value {
      b: false
    }
  }
}
node {
  name: "save_1/Identity_88"
  op: "Identity"
  input: "save_1/RestoreV2:88"
  attr {
    key: "T"
    value {
      type: DT_FLOAT
    }
  }
}
node {
  name: "save_1/AssignVariableOp_88"
  op: "AssignVariableOp"
  input: "batch_normalization_8/beta"
  input: "save_1/Identity_88"
  attr {
    key: "dtype"
    value {
      type: DT_FLOAT
    }
  }
  attr {
    key: "validate_shape"
    value {
      b: false
    }
  }
}
node {
  name: "save_1/Identity_89"
  op: "Identity"
  input: "save_1/RestoreV2:89"
  attr {
    key: "T"
    value {
      type: DT_FLOAT
    }
  }
}
node {
  name: "save_1/AssignVariableOp_89"
  op: "AssignVariableOp"
  input: "batch_normalization_8/gamma"
  input: "save_1/Identity_89"
  attr {
    key: "dtype"
    value {
      type: DT_FLOAT
    }
  }
  attr {
    key: "validate_shape"
    value {
      b: false
    }
  }
}
node {
  name: "save_1/Identity_90"
  op: "Identity"
  input: "save_1/RestoreV2:90"
  attr {
    key: "T"
    value {
      type: DT_FLOAT
    }
  }
}
node {
  name: "save_1/AssignVariableOp_90"
  op: "AssignVariableOp"
  input: "batch_normalization_8/moving_mean"
  input: "save_1/Identity_90"
  attr {
    key: "dtype"
    value {
      type: DT_FLOAT
    }
  }
  attr {
    key: "validate_shape"
    value {
      b: false
    }
  }
}
node {
  name: "save_1/Identity_91"
  op: "Identity"
  input: "save_1/RestoreV2:91"
  attr {
    key: "T"
    value {
      type: DT_FLOAT
    }
  }
}
node {
  name: "save_1/AssignVariableOp_91"
  op: "AssignVariableOp"
  input: "batch_normalization_8/moving_variance"
  input: "save_1/Identity_91"
  attr {
    key: "dtype"
    value {
      type: DT_FLOAT
    }
  }
  attr {
    key: "validate_shape"
    value {
      b: false
    }
  }
}
node {
  name: "save_1/Identity_92"
  op: "Identity"
  input: "save_1/RestoreV2:92"
  attr {
    key: "T"
    value {
      type: DT_FLOAT
    }
  }
}
node {
  name: "save_1/AssignVariableOp_92"
  op: "AssignVariableOp"
  input: "batch_normalization_9/beta"
  input: "save_1/Identity_92"
  attr {
    key: "dtype"
    value {
      type: DT_FLOAT
    }
  }
  attr {
    key: "validate_shape"
    value {
      b: false
    }
  }
}
node {
  name: "save_1/Identity_93"
  op: "Identity"
  input: "save_1/RestoreV2:93"
  attr {
    key: "T"
    value {
      type: DT_FLOAT
    }
  }
}
node {
  name: "save_1/AssignVariableOp_93"
  op: "AssignVariableOp"
  input: "batch_normalization_9/gamma"
  input: "save_1/Identity_93"
  attr {
    key: "dtype"
    value {
      type: DT_FLOAT
    }
  }
  attr {
    key: "validate_shape"
    value {
      b: false
    }
  }
}
node {
  name: "save_1/Identity_94"
  op: "Identity"
  input: "save_1/RestoreV2:94"
  attr {
    key: "T"
    value {
      type: DT_FLOAT
    }
  }
}
node {
  name: "save_1/AssignVariableOp_94"
  op: "AssignVariableOp"
  input: "batch_normalization_9/moving_mean"
  input: "save_1/Identity_94"
  attr {
    key: "dtype"
    value {
      type: DT_FLOAT
    }
  }
  attr {
    key: "validate_shape"
    value {
      b: false
    }
  }
}
node {
  name: "save_1/Identity_95"
  op: "Identity"
  input: "save_1/RestoreV2:95"
  attr {
    key: "T"
    value {
      type: DT_FLOAT
    }
  }
}
node {
  name: "save_1/AssignVariableOp_95"
  op: "AssignVariableOp"
  input: "batch_normalization_9/moving_variance"
  input: "save_1/Identity_95"
  attr {
    key: "dtype"
    value {
      type: DT_FLOAT
    }
  }
  attr {
    key: "validate_shape"
    value {
      b: false
    }
  }
}
node {
  name: "save_1/Identity_96"
  op: "Identity"
  input: "save_1/RestoreV2:96"
  attr {
    key: "T"
    value {
      type: DT_FLOAT
    }
  }
}
node {
  name: "save_1/AssignVariableOp_96"
  op: "AssignVariableOp"
  input: "conv2d/bias"
  input: "save_1/Identity_96"
  attr {
    key: "dtype"
    value {
      type: DT_FLOAT
    }
  }
  attr {
    key: "validate_shape"
    value {
      b: false
    }
  }
}
node {
  name: "save_1/Identity_97"
  op: "Identity"
  input: "save_1/RestoreV2:97"
  attr {
    key: "T"
    value {
      type: DT_FLOAT
    }
  }
}
node {
  name: "save_1/AssignVariableOp_97"
  op: "AssignVariableOp"
  input: "conv2d/kernel"
  input: "save_1/Identity_97"
  attr {
    key: "dtype"
    value {
      type: DT_FLOAT
    }
  }
  attr {
    key: "validate_shape"
    value {
      b: false
    }
  }
}
node {
  name: "save_1/Identity_98"
  op: "Identity"
  input: "save_1/RestoreV2:98"
  attr {
    key: "T"
    value {
      type: DT_FLOAT
    }
  }
}
node {
  name: "save_1/AssignVariableOp_98"
  op: "AssignVariableOp"
  input: "conv2d_1/bias"
  input: "save_1/Identity_98"
  attr {
    key: "dtype"
    value {
      type: DT_FLOAT
    }
  }
  attr {
    key: "validate_shape"
    value {
      b: false
    }
  }
}
node {
  name: "save_1/Identity_99"
  op: "Identity"
  input: "save_1/RestoreV2:99"
  attr {
    key: "T"
    value {
      type: DT_FLOAT
    }
  }
}
node {
  name: "save_1/AssignVariableOp_99"
  op: "AssignVariableOp"
  input: "conv2d_1/kernel"
  input: "save_1/Identity_99"
  attr {
    key: "dtype"
    value {
      type: DT_FLOAT
    }
  }
  attr {
    key: "validate_shape"
    value {
      b: false
    }
  }
}
node {
  name: "save_1/Identity_100"
  op: "Identity"
  input: "save_1/RestoreV2:100"
  attr {
    key: "T"
    value {
      type: DT_FLOAT
    }
  }
}
node {
  name: "save_1/AssignVariableOp_100"
  op: "AssignVariableOp"
  input: "conv2d_10/bias"
  input: "save_1/Identity_100"
  attr {
    key: "dtype"
    value {
      type: DT_FLOAT
    }
  }
  attr {
    key: "validate_shape"
    value {
      b: false
    }
  }
}
node {
  name: "save_1/Identity_101"
  op: "Identity"
  input: "save_1/RestoreV2:101"
  attr {
    key: "T"
    value {
      type: DT_FLOAT
    }
  }
}
node {
  name: "save_1/AssignVariableOp_101"
  op: "AssignVariableOp"
  input: "conv2d_10/kernel"
  input: "save_1/Identity_101"
  attr {
    key: "dtype"
    value {
      type: DT_FLOAT
    }
  }
  attr {
    key: "validate_shape"
    value {
      b: false
    }
  }
}
node {
  name: "save_1/Identity_102"
  op: "Identity"
  input: "save_1/RestoreV2:102"
  attr {
    key: "T"
    value {
      type: DT_FLOAT
    }
  }
}
node {
  name: "save_1/AssignVariableOp_102"
  op: "AssignVariableOp"
  input: "conv2d_11/bias"
  input: "save_1/Identity_102"
  attr {
    key: "dtype"
    value {
      type: DT_FLOAT
    }
  }
  attr {
    key: "validate_shape"
    value {
      b: false
    }
  }
}
node {
  name: "save_1/Identity_103"
  op: "Identity"
  input: "save_1/RestoreV2:103"
  attr {
    key: "T"
    value {
      type: DT_FLOAT
    }
  }
}
node {
  name: "save_1/AssignVariableOp_103"
  op: "AssignVariableOp"
  input: "conv2d_11/kernel"
  input: "save_1/Identity_103"
  attr {
    key: "dtype"
    value {
      type: DT_FLOAT
    }
  }
  attr {
    key: "validate_shape"
    value {
      b: false
    }
  }
}
node {
  name: "save_1/Identity_104"
  op: "Identity"
  input: "save_1/RestoreV2:104"
  attr {
    key: "T"
    value {
      type: DT_FLOAT
    }
  }
}
node {
  name: "save_1/AssignVariableOp_104"
  op: "AssignVariableOp"
  input: "conv2d_12/bias"
  input: "save_1/Identity_104"
  attr {
    key: "dtype"
    value {
      type: DT_FLOAT
    }
  }
  attr {
    key: "validate_shape"
    value {
      b: false
    }
  }
}
node {
  name: "save_1/Identity_105"
  op: "Identity"
  input: "save_1/RestoreV2:105"
  attr {
    key: "T"
    value {
      type: DT_FLOAT
    }
  }
}
node {
  name: "save_1/AssignVariableOp_105"
  op: "AssignVariableOp"
  input: "conv2d_12/kernel"
  input: "save_1/Identity_105"
  attr {
    key: "dtype"
    value {
      type: DT_FLOAT
    }
  }
  attr {
    key: "validate_shape"
    value {
      b: false
    }
  }
}
node {
  name: "save_1/Identity_106"
  op: "Identity"
  input: "save_1/RestoreV2:106"
  attr {
    key: "T"
    value {
      type: DT_FLOAT
    }
  }
}
node {
  name: "save_1/AssignVariableOp_106"
  op: "AssignVariableOp"
  input: "conv2d_13/bias"
  input: "save_1/Identity_106"
  attr {
    key: "dtype"
    value {
      type: DT_FLOAT
    }
  }
  attr {
    key: "validate_shape"
    value {
      b: false
    }
  }
}
node {
  name: "save_1/Identity_107"
  op: "Identity"
  input: "save_1/RestoreV2:107"
  attr {
    key: "T"
    value {
      type: DT_FLOAT
    }
  }
}
node {
  name: "save_1/AssignVariableOp_107"
  op: "AssignVariableOp"
  input: "conv2d_13/kernel"
  input: "save_1/Identity_107"
  attr {
    key: "dtype"
    value {
      type: DT_FLOAT
    }
  }
  attr {
    key: "validate_shape"
    value {
      b: false
    }
  }
}
node {
  name: "save_1/Identity_108"
  op: "Identity"
  input: "save_1/RestoreV2:108"
  attr {
    key: "T"
    value {
      type: DT_FLOAT
    }
  }
}
node {
  name: "save_1/AssignVariableOp_108"
  op: "AssignVariableOp"
  input: "conv2d_2/bias"
  input: "save_1/Identity_108"
  attr {
    key: "dtype"
    value {
      type: DT_FLOAT
    }
  }
  attr {
    key: "validate_shape"
    value {
      b: false
    }
  }
}
node {
  name: "save_1/Identity_109"
  op: "Identity"
  input: "save_1/RestoreV2:109"
  attr {
    key: "T"
    value {
      type: DT_FLOAT
    }
  }
}
node {
  name: "save_1/AssignVariableOp_109"
  op: "AssignVariableOp"
  input: "conv2d_2/kernel"
  input: "save_1/Identity_109"
  attr {
    key: "dtype"
    value {
      type: DT_FLOAT
    }
  }
  attr {
    key: "validate_shape"
    value {
      b: false
    }
  }
}
node {
  name: "save_1/Identity_110"
  op: "Identity"
  input: "save_1/RestoreV2:110"
  attr {
    key: "T"
    value {
      type: DT_FLOAT
    }
  }
}
node {
  name: "save_1/AssignVariableOp_110"
  op: "AssignVariableOp"
  input: "conv2d_3/bias"
  input: "save_1/Identity_110"
  attr {
    key: "dtype"
    value {
      type: DT_FLOAT
    }
  }
  attr {
    key: "validate_shape"
    value {
      b: false
    }
  }
}
node {
  name: "save_1/Identity_111"
  op: "Identity"
  input: "save_1/RestoreV2:111"
  attr {
    key: "T"
    value {
      type: DT_FLOAT
    }
  }
}
node {
  name: "save_1/AssignVariableOp_111"
  op: "AssignVariableOp"
  input: "conv2d_3/kernel"
  input: "save_1/Identity_111"
  attr {
    key: "dtype"
    value {
      type: DT_FLOAT
    }
  }
  attr {
    key: "validate_shape"
    value {
      b: false
    }
  }
}
node {
  name: "save_1/Identity_112"
  op: "Identity"
  input: "save_1/RestoreV2:112"
  attr {
    key: "T"
    value {
      type: DT_FLOAT
    }
  }
}
node {
  name: "save_1/AssignVariableOp_112"
  op: "AssignVariableOp"
  input: "conv2d_4/bias"
  input: "save_1/Identity_112"
  attr {
    key: "dtype"
    value {
      type: DT_FLOAT
    }
  }
  attr {
    key: "validate_shape"
    value {
      b: false
    }
  }
}
node {
  name: "save_1/Identity_113"
  op: "Identity"
  input: "save_1/RestoreV2:113"
  attr {
    key: "T"
    value {
      type: DT_FLOAT
    }
  }
}
node {
  name: "save_1/AssignVariableOp_113"
  op: "AssignVariableOp"
  input: "conv2d_4/kernel"
  input: "save_1/Identity_113"
  attr {
    key: "dtype"
    value {
      type: DT_FLOAT
    }
  }
  attr {
    key: "validate_shape"
    value {
      b: false
    }
  }
}
node {
  name: "save_1/Identity_114"
  op: "Identity"
  input: "save_1/RestoreV2:114"
  attr {
    key: "T"
    value {
      type: DT_FLOAT
    }
  }
}
node {
  name: "save_1/AssignVariableOp_114"
  op: "AssignVariableOp"
  input: "conv2d_5/bias"
  input: "save_1/Identity_114"
  attr {
    key: "dtype"
    value {
      type: DT_FLOAT
    }
  }
  attr {
    key: "validate_shape"
    value {
      b: false
    }
  }
}
node {
  name: "save_1/Identity_115"
  op: "Identity"
  input: "save_1/RestoreV2:115"
  attr {
    key: "T"
    value {
      type: DT_FLOAT
    }
  }
}
node {
  name: "save_1/AssignVariableOp_115"
  op: "AssignVariableOp"
  input: "conv2d_5/kernel"
  input: "save_1/Identity_115"
  attr {
    key: "dtype"
    value {
      type: DT_FLOAT
    }
  }
  attr {
    key: "validate_shape"
    value {
      b: false
    }
  }
}
node {
  name: "save_1/Identity_116"
  op: "Identity"
  input: "save_1/RestoreV2:116"
  attr {
    key: "T"
    value {
      type: DT_FLOAT
    }
  }
}
node {
  name: "save_1/AssignVariableOp_116"
  op: "AssignVariableOp"
  input: "conv2d_6/bias"
  input: "save_1/Identity_116"
  attr {
    key: "dtype"
    value {
      type: DT_FLOAT
    }
  }
  attr {
    key: "validate_shape"
    value {
      b: false
    }
  }
}
node {
  name: "save_1/Identity_117"
  op: "Identity"
  input: "save_1/RestoreV2:117"
  attr {
    key: "T"
    value {
      type: DT_FLOAT
    }
  }
}
node {
  name: "save_1/AssignVariableOp_117"
  op: "AssignVariableOp"
  input: "conv2d_6/kernel"
  input: "save_1/Identity_117"
  attr {
    key: "dtype"
    value {
      type: DT_FLOAT
    }
  }
  attr {
    key: "validate_shape"
    value {
      b: false
    }
  }
}
node {
  name: "save_1/Identity_118"
  op: "Identity"
  input: "save_1/RestoreV2:118"
  attr {
    key: "T"
    value {
      type: DT_FLOAT
    }
  }
}
node {
  name: "save_1/AssignVariableOp_118"
  op: "AssignVariableOp"
  input: "conv2d_7/bias"
  input: "save_1/Identity_118"
  attr {
    key: "dtype"
    value {
      type: DT_FLOAT
    }
  }
  attr {
    key: "validate_shape"
    value {
      b: false
    }
  }
}
node {
  name: "save_1/Identity_119"
  op: "Identity"
  input: "save_1/RestoreV2:119"
  attr {
    key: "T"
    value {
      type: DT_FLOAT
    }
  }
}
node {
  name: "save_1/AssignVariableOp_119"
  op: "AssignVariableOp"
  input: "conv2d_7/kernel"
  input: "save_1/Identity_119"
  attr {
    key: "dtype"
    value {
      type: DT_FLOAT
    }
  }
  attr {
    key: "validate_shape"
    value {
      b: false
    }
  }
}
node {
  name: "save_1/Identity_120"
  op: "Identity"
  input: "save_1/RestoreV2:120"
  attr {
    key: "T"
    value {
      type: DT_FLOAT
    }
  }
}
node {
  name: "save_1/AssignVariableOp_120"
  op: "AssignVariableOp"
  input: "conv2d_8/bias"
  input: "save_1/Identity_120"
  attr {
    key: "dtype"
    value {
      type: DT_FLOAT
    }
  }
  attr {
    key: "validate_shape"
    value {
      b: false
    }
  }
}
node {
  name: "save_1/Identity_121"
  op: "Identity"
  input: "save_1/RestoreV2:121"
  attr {
    key: "T"
    value {
      type: DT_FLOAT
    }
  }
}
node {
  name: "save_1/AssignVariableOp_121"
  op: "AssignVariableOp"
  input: "conv2d_8/kernel"
  input: "save_1/Identity_121"
  attr {
    key: "dtype"
    value {
      type: DT_FLOAT
    }
  }
  attr {
    key: "validate_shape"
    value {
      b: false
    }
  }
}
node {
  name: "save_1/Identity_122"
  op: "Identity"
  input: "save_1/RestoreV2:122"
  attr {
    key: "T"
    value {
      type: DT_FLOAT
    }
  }
}
node {
  name: "save_1/AssignVariableOp_122"
  op: "AssignVariableOp"
  input: "conv2d_9/bias"
  input: "save_1/Identity_122"
  attr {
    key: "dtype"
    value {
      type: DT_FLOAT
    }
  }
  attr {
    key: "validate_shape"
    value {
      b: false
    }
  }
}
node {
  name: "save_1/Identity_123"
  op: "Identity"
  input: "save_1/RestoreV2:123"
  attr {
    key: "T"
    value {
      type: DT_FLOAT
    }
  }
}
node {
  name: "save_1/AssignVariableOp_123"
  op: "AssignVariableOp"
  input: "conv2d_9/kernel"
  input: "save_1/Identity_123"
  attr {
    key: "dtype"
    value {
      type: DT_FLOAT
    }
  }
  attr {
    key: "validate_shape"
    value {
      b: false
    }
  }
}
node {
  name: "save_1/Identity_124"
  op: "Identity"
  input: "save_1/RestoreV2:124"
  attr {
    key: "T"
    value {
      type: DT_FLOAT
    }
  }
}
node {
  name: "save_1/AssignVariableOp_124"
  op: "AssignVariableOp"
  input: "conv2d_transpose/bias"
  input: "save_1/Identity_124"
  attr {
    key: "dtype"
    value {
      type: DT_FLOAT
    }
  }
  attr {
    key: "validate_shape"
    value {
      b: false
    }
  }
}
node {
  name: "save_1/Identity_125"
  op: "Identity"
  input: "save_1/RestoreV2:125"
  attr {
    key: "T"
    value {
      type: DT_FLOAT
    }
  }
}
node {
  name: "save_1/AssignVariableOp_125"
  op: "AssignVariableOp"
  input: "conv2d_transpose/kernel"
  input: "save_1/Identity_125"
  attr {
    key: "dtype"
    value {
      type: DT_FLOAT
    }
  }
  attr {
    key: "validate_shape"
    value {
      b: false
    }
  }
}
node {
  name: "save_1/Identity_126"
  op: "Identity"
  input: "save_1/RestoreV2:126"
  attr {
    key: "T"
    value {
      type: DT_FLOAT
    }
  }
}
node {
  name: "save_1/AssignVariableOp_126"
  op: "AssignVariableOp"
  input: "conv2d_transpose_1/bias"
  input: "save_1/Identity_126"
  attr {
    key: "dtype"
    value {
      type: DT_FLOAT
    }
  }
  attr {
    key: "validate_shape"
    value {
      b: false
    }
  }
}
node {
  name: "save_1/Identity_127"
  op: "Identity"
  input: "save_1/RestoreV2:127"
  attr {
    key: "T"
    value {
      type: DT_FLOAT
    }
  }
}
node {
  name: "save_1/AssignVariableOp_127"
  op: "AssignVariableOp"
  input: "conv2d_transpose_1/kernel"
  input: "save_1/Identity_127"
  attr {
    key: "dtype"
    value {
      type: DT_FLOAT
    }
  }
  attr {
    key: "validate_shape"
    value {
      b: false
    }
  }
}
node {
  name: "save_1/Identity_128"
  op: "Identity"
  input: "save_1/RestoreV2:128"
  attr {
    key: "T"
    value {
      type: DT_FLOAT
    }
  }
}
node {
  name: "save_1/AssignVariableOp_128"
  op: "AssignVariableOp"
  input: "conv2d_transpose_10/bias"
  input: "save_1/Identity_128"
  attr {
    key: "dtype"
    value {
      type: DT_FLOAT
    }
  }
  attr {
    key: "validate_shape"
    value {
      b: false
    }
  }
}
node {
  name: "save_1/Identity_129"
  op: "Identity"
  input: "save_1/RestoreV2:129"
  attr {
    key: "T"
    value {
      type: DT_FLOAT
    }
  }
}
node {
  name: "save_1/AssignVariableOp_129"
  op: "AssignVariableOp"
  input: "conv2d_transpose_10/kernel"
  input: "save_1/Identity_129"
  attr {
    key: "dtype"
    value {
      type: DT_FLOAT
    }
  }
  attr {
    key: "validate_shape"
    value {
      b: false
    }
  }
}
node {
  name: "save_1/Identity_130"
  op: "Identity"
  input: "save_1/RestoreV2:130"
  attr {
    key: "T"
    value {
      type: DT_FLOAT
    }
  }
}
node {
  name: "save_1/AssignVariableOp_130"
  op: "AssignVariableOp"
  input: "conv2d_transpose_11/bias"
  input: "save_1/Identity_130"
  attr {
    key: "dtype"
    value {
      type: DT_FLOAT
    }
  }
  attr {
    key: "validate_shape"
    value {
      b: false
    }
  }
}
node {
  name: "save_1/Identity_131"
  op: "Identity"
  input: "save_1/RestoreV2:131"
  attr {
    key: "T"
    value {
      type: DT_FLOAT
    }
  }
}
node {
  name: "save_1/AssignVariableOp_131"
  op: "AssignVariableOp"
  input: "conv2d_transpose_11/kernel"
  input: "save_1/Identity_131"
  attr {
    key: "dtype"
    value {
      type: DT_FLOAT
    }
  }
  attr {
    key: "validate_shape"
    value {
      b: false
    }
  }
}
node {
  name: "save_1/Identity_132"
  op: "Identity"
  input: "save_1/RestoreV2:132"
  attr {
    key: "T"
    value {
      type: DT_FLOAT
    }
  }
}
node {
  name: "save_1/AssignVariableOp_132"
  op: "AssignVariableOp"
  input: "conv2d_transpose_2/bias"
  input: "save_1/Identity_132"
  attr {
    key: "dtype"
    value {
      type: DT_FLOAT
    }
  }
  attr {
    key: "validate_shape"
    value {
      b: false
    }
  }
}
node {
  name: "save_1/Identity_133"
  op: "Identity"
  input: "save_1/RestoreV2:133"
  attr {
    key: "T"
    value {
      type: DT_FLOAT
    }
  }
}
node {
  name: "save_1/AssignVariableOp_133"
  op: "AssignVariableOp"
  input: "conv2d_transpose_2/kernel"
  input: "save_1/Identity_133"
  attr {
    key: "dtype"
    value {
      type: DT_FLOAT
    }
  }
  attr {
    key: "validate_shape"
    value {
      b: false
    }
  }
}
node {
  name: "save_1/Identity_134"
  op: "Identity"
  input: "save_1/RestoreV2:134"
  attr {
    key: "T"
    value {
      type: DT_FLOAT
    }
  }
}
node {
  name: "save_1/AssignVariableOp_134"
  op: "AssignVariableOp"
  input: "conv2d_transpose_3/bias"
  input: "save_1/Identity_134"
  attr {
    key: "dtype"
    value {
      type: DT_FLOAT
    }
  }
  attr {
    key: "validate_shape"
    value {
      b: false
    }
  }
}
node {
  name: "save_1/Identity_135"
  op: "Identity"
  input: "save_1/RestoreV2:135"
  attr {
    key: "T"
    value {
      type: DT_FLOAT
    }
  }
}
node {
  name: "save_1/AssignVariableOp_135"
  op: "AssignVariableOp"
  input: "conv2d_transpose_3/kernel"
  input: "save_1/Identity_135"
  attr {
    key: "dtype"
    value {
      type: DT_FLOAT
    }
  }
  attr {
    key: "validate_shape"
    value {
      b: false
    }
  }
}
node {
  name: "save_1/Identity_136"
  op: "Identity"
  input: "save_1/RestoreV2:136"
  attr {
    key: "T"
    value {
      type: DT_FLOAT
    }
  }
}
node {
  name: "save_1/AssignVariableOp_136"
  op: "AssignVariableOp"
  input: "conv2d_transpose_4/bias"
  input: "save_1/Identity_136"
  attr {
    key: "dtype"
    value {
      type: DT_FLOAT
    }
  }
  attr {
    key: "validate_shape"
    value {
      b: false
    }
  }
}
node {
  name: "save_1/Identity_137"
  op: "Identity"
  input: "save_1/RestoreV2:137"
  attr {
    key: "T"
    value {
      type: DT_FLOAT
    }
  }
}
node {
  name: "save_1/AssignVariableOp_137"
  op: "AssignVariableOp"
  input: "conv2d_transpose_4/kernel"
  input: "save_1/Identity_137"
  attr {
    key: "dtype"
    value {
      type: DT_FLOAT
    }
  }
  attr {
    key: "validate_shape"
    value {
      b: false
    }
  }
}
node {
  name: "save_1/Identity_138"
  op: "Identity"
  input: "save_1/RestoreV2:138"
  attr {
    key: "T"
    value {
      type: DT_FLOAT
    }
  }
}
node {
  name: "save_1/AssignVariableOp_138"
  op: "AssignVariableOp"
  input: "conv2d_transpose_5/bias"
  input: "save_1/Identity_138"
  attr {
    key: "dtype"
    value {
      type: DT_FLOAT
    }
  }
  attr {
    key: "validate_shape"
    value {
      b: false
    }
  }
}
node {
  name: "save_1/Identity_139"
  op: "Identity"
  input: "save_1/RestoreV2:139"
  attr {
    key: "T"
    value {
      type: DT_FLOAT
    }
  }
}
node {
  name: "save_1/AssignVariableOp_139"
  op: "AssignVariableOp"
  input: "conv2d_transpose_5/kernel"
  input: "save_1/Identity_139"
  attr {
    key: "dtype"
    value {
      type: DT_FLOAT
    }
  }
  attr {
    key: "validate_shape"
    value {
      b: false
    }
  }
}
node {
  name: "save_1/Identity_140"
  op: "Identity"
  input: "save_1/RestoreV2:140"
  attr {
    key: "T"
    value {
      type: DT_FLOAT
    }
  }
}
node {
  name: "save_1/AssignVariableOp_140"
  op: "AssignVariableOp"
  input: "conv2d_transpose_6/bias"
  input: "save_1/Identity_140"
  attr {
    key: "dtype"
    value {
      type: DT_FLOAT
    }
  }
  attr {
    key: "validate_shape"
    value {
      b: false
    }
  }
}
node {
  name: "save_1/Identity_141"
  op: "Identity"
  input: "save_1/RestoreV2:141"
  attr {
    key: "T"
    value {
      type: DT_FLOAT
    }
  }
}
node {
  name: "save_1/AssignVariableOp_141"
  op: "AssignVariableOp"
  input: "conv2d_transpose_6/kernel"
  input: "save_1/Identity_141"
  attr {
    key: "dtype"
    value {
      type: DT_FLOAT
    }
  }
  attr {
    key: "validate_shape"
    value {
      b: false
    }
  }
}
node {
  name: "save_1/Identity_142"
  op: "Identity"
  input: "save_1/RestoreV2:142"
  attr {
    key: "T"
    value {
      type: DT_FLOAT
    }
  }
}
node {
  name: "save_1/AssignVariableOp_142"
  op: "AssignVariableOp"
  input: "conv2d_transpose_7/bias"
  input: "save_1/Identity_142"
  attr {
    key: "dtype"
    value {
      type: DT_FLOAT
    }
  }
  attr {
    key: "validate_shape"
    value {
      b: false
    }
  }
}
node {
  name: "save_1/Identity_143"
  op: "Identity"
  input: "save_1/RestoreV2:143"
  attr {
    key: "T"
    value {
      type: DT_FLOAT
    }
  }
}
node {
  name: "save_1/AssignVariableOp_143"
  op: "AssignVariableOp"
  input: "conv2d_transpose_7/kernel"
  input: "save_1/Identity_143"
  attr {
    key: "dtype"
    value {
      type: DT_FLOAT
    }
  }
  attr {
    key: "validate_shape"
    value {
      b: false
    }
  }
}
node {
  name: "save_1/Identity_144"
  op: "Identity"
  input: "save_1/RestoreV2:144"
  attr {
    key: "T"
    value {
      type: DT_FLOAT
    }
  }
}
node {
  name: "save_1/AssignVariableOp_144"
  op: "AssignVariableOp"
  input: "conv2d_transpose_8/bias"
  input: "save_1/Identity_144"
  attr {
    key: "dtype"
    value {
      type: DT_FLOAT
    }
  }
  attr {
    key: "validate_shape"
    value {
      b: false
    }
  }
}
node {
  name: "save_1/Identity_145"
  op: "Identity"
  input: "save_1/RestoreV2:145"
  attr {
    key: "T"
    value {
      type: DT_FLOAT
    }
  }
}
node {
  name: "save_1/AssignVariableOp_145"
  op: "AssignVariableOp"
  input: "conv2d_transpose_8/kernel"
  input: "save_1/Identity_145"
  attr {
    key: "dtype"
    value {
      type: DT_FLOAT
    }
  }
  attr {
    key: "validate_shape"
    value {
      b: false
    }
  }
}
node {
  name: "save_1/Identity_146"
  op: "Identity"
  input: "save_1/RestoreV2:146"
  attr {
    key: "T"
    value {
      type: DT_FLOAT
    }
  }
}
node {
  name: "save_1/AssignVariableOp_146"
  op: "AssignVariableOp"
  input: "conv2d_transpose_9/bias"
  input: "save_1/Identity_146"
  attr {
    key: "dtype"
    value {
      type: DT_FLOAT
    }
  }
  attr {
    key: "validate_shape"
    value {
      b: false
    }
  }
}
node {
  name: "save_1/Identity_147"
  op: "Identity"
  input: "save_1/RestoreV2:147"
  attr {
    key: "T"
    value {
      type: DT_FLOAT
    }
  }
}
node {
  name: "save_1/AssignVariableOp_147"
  op: "AssignVariableOp"
  input: "conv2d_transpose_9/kernel"
  input: "save_1/Identity_147"
  attr {
    key: "dtype"
    value {
      type: DT_FLOAT
    }
  }
  attr {
    key: "validate_shape"
    value {
      b: false
    }
  }
}
node {
  name: "save_1/Assign"
  op: "Assign"
  input: "global_step"
  input: "save_1/RestoreV2:148"
  attr {
    key: "T"
    value {
      type: DT_INT64
    }
  }
  attr {
    key: "_class"
    value {
      list {
        s: "loc:@global_step"
      }
    }
  }
  attr {
    key: "use_locking"
    value {
      b: true
    }
  }
  attr {
    key: "validate_shape"
    value {
      b: true
    }
  }
}
node {
  name: "save_1/restore_all"
  op: "NoOp"
  input: "^save_1/Assign"
  input: "^save_1/AssignVariableOp"
  input: "^save_1/AssignVariableOp_1"
  input: "^save_1/AssignVariableOp_10"
  input: "^save_1/AssignVariableOp_100"
  input: "^save_1/AssignVariableOp_101"
  input: "^save_1/AssignVariableOp_102"
  input: "^save_1/AssignVariableOp_103"
  input: "^save_1/AssignVariableOp_104"
  input: "^save_1/AssignVariableOp_105"
  input: "^save_1/AssignVariableOp_106"
  input: "^save_1/AssignVariableOp_107"
  input: "^save_1/AssignVariableOp_108"
  input: "^save_1/AssignVariableOp_109"
  input: "^save_1/AssignVariableOp_11"
  input: "^save_1/AssignVariableOp_110"
  input: "^save_1/AssignVariableOp_111"
  input: "^save_1/AssignVariableOp_112"
  input: "^save_1/AssignVariableOp_113"
  input: "^save_1/AssignVariableOp_114"
  input: "^save_1/AssignVariableOp_115"
  input: "^save_1/AssignVariableOp_116"
  input: "^save_1/AssignVariableOp_117"
  input: "^save_1/AssignVariableOp_118"
  input: "^save_1/AssignVariableOp_119"
  input: "^save_1/AssignVariableOp_12"
  input: "^save_1/AssignVariableOp_120"
  input: "^save_1/AssignVariableOp_121"
  input: "^save_1/AssignVariableOp_122"
  input: "^save_1/AssignVariableOp_123"
  input: "^save_1/AssignVariableOp_124"
  input: "^save_1/AssignVariableOp_125"
  input: "^save_1/AssignVariableOp_126"
  input: "^save_1/AssignVariableOp_127"
  input: "^save_1/AssignVariableOp_128"
  input: "^save_1/AssignVariableOp_129"
  input: "^save_1/AssignVariableOp_13"
  input: "^save_1/AssignVariableOp_130"
  input: "^save_1/AssignVariableOp_131"
  input: "^save_1/AssignVariableOp_132"
  input: "^save_1/AssignVariableOp_133"
  input: "^save_1/AssignVariableOp_134"
  input: "^save_1/AssignVariableOp_135"
  input: "^save_1/AssignVariableOp_136"
  input: "^save_1/AssignVariableOp_137"
  input: "^save_1/AssignVariableOp_138"
  input: "^save_1/AssignVariableOp_139"
  input: "^save_1/AssignVariableOp_14"
  input: "^save_1/AssignVariableOp_140"
  input: "^save_1/AssignVariableOp_141"
  input: "^save_1/AssignVariableOp_142"
  input: "^save_1/AssignVariableOp_143"
  input: "^save_1/AssignVariableOp_144"
  input: "^save_1/AssignVariableOp_145"
  input: "^save_1/AssignVariableOp_146"
  input: "^save_1/AssignVariableOp_147"
  input: "^save_1/AssignVariableOp_15"
  input: "^save_1/AssignVariableOp_16"
  input: "^save_1/AssignVariableOp_17"
  input: "^save_1/AssignVariableOp_18"
  input: "^save_1/AssignVariableOp_19"
  input: "^save_1/AssignVariableOp_2"
  input: "^save_1/AssignVariableOp_20"
  input: "^save_1/AssignVariableOp_21"
  input: "^save_1/AssignVariableOp_22"
  input: "^save_1/AssignVariableOp_23"
  input: "^save_1/AssignVariableOp_24"
  input: "^save_1/AssignVariableOp_25"
  input: "^save_1/AssignVariableOp_26"
  input: "^save_1/AssignVariableOp_27"
  input: "^save_1/AssignVariableOp_28"
  input: "^save_1/AssignVariableOp_29"
  input: "^save_1/AssignVariableOp_3"
  input: "^save_1/AssignVariableOp_30"
  input: "^save_1/AssignVariableOp_31"
  input: "^save_1/AssignVariableOp_32"
  input: "^save_1/AssignVariableOp_33"
  input: "^save_1/AssignVariableOp_34"
  input: "^save_1/AssignVariableOp_35"
  input: "^save_1/AssignVariableOp_36"
  input: "^save_1/AssignVariableOp_37"
  input: "^save_1/AssignVariableOp_38"
  input: "^save_1/AssignVariableOp_39"
  input: "^save_1/AssignVariableOp_4"
  input: "^save_1/AssignVariableOp_40"
  input: "^save_1/AssignVariableOp_41"
  input: "^save_1/AssignVariableOp_42"
  input: "^save_1/AssignVariableOp_43"
  input: "^save_1/AssignVariableOp_44"
  input: "^save_1/AssignVariableOp_45"
  input: "^save_1/AssignVariableOp_46"
  input: "^save_1/AssignVariableOp_47"
  input: "^save_1/AssignVariableOp_48"
  input: "^save_1/AssignVariableOp_49"
  input: "^save_1/AssignVariableOp_5"
  input: "^save_1/AssignVariableOp_50"
  input: "^save_1/AssignVariableOp_51"
  input: "^save_1/AssignVariableOp_52"
  input: "^save_1/AssignVariableOp_53"
  input: "^save_1/AssignVariableOp_54"
  input: "^save_1/AssignVariableOp_55"
  input: "^save_1/AssignVariableOp_56"
  input: "^save_1/AssignVariableOp_57"
  input: "^save_1/AssignVariableOp_58"
  input: "^save_1/AssignVariableOp_59"
  input: "^save_1/AssignVariableOp_6"
  input: "^save_1/AssignVariableOp_60"
  input: "^save_1/AssignVariableOp_61"
  input: "^save_1/AssignVariableOp_62"
  input: "^save_1/AssignVariableOp_63"
  input: "^save_1/AssignVariableOp_64"
  input: "^save_1/AssignVariableOp_65"
  input: "^save_1/AssignVariableOp_66"
  input: "^save_1/AssignVariableOp_67"
  input: "^save_1/AssignVariableOp_68"
  input: "^save_1/AssignVariableOp_69"
  input: "^save_1/AssignVariableOp_7"
  input: "^save_1/AssignVariableOp_70"
  input: "^save_1/AssignVariableOp_71"
  input: "^save_1/AssignVariableOp_72"
  input: "^save_1/AssignVariableOp_73"
  input: "^save_1/AssignVariableOp_74"
  input: "^save_1/AssignVariableOp_75"
  input: "^save_1/AssignVariableOp_76"
  input: "^save_1/AssignVariableOp_77"
  input: "^save_1/AssignVariableOp_78"
  input: "^save_1/AssignVariableOp_79"
  input: "^save_1/AssignVariableOp_8"
  input: "^save_1/AssignVariableOp_80"
  input: "^save_1/AssignVariableOp_81"
  input: "^save_1/AssignVariableOp_82"
  input: "^save_1/AssignVariableOp_83"
  input: "^save_1/AssignVariableOp_84"
  input: "^save_1/AssignVariableOp_85"
  input: "^save_1/AssignVariableOp_86"
  input: "^save_1/AssignVariableOp_87"
  input: "^save_1/AssignVariableOp_88"
  input: "^save_1/AssignVariableOp_89"
  input: "^save_1/AssignVariableOp_9"
  input: "^save_1/AssignVariableOp_90"
  input: "^save_1/AssignVariableOp_91"
  input: "^save_1/AssignVariableOp_92"
  input: "^save_1/AssignVariableOp_93"
  input: "^save_1/AssignVariableOp_94"
  input: "^save_1/AssignVariableOp_95"
  input: "^save_1/AssignVariableOp_96"
  input: "^save_1/AssignVariableOp_97"
  input: "^save_1/AssignVariableOp_98"
  input: "^save_1/AssignVariableOp_99"
}
versions {
  producer: 38
}
