{"format": "graph-model", "generatedBy": "2.11.0", "convertedBy": "TensorFlow.js Converter v3.18.0", "signature": {"inputs": {"audio_input": {"name": "audio_input:0", "dtype": "DT_FLOAT", "tensorShape": {"dim": [{"size": "-1"}, {"size": "64000"}]}}}, "outputs": {"Identity_18:0": {"name": "Identity_18:0", "dtype": "DT_FLOAT", "tensorShape": {"dim": [{"size": "1"}, {"size": "1000"}, {"size": "1"}]}}, "Identity_7:0": {"name": "Identity_7:0", "dtype": "DT_FLOAT", "tensorShape": {"dim": [{"size": "1"}, {"size": "1000"}, {"size": "65"}]}}, "Identity_13:0": {"name": "Identity_13:0", "dtype": "DT_FLOAT", "tensorShape": {"dim": [{"size": "1"}, {"size": "64000"}]}}, "Identity_17:0": {"name": "Identity_17:0", "dtype": "DT_FLOAT", "tensorShape": {"dim": [{"size": "1"}, {"size": "1000"}, {"size": "60"}]}}, "Identity_24:0": {"name": "Identity_24:0", "dtype": "DT_FLOAT", "tensorShape": {"dim": [{"size": "1"}, {"size": "64000"}]}}, "Identity_3:0": {"name": "Identity_3:0", "dtype": "DT_FLOAT", "tensorShape": {"dim": [{"size": "1"}, {"size": "1000"}, {"size": "1"}]}}, "Identity_29:0": {"name": "Identity_29:0", "dtype": "DT_FLOAT", "tensorShape": {"dim": [{"size": "1"}, {"size": "64000"}]}}, "Identity_9:0": {"name": "Identity_9:0", "dtype": "DT_FLOAT", "tensorShape": {"dim": [{"size": "1"}, {"size": "1000"}, {"size": "1"}]}}, "Identity_16:0": {"name": "Identity_16:0", "dtype": "DT_FLOAT", "tensorShape": {"dim": [{"size": "1"}, {"size": "1000"}, {"size": "1"}]}}, "Identity_25:0": {"name": "Identity_25:0", "dtype": "DT_FLOAT", "tensorShape": {"dim": [{"size": "1"}, {"size": "48000"}]}}, "Identity_8:0": {"name": "Identity_8:0", "dtype": "DT_FLOAT", "tensorShape": {"dim": [{"size": "1"}, {"size": "64000"}]}}, "Identity_27:0": {"name": "Identity_27:0", "dtype": "DT_FLOAT", "tensorShape": {"dim": [{"size": "1"}, {"size": "64000"}]}}, "Identity_12:0": {"name": "Identity_12:0", "dtype": "DT_FLOAT", "tensorShape": {"dim": [{"size": "1"}, {"size": "1000"}, {"size": "60"}]}}, "Identity_14:0": {"name": "Identity_14:0", "dtype": "DT_FLOAT", "tensorShape": {"dim": [{"size": "1"}, {"size": "1000"}, {"size": "1"}]}}, "Identity_1:0": {"name": "Identity_1:0", "dtype": "DT_FLOAT", "tensorShape": {"dim": [{"size": "1"}, {"size": "64000"}]}}, "Identity_5:0": {"name": "Identity_5:0", "dtype": "DT_FLOAT", "tensorShape": {"dim": [{"size": "1"}, {"size": "1000"}, {"size": "1"}]}}, "Identity_21:0": {"name": "Identity_21:0", "dtype": "DT_FLOAT", "tensorShape": {"dim": [{"size": "1"}, {"size": "1000"}, {"size": "1"}]}}, "Identity:0": {"name": "Identity:0", "dtype": "DT_FLOAT", "tensorShape": {"dim": [{"size": "1"}, {"size": "64000"}]}}, "Identity_4:0": {"name": "Identity_4:0", "dtype": "DT_FLOAT", "tensorShape": {"dim": [{"size": "1"}, {"size": "64000"}]}}, "Identity_28:0": {"name": "Identity_28:0", "dtype": "DT_FLOAT", "tensorShape": {"dim": [{"size": "1"}, {"size": "48000"}]}}, "Identity_2:0": {"name": "Identity_2:0", "dtype": "DT_FLOAT", "tensorShape": {"dim": [{"size": "1"}, {"size": "64000"}]}}, "Identity_15:0": {"name": "Identity_15:0", "dtype": "DT_FLOAT", "tensorShape": {"dim": [{"size": "1"}, {"size": "1000"}, {"size": "1"}]}}, "Identity_23:0": {"name": "Identity_23:0", "dtype": "DT_FLOAT", "tensorShape": {"dim": [{"size": "1"}, {"size": "1000"}, {"size": "65"}]}}, "Identity_6:0": {"name": "Identity_6:0", "dtype": "DT_FLOAT", "tensorShape": {"dim": [{"size": "1"}, {"size": "1000"}, {"size": "1"}]}}, "Identity_11:0": {"name": "Identity_11:0", "dtype": "DT_FLOAT", "tensorShape": {"dim": [{"size": "1"}, {"size": "1000"}, {"size": "60"}]}}, "Identity_22:0": {"name": "Identity_22:0", "dtype": "DT_FLOAT", "tensorShape": {"dim": [{"size": "1"}, {"size": "1000"}, {"size": "1"}]}}, "Identity_20:0": {"name": "Identity_20:0", "dtype": "DT_FLOAT", "tensorShape": {"dim": [{"size": "1"}, {"size": "1000"}, {"size": "65"}]}}, "Identity_19:0": {"name": "Identity_19:0", "dtype": "DT_FLOAT", "tensorShape": {"dim": [{"size": "1"}, {"size": "1000"}, {"size": "1"}]}}, "Identity_26:0": {"name": "Identity_26:0", "dtype": "DT_FLOAT", "tensorShape": {"dim": [{"size": "1"}, {"size": "64000"}]}}, "Identity_10:0": {"name": "Identity_10:0", "dtype": "DT_FLOAT", "tensorShape": {"dim": [{"size": "1"}, {"size": "1000"}, {"size": "1"}]}}}}, "modelTopology": {"node": [{"name": "audio_input", "op": "Placeholder", "attr": {"shape": {"shape": {"dim": [{"size": "-1"}, {"size": "64000"}]}}, "dtype": {"type": "DT_FLOAT"}}}, {"name": "StatefulPartitionedCall/audio_feature_model_1/StatefulPartitionedCall/StatefulPartitionedCall/mul_5/x", "op": "Const", "input": ["^audio_input"], "attr": {"value": {"tensor": {"dtype": "DT_FLOAT", "tensorShape": {}}}, "dtype": {"type": "DT_FLOAT"}}}, {"name": "StatefulPartitionedCall/audio_feature_model_1/StatefulPartitionedCall/StatefulPartitionedCall/pow_1/x", "op": "Const", "input": ["^audio_input"], "attr": {"value": {"tensor": {"dtype": "DT_FLOAT", "tensorShape": {}}}, "dtype": {"type": "DT_FLOAT"}}}, {"name": "StatefulPartitionedCall/audio_feature_model_1/StatefulPartitionedCall/StatefulPartitionedCall/Cast_2", "op": "Const", "input": ["^audio_input"], "attr": {"value": {"tensor": {"dtype": "DT_FLOAT", "tensorShape": {"dim": [{"size": "360"}]}}}, "dtype": {"type": "DT_FLOAT"}}}, {"name": "StatefulPartitionedCall/audio_feature_model_1/StatefulPartitionedCall/StatefulPartitionedCall/GatherV2_1/axis", "op": "Const", "input": ["^audio_input"], "attr": {"value": {"tensor": {"dtype": "DT_INT32", "tensorShape": {}}}, "dtype": {"type": "DT_INT32"}}}, {"name": "StatefulPartitionedCall/audio_feature_model_1/StatefulPartitionedCall/StatefulPartitionedCall/Sum_1/reduction_indices", "op": "Const", "input": ["^audio_input"], "attr": {"dtype": {"type": "DT_INT32"}, "value": {"tensor": {"dtype": "DT_INT32", "tensorShape": {}}}}}, {"name": "StatefulPartitionedCall/audio_feature_model_1/StatefulPartitionedCall/StatefulPartitionedCall/Less/y", "op": "Const", "input": ["^audio_input"], "attr": {"value": {"tensor": {"dtype": "DT_INT32", "tensorShape": {}}}, "dtype": {"type": "DT_INT32"}}}, {"name": "StatefulPartitionedCall/audio_feature_model_1/StatefulPartitionedCall/StatefulPartitionedCall/Greater_1/y", "op": "Const", "input": ["^audio_input"], "attr": {"value": {"tensor": {"dtype": "DT_INT32", "tensorShape": {}}}, "dtype": {"type": "DT_INT32"}}}, {"name": "StatefulPartitionedCall/audio_feature_model_1/StatefulPartitionedCall/StatefulPartitionedCall/HiddenMarkovModel/posterior_mode/strided_slice", "op": "Const", "input": ["^audio_input"], "attr": {"value": {"tensor": {"dtype": "DT_INT32", "tensorShape": {}}}, "dtype": {"type": "DT_INT32"}}}, {"name": "StatefulPartitionedCall/audio_feature_model_1/StatefulPartitionedCall/StatefulPartitionedCall/eye/ones", "op": "Const", "input": ["^audio_input"], "attr": {"dtype": {"type": "DT_FLOAT"}, "value": {"tensor": {"dtype": "DT_FLOAT", "tensorShape": {"dim": [{"size": "360"}]}}}}}, {"name": "StatefulPartitionedCall/audio_feature_model_1/StatefulPartitionedCall/StatefulPartitionedCall/eye/diag/k", "op": "Const", "input": ["^audio_input"], "attr": {"value": {"tensor": {"dtype": "DT_INT32", "tensorShape": {}}}, "dtype": {"type": "DT_INT32"}}}, {"name": "StatefulPartitionedCall/audio_feature_model_1/StatefulPartitionedCall/StatefulPartitionedCall/eye/diag/num_rows", "op": "Const", "input": ["^audio_input"], "attr": {"value": {"tensor": {"dtype": "DT_INT32", "tensorShape": {}}}, "dtype": {"type": "DT_INT32"}}}, {"name": "StatefulPartitionedCall/audio_feature_model_1/StatefulPartitionedCall/StatefulPartitionedCall/eye/diag/num_cols", "op": "Const", "input": ["^audio_input"], "attr": {"dtype": {"type": "DT_INT32"}, "value": {"tensor": {"dtype": "DT_INT32", "tensorShape": {}}}}}, {"name": "StatefulPartitionedCall/audio_feature_model_1/StatefulPartitionedCall/StatefulPartitionedCall/eye/diag/padding_value", "op": "Const", "input": ["^audio_input"], "attr": {"value": {"tensor": {"dtype": "DT_FLOAT", "tensorShape": {}}}, "dtype": {"type": "DT_FLOAT"}}}, {"name": "StatefulPartitionedCall/audio_feature_model_1/StatefulPartitionedCall/StatefulPartitionedCall/mul_2/y", "op": "Const", "input": ["^audio_input"], "attr": {"dtype": {"type": "DT_FLOAT"}, "value": {"tensor": {"dtype": "DT_FLOAT", "tensorShape": {}}}}}, {"name": "StatefulPartitionedCall/audio_feature_model_1/StatefulPartitionedCall/StatefulPartitionedCall/mul_3", "op": "Const", "input": ["^audio_input"], "attr": {"value": {"tensor": {"dtype": "DT_FLOAT", "tensorShape": {"dim": [{"size": "360"}, {"size": "360"}]}}}, "dtype": {"type": "DT_FLOAT"}}}, {"name": "StatefulPartitionedCall/audio_feature_model_1/StatefulPartitionedCall/StatefulPartitionedCall/strided_slice_3/stack", "op": "Const", "input": ["^audio_input"], "attr": {"dtype": {"type": "DT_INT32"}, "value": {"tensor": {"dtype": "DT_INT32", "tensorShape": {"dim": [{"size": "2"}]}}}}}, {"name": "StatefulPartitionedCall/audio_feature_model_1/StatefulPartitionedCall/StatefulPartitionedCall/strided_slice_3/stack_1", "op": "Const", "input": ["^audio_input"], "attr": {"dtype": {"type": "DT_INT32"}, "value": {"tensor": {"dtype": "DT_INT32", "tensorShape": {"dim": [{"size": "2"}]}}}}}, {"name": "StatefulPartitionedCall/audio_feature_model_1/StatefulPartitionedCall/StatefulPartitionedCall/strided_slice_3/stack_2", "op": "Const", "input": ["^audio_input"], "attr": {"dtype": {"type": "DT_INT32"}, "value": {"tensor": {"dtype": "DT_INT32", "tensorShape": {"dim": [{"size": "2"}]}}}}}, {"name": "StatefulPartitionedCall/audio_feature_model_1/StatefulPartitionedCall/StatefulPartitionedCall/sub_3/x", "op": "Const", "input": ["^audio_input"], "attr": {"value": {"tensor": {"dtype": "DT_FLOAT", "tensorShape": {}}}, "dtype": {"type": "DT_FLOAT"}}}, {"name": "StatefulPartitionedCall/audio_feature_model_1/StatefulPartitionedCall/StatefulPartitionedCall/meshgrid/Reshape_2", "op": "Const", "input": ["^audio_input"], "attr": {"dtype": {"type": "DT_FLOAT"}, "value": {"tensor": {"dtype": "DT_FLOAT", "tensorShape": {"dim": [{"size": "1"}, {"size": "360"}]}}}}}, {"name": "ConstantFolding/StatefulPartitionedCall/audio_feature_model_1/StatefulPartitionedCall/StatefulPartitionedCall/meshgrid/mul-broadcastto_shape-0", "op": "Const", "input": ["^audio_input"], "attr": {"dtype": {"type": "DT_INT32"}, "value": {"tensor": {"dtype": "DT_INT32", "tensorShape": {"dim": [{"size": "2"}]}}}}}, {"name": "StatefulPartitionedCall/audio_feature_model_1/StatefulPartitionedCall/StatefulPartitionedCall/meshgrid/Reshape_3", "op": "Const", "input": ["^audio_input"], "attr": {"value": {"tensor": {"dtype": "DT_FLOAT", "tensorShape": {"dim": [{"size": "360"}, {"size": "1"}]}}}, "dtype": {"type": "DT_FLOAT"}}}, {"name": "ConstantFolding/StatefulPartitionedCall/audio_feature_model_1/StatefulPartitionedCall/StatefulPartitionedCall/meshgrid/mul_1-broadcastto_shape-0", "op": "Const", "input": ["^audio_input"], "attr": {"value": {"tensor": {"dtype": "DT_INT32", "tensorShape": {"dim": [{"size": "2"}]}}}, "dtype": {"type": "DT_INT32"}}}, {"name": "StatefulPartitionedCall/audio_feature_model_1/StatefulPartitionedCall/StatefulPartitionedCall/Maximum_2/y", "op": "Const", "input": ["^audio_input"], "attr": {"dtype": {"type": "DT_FLOAT"}, "value": {"tensor": {"dtype": "DT_FLOAT", "tensorShape": {}}}}}, {"name": "StatefulPartitionedCall/audio_feature_model_1/StatefulPartitionedCall/StatefulPartitionedCall/Sum/reduction_indices", "op": "Const", "input": ["^audio_input"], "attr": {"value": {"tensor": {"dtype": "DT_INT32", "tensorShape": {}}}, "dtype": {"type": "DT_INT32"}}}, {"name": "StatefulPartitionedCall/audio_feature_model_1/StatefulPartitionedCall/StatefulPartitionedCall/strided_slice_2/stack", "op": "Const", "input": ["^audio_input"], "attr": {"dtype": {"type": "DT_INT32"}, "value": {"tensor": {"dtype": "DT_INT32", "tensorShape": {"dim": [{"size": "2"}]}}}}}, {"name": "StatefulPartitionedCall/audio_feature_model_1/StatefulPartitionedCall/StatefulPartitionedCall/strided_slice_2/stack_1", "op": "Const", "input": ["^audio_input"], "attr": {"value": {"tensor": {"dtype": "DT_INT32", "tensorShape": {"dim": [{"size": "2"}]}}}, "dtype": {"type": "DT_INT32"}}}, {"name": "StatefulPartitionedCall/audio_feature_model_1/StatefulPartitionedCall/StatefulPartitionedCall/strided_slice_2/stack_2", "op": "Const", "input": ["^audio_input"], "attr": {"dtype": {"type": "DT_INT32"}, "value": {"tensor": {"dtype": "DT_INT32", "tensorShape": {"dim": [{"size": "2"}]}}}}}, {"name": "StatefulPartitionedCall/audio_feature_model_1/StatefulPartitionedCall/StatefulPartitionedCall/strided_slice/stack", "op": "Const", "input": ["^audio_input"], "attr": {"value": {"tensor": {"dtype": "DT_INT32", "tensorShape": {"dim": [{"size": "2"}]}}}, "dtype": {"type": "DT_INT32"}}}, {"name": "StatefulPartitionedCall/audio_feature_model_1/StatefulPartitionedCall/StatefulPartitionedCall/strided_slice/stack_1", "op": "Const", "input": ["^audio_input"], "attr": {"dtype": {"type": "DT_INT32"}, "value": {"tensor": {"dtype": "DT_INT32", "tensorShape": {"dim": [{"size": "2"}]}}}}}, {"name": "StatefulPartitionedCall/audio_feature_model_1/StatefulPartitionedCall/StatefulPartitionedCall/strided_slice/stack_2", "op": "Const", "input": ["^audio_input"], "attr": {"dtype": {"type": "DT_INT32"}, "value": {"tensor": {"dtype": "DT_INT32", "tensorShape": {"dim": [{"size": "2"}]}}}}}, {"name": "StatefulPartitionedCall/audio_feature_model_1/StatefulPartitionedCall/StatefulPartitionedCall/Greater/y", "op": "Const", "input": ["^audio_input"], "attr": {"dtype": {"type": "DT_FLOAT"}, "value": {"tensor": {"dtype": "DT_FLOAT", "tensorShape": {}}}}}, {"name": "StatefulPartitionedCall/audio_feature_model_1/StatefulPartitionedCall/StatefulPartitionedCall/frame/zeros_like", "op": "Const", "input": ["^audio_input"], "attr": {"dtype": {"type": "DT_INT32"}, "value": {"tensor": {"dtype": "DT_INT32", "tensorShape": {"dim": [{"size": "2"}]}}}}}, {"name": "StatefulPartitionedCall/audio_feature_model_1/StatefulPartitionedCall/StatefulPartitionedCall/frame/mul/y", "op": "Const", "input": ["^audio_input"], "attr": {"dtype": {"type": "DT_INT32"}, "value": {"tensor": {"dtype": "DT_INT32", "tensorShape": {}}}}}, {"name": "StatefulPartitionedCall/audio_feature_model_1/StatefulPartitionedCall/StatefulPartitionedCall/frame/concat/axis", "op": "Const", "input": ["^audio_input"], "attr": {"value": {"tensor": {"dtype": "DT_INT32", "tensorShape": {}}}, "dtype": {"type": "DT_INT32"}}}, {"name": "StatefulPartitionedCall/audio_feature_model_1/StatefulPartitionedCall/StatefulPartitionedCall/frame/ones_like/Shape/shape_as_tensor", "op": "Const", "input": ["^audio_input"], "attr": {"dtype": {"type": "DT_INT32"}, "value": {"tensor": {"dtype": "DT_INT32", "tensorShape": {"dim": [{"size": "1"}]}}}}}, {"name": "StatefulPartitionedCall/audio_feature_model_1/StatefulPartitionedCall/StatefulPartitionedCall/frame/ones_like/Const", "op": "Const", "input": ["^audio_input"], "attr": {"dtype": {"type": "DT_INT32"}, "value": {"tensor": {"dtype": "DT_INT32", "tensorShape": {}}}}}, {"name": "StatefulPartitionedCall/audio_feature_model_1/StatefulPartitionedCall/StatefulPartitionedCall/frame/floordiv_3/y", "op": "Const", "input": ["^audio_input"], "attr": {"dtype": {"type": "DT_INT32"}, "value": {"tensor": {"dtype": "DT_INT32", "tensorShape": {}}}}}, {"name": "StatefulPartitionedCall/audio_feature_model_1/StatefulPartitionedCall/StatefulPartitionedCall/frame/concat_1/values_1/1", "op": "Const", "input": ["^audio_input"], "attr": {"value": {"tensor": {"dtype": "DT_INT32", "tensorShape": {}}}, "dtype": {"type": "DT_INT32"}}}, {"name": "StatefulPartitionedCall/audio_feature_model_1/StatefulPartitionedCall/StatefulPartitionedCall/frame/concat_1/axis", "op": "Const", "input": ["^audio_input"], "attr": {"value": {"tensor": {"dtype": "DT_INT32", "tensorShape": {}}}, "dtype": {"type": "DT_INT32"}}}, {"name": "StatefulPartitionedCall/audio_feature_model_1/StatefulPartitionedCall/StatefulPartitionedCall/frame/range_1/start", "op": "Const", "input": ["^audio_input"], "attr": {"dtype": {"type": "DT_INT32"}, "value": {"tensor": {"dtype": "DT_INT32", "tensorShape": {}}}}}, {"name": "StatefulPartitionedCall/audio_feature_model_1/StatefulPartitionedCall/StatefulPartitionedCall/frame/range_1/delta", "op": "Const", "input": ["^audio_input"], "attr": {"value": {"tensor": {"dtype": "DT_INT32", "tensorShape": {}}}, "dtype": {"type": "DT_INT32"}}}, {"name": "StatefulPartitionedCall/audio_feature_model_1/StatefulPartitionedCall/StatefulPartitionedCall/frame/floordiv_2", "op": "Const", "input": ["^audio_input"], "attr": {"value": {"tensor": {"dtype": "DT_INT32", "tensorShape": {}}}, "dtype": {"type": "DT_INT32"}}}, {"name": "StatefulPartitionedCall/audio_feature_model_1/StatefulPartitionedCall/StatefulPartitionedCall/frame/Const", "op": "Const", "input": ["^audio_input"], "attr": {"dtype": {"type": "DT_INT32"}, "value": {"tensor": {"dtype": "DT_INT32", "tensorShape": {}}}}}, {"name": "StatefulPartitionedCall/audio_feature_model_1/StatefulPartitionedCall/StatefulPartitionedCall/frame/add/x", "op": "Const", "input": ["^audio_input"], "attr": {"value": {"tensor": {"dtype": "DT_INT32", "tensorShape": {}}}, "dtype": {"type": "DT_INT32"}}}, {"name": "StatefulPartitionedCall/audio_feature_model_1/StatefulPartitionedCall/StatefulPartitionedCall/Pad_1/paddings", "op": "Const", "input": ["^audio_input"], "attr": {"dtype": {"type": "DT_INT32"}, "value": {"tensor": {"dtype": "DT_INT32", "tensorShape": {"dim": [{"size": "2"}, {"size": "2"}]}}}}}, {"name": "StatefulPartitionedCall/audio_feature_model_1/StatefulPartitionedCall/StatefulPartitionedCall/frame/packed", "op": "Const", "input": ["^audio_input"], "attr": {"value": {"tensor": {"dtype": "DT_INT32", "tensorShape": {"dim": [{"size": "3"}]}}}, "dtype": {"type": "DT_INT32"}}}, {"name": "StatefulPartitionedCall/audio_feature_model_1/StatefulPartitionedCall/StatefulPartitionedCall/frame/split/split_dim", "op": "Const", "input": ["^audio_input"], "attr": {"dtype": {"type": "DT_INT32"}, "value": {"tensor": {"dtype": "DT_INT32", "tensorShape": {}}}}}, {"name": "StatefulPartitionedCall/audio_feature_model_1/StatefulPartitionedCall/StatefulPartitionedCall/frame/Reshape/shape_1", "op": "Const", "input": ["^audio_input"], "attr": {"value": {"tensor": {"dtype": "DT_INT32", "tensorShape": {"dim": [{}]}}}, "dtype": {"type": "DT_INT32"}}}, {"name": "StatefulPartitionedCall/audio_feature_model_1/StatefulPartitionedCall/StatefulPartitionedCall/frame/frame_length", "op": "Const", "input": ["^audio_input"], "attr": {"value": {"tensor": {"dtype": "DT_INT32", "tensorShape": {}}}, "dtype": {"type": "DT_INT32"}}}, {"name": "StatefulPartitionedCall/audio_feature_model_1/StatefulPartitionedCall/StatefulPartitionedCall/frame/frame_step", "op": "Const", "input": ["^audio_input"], "attr": {"dtype": {"type": "DT_INT32"}, "value": {"tensor": {"dtype": "DT_INT32", "tensorShape": {}}}}}, {"name": "StatefulPartitionedCall/audio_feature_model_1/StatefulPartitionedCall/StatefulPartitionedCall/frame/Reshape_2/shape/1", "op": "Const", "input": ["^audio_input"], "attr": {"value": {"tensor": {"dtype": "DT_INT32", "tensorShape": {}}}, "dtype": {"type": "DT_INT32"}}}, {"name": "StatefulPartitionedCall/audio_feature_model_1/StatefulPartitionedCall/StatefulPartitionedCall/frame/Reshape_3", "op": "Const", "input": ["^audio_input"], "attr": {"value": {"tensor": {"dtype": "DT_INT32", "tensorShape": {"dim": [{"size": "1"}, {"size": "32"}]}}}, "dtype": {"type": "DT_INT32"}}}, {"name": "StatefulPartitionedCall/audio_feature_model_1/StatefulPartitionedCall/StatefulPartitionedCall/frame/strided_slice", "op": "Const", "input": ["^audio_input"], "attr": {"dtype": {"type": "DT_INT32"}, "value": {"tensor": {"dtype": "DT_INT32", "tensorShape": {}}}}}, {"name": "StatefulPartitionedCall/audio_feature_model_1/StatefulPartitionedCall/StatefulPartitionedCall/Reshape/shape", "op": "Const", "input": ["^audio_input"], "attr": {"dtype": {"type": "DT_INT32"}, "value": {"tensor": {"dtype": "DT_INT32", "tensorShape": {"dim": [{"size": "2"}]}}}}}, {"name": "StatefulPartitionedCall/audio_feature_model_1/StatefulPartitionedCall/StatefulPartitionedCall/moments/mean/reduction_indices", "op": "Const", "input": ["^audio_input"], "attr": {"value": {"tensor": {"dtype": "DT_INT32", "tensorShape": {"dim": [{"size": "1"}]}}}, "dtype": {"type": "DT_INT32"}}}, {"name": "StatefulPartitionedCall/audio_feature_model_1/StatefulPartitionedCall/StatefulPartitionedCall/moments/variance/reduction_indices", "op": "Const", "input": ["^audio_input"], "attr": {"value": {"tensor": {"dtype": "DT_INT32", "tensorShape": {"dim": [{"size": "1"}]}}}, "dtype": {"type": "DT_INT32"}}}, {"name": "StatefulPartitionedCall/audio_feature_model_1/StatefulPartitionedCall/StatefulPartitionedCall/SelectV2_3/e", "op": "Const", "input": ["^audio_input"], "attr": {"value": {"tensor": {"dtype": "DT_FLOAT", "tensorShape": {}}}, "dtype": {"type": "DT_FLOAT"}}}, {"name": "StatefulPartitionedCall/audio_feature_model_1/StatefulPartitionedCall/StatefulPartitionedCall/strided_slice_1/stack", "op": "Const", "input": ["^audio_input"], "attr": {"value": {"tensor": {"dtype": "DT_INT32", "tensorShape": {"dim": [{"size": "2"}]}}}, "dtype": {"type": "DT_INT32"}}}, {"name": "StatefulPartitionedCall/audio_feature_model_1/StatefulPartitionedCall/StatefulPartitionedCall/strided_slice_1/stack_1", "op": "Const", "input": ["^audio_input"], "attr": {"value": {"tensor": {"dtype": "DT_INT32", "tensorShape": {"dim": [{"size": "2"}]}}}, "dtype": {"type": "DT_INT32"}}}, {"name": "StatefulPartitionedCall/audio_feature_model_1/StatefulPartitionedCall/StatefulPartitionedCall/strided_slice_1/stack_2", "op": "Const", "input": ["^audio_input"], "attr": {"value": {"tensor": {"dtype": "DT_INT32", "tensorShape": {"dim": [{"size": "2"}]}}}, "dtype": {"type": "DT_INT32"}}}, {"name": "StatefulPartitionedCall/audio_feature_model_1/StatefulPartitionedCall/StatefulPartitionedCall/model/input-reshape/strided_slice/stack", "op": "Const", "input": ["^audio_input"], "attr": {"dtype": {"type": "DT_INT32"}, "value": {"tensor": {"dtype": "DT_INT32", "tensorShape": {"dim": [{"size": "1"}]}}}}}, {"name": "StatefulPartitionedCall/audio_feature_model_1/StatefulPartitionedCall/StatefulPartitionedCall/model/input-reshape/strided_slice/stack_1", "op": "Const", "input": ["^audio_input"], "attr": {"dtype": {"type": "DT_INT32"}, "value": {"tensor": {"dtype": "DT_INT32", "tensorShape": {"dim": [{"size": "1"}]}}}}}, {"name": "StatefulPartitionedCall/audio_feature_model_1/StatefulPartitionedCall/StatefulPartitionedCall/model/input-reshape/strided_slice/stack_2", "op": "Const", "input": ["^audio_input"], "attr": {"dtype": {"type": "DT_INT32"}, "value": {"tensor": {"dtype": "DT_INT32", "tensorShape": {"dim": [{"size": "1"}]}}}}}, {"name": "StatefulPartitionedCall/audio_feature_model_1/StatefulPartitionedCall/StatefulPartitionedCall/model/input-reshape/Reshape/shape/1", "op": "Const", "input": ["^audio_input"], "attr": {"dtype": {"type": "DT_INT32"}, "value": {"tensor": {"dtype": "DT_INT32", "tensorShape": {}}}}}, {"name": "StatefulPartitionedCall/audio_feature_model_1/StatefulPartitionedCall/StatefulPartitionedCall/model/input-reshape/Reshape/shape/2", "op": "Const", "input": ["^audio_input"], "attr": {"dtype": {"type": "DT_INT32"}, "value": {"tensor": {"dtype": "DT_INT32", "tensorShape": {}}}}}, {"name": "StatefulPartitionedCall/audio_feature_model_1/StatefulPartitionedCall/StatefulPartitionedCall/model/input-reshape/Reshape/shape/3", "op": "Const", "input": ["^audio_input"], "attr": {"dtype": {"type": "DT_INT32"}, "value": {"tensor": {"dtype": "DT_INT32", "tensorShape": {}}}}}, {"name": "StatefulPartitionedCall/audio_feature_model_1/StatefulPartitionedCall/StatefulPartitionedCall/model/conv1/Conv2D/ReadVariableOp", "op": "Const", "input": ["^audio_input"], "attr": {"value": {"tensor": {"dtype": "DT_FLOAT", "tensorShape": {"dim": [{"size": "512"}, {"size": "1"}, {"size": "1"}, {"size": "1024"}]}}}, "dtype": {"type": "DT_FLOAT"}}}, {"name": "StatefulPartitionedCall/audio_feature_model_1/StatefulPartitionedCall/StatefulPartitionedCall/model/conv1/BiasAdd/ReadVariableOp", "op": "Const", "input": ["^audio_input"], "attr": {"dtype": {"type": "DT_FLOAT"}, "value": {"tensor": {"dtype": "DT_FLOAT", "tensorShape": {"dim": [{"size": "1024"}]}}}}}, {"name": "StatefulPartitionedCall/audio_feature_model_1/StatefulPartitionedCall/StatefulPartitionedCall/model/conv2/Conv2D/ReadVariableOp", "op": "Const", "input": ["^audio_input"], "attr": {"dtype": {"type": "DT_FLOAT"}, "value": {"tensor": {"dtype": "DT_FLOAT", "tensorShape": {"dim": [{"size": "64"}, {"size": "1"}, {"size": "1024"}, {"size": "128"}]}}}}}, {"name": "StatefulPartitionedCall/audio_feature_model_1/StatefulPartitionedCall/StatefulPartitionedCall/model/conv2-BN/FusedBatchNormV3/Scaled", "op": "Const", "input": ["^audio_input"], "attr": {"value": {"tensor": {"dtype": "DT_FLOAT", "tensorShape": {"dim": [{"size": "128"}]}}}, "dtype": {"type": "DT_FLOAT"}}}, {"name": "StatefulPartitionedCall/audio_feature_model_1/StatefulPartitionedCall/StatefulPartitionedCall/model/conv2/BiasAdd/ReadVariableOp", "op": "Const", "input": ["^audio_input"], "attr": {"value": {"tensor": {"dtype": "DT_FLOAT", "tensorShape": {"dim": [{"size": "128"}]}}}, "dtype": {"type": "DT_FLOAT"}}}, {"name": "StatefulPartitionedCall/audio_feature_model_1/StatefulPartitionedCall/StatefulPartitionedCall/model/conv3/Conv2D/ReadVariableOp", "op": "Const", "input": ["^audio_input"], "attr": {"dtype": {"type": "DT_FLOAT"}, "value": {"tensor": {"dtype": "DT_FLOAT", "tensorShape": {"dim": [{"size": "64"}, {"size": "1"}, {"size": "128"}, {"size": "128"}]}}}}}, {"name": "StatefulPartitionedCall/audio_feature_model_1/StatefulPartitionedCall/StatefulPartitionedCall/model/conv3/BiasAdd/ReadVariableOp", "op": "Const", "input": ["^audio_input"], "attr": {"dtype": {"type": "DT_FLOAT"}, "value": {"tensor": {"dtype": "DT_FLOAT", "tensorShape": {"dim": [{"size": "128"}]}}}}}, {"name": "StatefulPartitionedCall/audio_feature_model_1/StatefulPartitionedCall/StatefulPartitionedCall/model/conv2-BN/FusedBatchNormV3/Offset", "op": "Const", "input": ["^audio_input"], "attr": {"value": {"tensor": {"dtype": "DT_FLOAT", "tensorShape": {"dim": [{"size": "128"}]}}}, "dtype": {"type": "DT_FLOAT"}}}, {"name": "StatefulPartitionedCall/audio_feature_model_1/StatefulPartitionedCall/StatefulPartitionedCall/model/conv4/Conv2D/ReadVariableOp", "op": "Const", "input": ["^audio_input"], "attr": {"value": {"tensor": {"dtype": "DT_FLOAT", "tensorShape": {"dim": [{"size": "64"}, {"size": "1"}, {"size": "128"}, {"size": "128"}]}}}, "dtype": {"type": "DT_FLOAT"}}}, {"name": "StatefulPartitionedCall/audio_feature_model_1/StatefulPartitionedCall/StatefulPartitionedCall/model/conv4/BiasAdd/ReadVariableOp", "op": "Const", "input": ["^audio_input"], "attr": {"value": {"tensor": {"dtype": "DT_FLOAT", "tensorShape": {"dim": [{"size": "128"}]}}}, "dtype": {"type": "DT_FLOAT"}}}, {"name": "StatefulPartitionedCall/audio_feature_model_1/StatefulPartitionedCall/StatefulPartitionedCall/model/conv5/Conv2D/ReadVariableOp", "op": "Const", "input": ["^audio_input"], "attr": {"value": {"tensor": {"dtype": "DT_FLOAT", "tensorShape": {"dim": [{"size": "64"}, {"size": "1"}, {"size": "128"}, {"size": "256"}]}}}, "dtype": {"type": "DT_FLOAT"}}}, {"name": "StatefulPartitionedCall/audio_feature_model_1/StatefulPartitionedCall/StatefulPartitionedCall/model/conv5/BiasAdd/ReadVariableOp", "op": "Const", "input": ["^audio_input"], "attr": {"dtype": {"type": "DT_FLOAT"}, "value": {"tensor": {"dtype": "DT_FLOAT", "tensorShape": {"dim": [{"size": "256"}]}}}}}, {"name": "StatefulPartitionedCall/audio_feature_model_1/StatefulPartitionedCall/StatefulPartitionedCall/model/conv1-BN/FusedBatchNormV3/Scaled", "op": "Const", "input": ["^audio_input"], "attr": {"value": {"tensor": {"dtype": "DT_FLOAT", "tensorShape": {"dim": [{"size": "1024"}]}}}, "dtype": {"type": "DT_FLOAT"}}}, {"name": "StatefulPartitionedCall/audio_feature_model_1/StatefulPartitionedCall/StatefulPartitionedCall/model/conv6/Conv2D/ReadVariableOp", "op": "Const", "input": ["^audio_input"], "attr": {"value": {"tensor": {"dtype": "DT_FLOAT", "tensorShape": {"dim": [{"size": "64"}, {"size": "1"}, {"size": "256"}, {"size": "512"}]}}}, "dtype": {"type": "DT_FLOAT"}}}, {"name": "StatefulPartitionedCall/audio_feature_model_1/StatefulPartitionedCall/StatefulPartitionedCall/model/conv6/BiasAdd/ReadVariableOp", "op": "Const", "input": ["^audio_input"], "attr": {"value": {"tensor": {"dtype": "DT_FLOAT", "tensorShape": {"dim": [{"size": "512"}]}}}, "dtype": {"type": "DT_FLOAT"}}}, {"name": "StatefulPartitionedCall/audio_feature_model_1/StatefulPartitionedCall/StatefulPartitionedCall/model/transpose/transpose/perm", "op": "Const", "input": ["^audio_input"], "attr": {"dtype": {"type": "DT_INT32"}, "value": {"tensor": {"dtype": "DT_INT32", "tensorShape": {"dim": [{"size": "4"}]}}}}}, {"name": "StatefulPartitionedCall/audio_feature_model_1/StatefulPartitionedCall/StatefulPartitionedCall/model/flatten/Const", "op": "Const", "input": ["^audio_input"], "attr": {"dtype": {"type": "DT_INT32"}, "value": {"tensor": {"dtype": "DT_INT32", "tensorShape": {"dim": [{"size": "2"}]}}}}}, {"name": "StatefulPartitionedCall/audio_feature_model_1/StatefulPartitionedCall/StatefulPartitionedCall/model/classifier/MatMul/ReadVariableOp", "op": "Const", "input": ["^audio_input"], "attr": {"value": {"tensor": {"dtype": "DT_FLOAT", "tensorShape": {"dim": [{"size": "2048"}, {"size": "360"}]}}}, "dtype": {"type": "DT_FLOAT"}}}, {"name": "StatefulPartitionedCall/audio_feature_model_1/StatefulPartitionedCall/StatefulPartitionedCall/model/conv1-BN/FusedBatchNormV3/Offset", "op": "Const", "input": ["^audio_input"], "attr": {"dtype": {"type": "DT_FLOAT"}, "value": {"tensor": {"dtype": "DT_FLOAT", "tensorShape": {"dim": [{"size": "1024"}]}}}}}, {"name": "StatefulPartitionedCall/audio_feature_model_1/StatefulPartitionedCall/StatefulPartitionedCall/model/classifier/BiasAdd/ReadVariableOp", "op": "Const", "input": ["^audio_input"], "attr": {"dtype": {"type": "DT_FLOAT"}, "value": {"tensor": {"dtype": "DT_FLOAT", "tensorShape": {"dim": [{"size": "360"}]}}}}}, {"name": "StatefulPartitionedCall/audio_feature_model_1/StatefulPartitionedCall/StatefulPartitionedCall/Reshape_1/shape", "op": "Const", "input": ["^audio_input"], "attr": {"value": {"tensor": {"dtype": "DT_INT32", "tensorShape": {"dim": [{"size": "3"}]}}}, "dtype": {"type": "DT_INT32"}}}, {"name": "StatefulPartitionedCall/audio_feature_model_1/StatefulPartitionedCall/StatefulPartitionedCall/Reshape_2/shape", "op": "Const", "input": ["^audio_input"], "attr": {"dtype": {"type": "DT_INT32"}, "value": {"tensor": {"dtype": "DT_INT32", "tensorShape": {"dim": [{"size": "1"}]}}}}}, {"name": "StatefulPartitionedCall/audio_feature_model_1/StatefulPartitionedCall/StatefulPartitionedCall/sub_4/y", "op": "Const", "input": ["^audio_input"], "attr": {"value": {"tensor": {"dtype": "DT_INT32", "tensorShape": {}}}, "dtype": {"type": "DT_INT32"}}}, {"name": "StatefulPartitionedCall/audio_feature_model_1/StatefulPartitionedCall/StatefulPartitionedCall/strided_slice_4/stack", "op": "Const", "input": ["^audio_input"], "attr": {"value": {"tensor": {"dtype": "DT_INT32", "tensorShape": {"dim": [{"size": "2"}]}}}, "dtype": {"type": "DT_INT32"}}}, {"name": "StatefulPartitionedCall/audio_feature_model_1/StatefulPartitionedCall/StatefulPartitionedCall/strided_slice_4/stack_1", "op": "Const", "input": ["^audio_input"], "attr": {"value": {"tensor": {"dtype": "DT_INT32", "tensorShape": {"dim": [{"size": "2"}]}}}, "dtype": {"type": "DT_INT32"}}}, {"name": "StatefulPartitionedCall/audio_feature_model_1/StatefulPartitionedCall/StatefulPartitionedCall/strided_slice_4/stack_2", "op": "Const", "input": ["^audio_input"], "attr": {"value": {"tensor": {"dtype": "DT_INT32", "tensorShape": {"dim": [{"size": "2"}]}}}, "dtype": {"type": "DT_INT32"}}}, {"name": "StatefulPartitionedCall/audio_feature_model_1/StatefulPartitionedCall/StatefulPartitionedCall/strided_slice_5", "op": "Const", "input": ["^audio_input"], "attr": {"dtype": {"type": "DT_INT32"}, "value": {"tensor": {"dtype": "DT_INT32", "tensorShape": {"dim": [{"size": "1"}, {"size": "10"}]}}}}}, {"name": "StatefulPartitionedCall/audio_feature_model_1/StatefulPartitionedCall/StatefulPartitionedCall/SelectV2_4/e", "op": "Const", "input": ["^audio_input"], "attr": {"dtype": {"type": "DT_INT32"}, "value": {"tensor": {"dtype": "DT_INT32", "tensorShape": {}}}}}, {"name": "StatefulPartitionedCall/audio_feature_model_1/StatefulPartitionedCall/StatefulPartitionedCall/SelectV2_5/e", "op": "Const", "input": ["^audio_input"], "attr": {"value": {"tensor": {"dtype": "DT_INT32", "tensorShape": {}}}, "dtype": {"type": "DT_INT32"}}}, {"name": "StatefulPartitionedCall/audio_feature_model_1/StatefulPartitionedCall/StatefulPartitionedCall/GatherV2/axis", "op": "Const", "input": ["^audio_input"], "attr": {"value": {"tensor": {"dtype": "DT_INT32", "tensorShape": {}}}, "dtype": {"type": "DT_INT32"}}}, {"name": "StatefulPartitionedCall/audio_feature_model_1/StatefulPartitionedCall/StatefulPartitionedCall/Sum_2/reduction_indices", "op": "Const", "input": ["^audio_input"], "attr": {"value": {"tensor": {"dtype": "DT_INT32", "tensorShape": {}}}, "dtype": {"type": "DT_INT32"}}}, {"name": "ConstantFolding/StatefulPartitionedCall/audio_feature_model_1/StatefulPartitionedCall/StatefulPartitionedCall/truediv_5_recip", "op": "Const", "input": ["^audio_input"], "attr": {"value": {"tensor": {"dtype": "DT_FLOAT", "tensorShape": {}}}, "dtype": {"type": "DT_FLOAT"}}}, {"name": "StatefulPartitionedCall/audio_feature_model_1/StatefulPartitionedCall/StatefulPartitionedCall/Reshape_3/shape", "op": "Const", "input": ["^audio_input"], "attr": {"value": {"tensor": {"dtype": "DT_INT32", "tensorShape": {"dim": [{"size": "2"}]}}}, "dtype": {"type": "DT_INT32"}}}, {"name": "StatefulPartitionedCall/audio_feature_model_1/StatefulPartitionedCall/StatefulPartitionedCall/ExpandDims/dim", "op": "Const", "input": ["^audio_input"], "attr": {"dtype": {"type": "DT_INT32"}, "value": {"tensor": {"dtype": "DT_INT32", "tensorShape": {}}}}}, {"name": "StatefulPartitionedCall/audio_feature_model_1/StatefulPartitionedCall/StatefulPartitionedCall/LessEqual/y", "op": "Const", "input": ["^audio_input"], "attr": {"value": {"tensor": {"dtype": "DT_FLOAT", "tensorShape": {}}}, "dtype": {"type": "DT_FLOAT"}}}, {"name": "StatefulPartitionedCall/audio_feature_model_1/StatefulPartitionedCall/StatefulPartitionedCall/SelectV2/t", "op": "Const", "input": ["^audio_input"], "attr": {"value": {"tensor": {"dtype": "DT_FLOAT", "tensorShape": {}}}, "dtype": {"type": "DT_FLOAT"}}}, {"name": "StatefulPartitionedCall/audio_feature_model_1/StatefulPartitionedCall/StatefulPartitionedCall/Maximum/x", "op": "Const", "input": ["^audio_input"], "attr": {"value": {"tensor": {"dtype": "DT_FLOAT", "tensorShape": {}}}, "dtype": {"type": "DT_FLOAT"}}}, {"name": "StatefulPartitionedCall/audio_feature_model_1/StatefulPartitionedCall/StatefulPartitionedCall/stft/frame/zeros_like", "op": "Const", "input": ["^audio_input"], "attr": {"value": {"tensor": {"dtype": "DT_INT32", "tensorShape": {"dim": [{"size": "2"}]}}}, "dtype": {"type": "DT_INT32"}}}, {"name": "StatefulPartitionedCall/audio_feature_model_1/StatefulPartitionedCall/StatefulPartitionedCall/stft/frame/mul/y", "op": "Const", "input": ["^audio_input"], "attr": {"dtype": {"type": "DT_INT32"}, "value": {"tensor": {"dtype": "DT_INT32", "tensorShape": {}}}}}, {"name": "StatefulPartitionedCall/audio_feature_model_1/StatefulPartitionedCall/StatefulPartitionedCall/stft/frame/concat/axis", "op": "Const", "input": ["^audio_input"], "attr": {"value": {"tensor": {"dtype": "DT_INT32", "tensorShape": {}}}, "dtype": {"type": "DT_INT32"}}}, {"name": "StatefulPartitionedCall/audio_feature_model_1/StatefulPartitionedCall/StatefulPartitionedCall/stft/frame/ones_like/Shape/shape_as_tensor", "op": "Const", "input": ["^audio_input"], "attr": {"dtype": {"type": "DT_INT32"}, "value": {"tensor": {"dtype": "DT_INT32", "tensorShape": {"dim": [{"size": "1"}]}}}}}, {"name": "StatefulPartitionedCall/audio_feature_model_1/StatefulPartitionedCall/StatefulPartitionedCall/stft/frame/ones_like/Const", "op": "Const", "input": ["^audio_input"], "attr": {"value": {"tensor": {"dtype": "DT_INT32", "tensorShape": {}}}, "dtype": {"type": "DT_INT32"}}}, {"name": "StatefulPartitionedCall/audio_feature_model_1/StatefulPartitionedCall/StatefulPartitionedCall/stft/frame/floordiv_3/y", "op": "Const", "input": ["^audio_input"], "attr": {"dtype": {"type": "DT_INT32"}, "value": {"tensor": {"dtype": "DT_INT32", "tensorShape": {}}}}}, {"name": "StatefulPartitionedCall/audio_feature_model_1/StatefulPartitionedCall/StatefulPartitionedCall/stft/frame/concat_1/values_1/1", "op": "Const", "input": ["^audio_input"], "attr": {"value": {"tensor": {"dtype": "DT_INT32", "tensorShape": {}}}, "dtype": {"type": "DT_INT32"}}}, {"name": "StatefulPartitionedCall/audio_feature_model_1/StatefulPartitionedCall/StatefulPartitionedCall/stft/frame/concat_1/axis", "op": "Const", "input": ["^audio_input"], "attr": {"value": {"tensor": {"dtype": "DT_INT32", "tensorShape": {}}}, "dtype": {"type": "DT_INT32"}}}, {"name": "StatefulPartitionedCall/audio_feature_model_1/StatefulPartitionedCall/StatefulPartitionedCall/stft/frame/range_1/start", "op": "Const", "input": ["^audio_input"], "attr": {"dtype": {"type": "DT_INT32"}, "value": {"tensor": {"dtype": "DT_INT32", "tensorShape": {}}}}}, {"name": "StatefulPartitionedCall/audio_feature_model_1/StatefulPartitionedCall/StatefulPartitionedCall/stft/frame/range_1/delta", "op": "Const", "input": ["^audio_input"], "attr": {"value": {"tensor": {"dtype": "DT_INT32", "tensorShape": {}}}, "dtype": {"type": "DT_INT32"}}}, {"name": "StatefulPartitionedCall/audio_feature_model_1/StatefulPartitionedCall/StatefulPartitionedCall/stft/frame/Reshape_2/shape/1", "op": "Const", "input": ["^audio_input"], "attr": {"value": {"tensor": {"dtype": "DT_INT32", "tensorShape": {}}}, "dtype": {"type": "DT_INT32"}}}, {"name": "StatefulPartitionedCall/audio_feature_model_1/StatefulPartitionedCall/StatefulPartitionedCall/stft/frame/Reshape_3", "op": "Const", "input": ["^audio_input"], "attr": {"dtype": {"type": "DT_INT32"}, "value": {"tensor": {"dtype": "DT_INT32", "tensorShape": {"dim": [{"size": "1"}, {"size": "8"}]}}}}}, {"name": "StatefulPartitionedCall/audio_feature_model_1/StatefulPartitionedCall/StatefulPartitionedCall/stft/frame/strided_slice", "op": "Const", "input": ["^audio_input"], "attr": {"value": {"tensor": {"dtype": "DT_INT32", "tensorShape": {}}}, "dtype": {"type": "DT_INT32"}}}, {"name": "StatefulPartitionedCall/audio_feature_model_1/StatefulPartitionedCall/StatefulPartitionedCall/stft/frame/Const", "op": "Const", "input": ["^audio_input"], "attr": {"dtype": {"type": "DT_INT32"}, "value": {"tensor": {"dtype": "DT_INT32", "tensorShape": {}}}}}, {"name": "StatefulPartitionedCall/audio_feature_model_1/StatefulPartitionedCall/StatefulPartitionedCall/stft/frame/add/x", "op": "Const", "input": ["^audio_input"], "attr": {"value": {"tensor": {"dtype": "DT_INT32", "tensorShape": {}}}, "dtype": {"type": "DT_INT32"}}}, {"name": "StatefulPartitionedCall/audio_feature_model_1/StatefulPartitionedCall/StatefulPartitionedCall/stft/frame/Reshape/shape_1", "op": "Const", "input": ["^audio_input"], "attr": {"dtype": {"type": "DT_INT32"}, "value": {"tensor": {"dtype": "DT_INT32", "tensorShape": {"dim": [{}]}}}}}, {"name": "StatefulPartitionedCall/audio_feature_model_1/StatefulPartitionedCall/StatefulPartitionedCall/stft/frame_step", "op": "Const", "input": ["^audio_input"], "attr": {"value": {"tensor": {"dtype": "DT_INT32", "tensorShape": {}}}, "dtype": {"type": "DT_INT32"}}}, {"name": "StatefulPartitionedCall/audio_feature_model_1/StatefulPartitionedCall/StatefulPartitionedCall/stft/frame_length", "op": "Const", "input": ["^audio_input"], "attr": {"dtype": {"type": "DT_INT32"}, "value": {"tensor": {"dtype": "DT_INT32", "tensorShape": {}}}}}, {"name": "StatefulPartitionedCall/audio_feature_model_1/StatefulPartitionedCall/StatefulPartitionedCall/Pad/paddings", "op": "Const", "input": ["^audio_input"], "attr": {"dtype": {"type": "DT_INT32"}, "value": {"tensor": {"dtype": "DT_INT32", "tensorShape": {"dim": [{"size": "2"}, {"size": "2"}]}}}}}, {"name": "StatefulPartitionedCall/audio_feature_model_1/StatefulPartitionedCall/StatefulPartitionedCall/stft/frame/packed", "op": "Const", "input": ["^audio_input"], "attr": {"value": {"tensor": {"dtype": "DT_INT32", "tensorShape": {"dim": [{"size": "3"}]}}}, "dtype": {"type": "DT_INT32"}}}, {"name": "StatefulPartitionedCall/audio_feature_model_1/StatefulPartitionedCall/StatefulPartitionedCall/stft/frame/split/split_dim", "op": "Const", "input": ["^audio_input"], "attr": {"value": {"tensor": {"dtype": "DT_INT32", "tensorShape": {}}}, "dtype": {"type": "DT_INT32"}}}, {"name": "StatefulPartitionedCall/audio_feature_model_1/StatefulPartitionedCall/StatefulPartitionedCall/stft/frame/concat_2/axis", "op": "Const", "input": ["^audio_input"], "attr": {"value": {"tensor": {"dtype": "DT_INT32", "tensorShape": {}}}, "dtype": {"type": "DT_INT32"}}}, {"name": "StatefulPartitionedCall/audio_feature_model_1/StatefulPartitionedCall/StatefulPartitionedCall/stft/hann_window/sub_2", "op": "Const", "input": ["^audio_input"], "attr": {"dtype": {"type": "DT_FLOAT"}, "value": {"tensor": {"dtype": "DT_FLOAT", "tensorShape": {"dim": [{"size": "512"}]}}}}}, {"name": "StatefulPartitionedCall/audio_feature_model_1/StatefulPartitionedCall/StatefulPartitionedCall/stft/rfft/fft_length", "op": "Const", "input": ["^audio_input"], "attr": {"value": {"tensor": {"dtype": "DT_INT32", "tensorShape": {"dim": [{"size": "1"}]}}}, "dtype": {"type": "DT_INT32"}}}, {"name": "StatefulPartitionedCall/audio_feature_model_1/StatefulPartitionedCall/StatefulPartitionedCall/mul/y", "op": "Const", "input": ["^audio_input"], "attr": {"value": {"tensor": {"dtype": "DT_FLOAT", "tensorShape": {"dim": [{"size": "1"}, {"size": "1"}, {"size": "257"}]}}}, "dtype": {"type": "DT_FLOAT"}}}, {"name": "StatefulPartitionedCall/audio_feature_model_1/StatefulPartitionedCall/StatefulPartitionedCall/Mean/reduction_indices", "op": "Const", "input": ["^audio_input"], "attr": {"value": {"tensor": {"dtype": "DT_INT32", "tensorShape": {}}}, "dtype": {"type": "DT_INT32"}}}, {"name": "StatefulPartitionedCall/audio_feature_model_1/StatefulPartitionedCall/StatefulPartitionedCall/truediv", "op": "Const", "input": ["^audio_input"], "attr": {"value": {"tensor": {"dtype": "DT_FLOAT", "tensorShape": {}}}, "dtype": {"type": "DT_FLOAT"}}}, {"name": "StatefulPartitionedCall/audio_feature_model_1/StatefulPartitionedCall/StatefulPartitionedCall/Maximum_1/y", "op": "Const", "input": ["^audio_input"], "attr": {"value": {"tensor": {"dtype": "DT_FLOAT", "tensorShape": {}}}, "dtype": {"type": "DT_FLOAT"}}}, {"name": "StatefulPartitionedCall/audio_feature_model_1/StatefulPartitionedCall/StatefulPartitionedCall/model/conv6-BN/FusedBatchNormV3/Scaled", "op": "Const", "input": ["^audio_input"], "attr": {"value": {"tensor": {"dtype": "DT_FLOAT", "tensorShape": {"dim": [{"size": "512"}]}}}, "dtype": {"type": "DT_FLOAT"}}}, {"name": "StatefulPartitionedCall/audio_feature_model_1/StatefulPartitionedCall/StatefulPartitionedCall/model/conv6-BN/FusedBatchNormV3/Offset", "op": "Const", "input": ["^audio_input"], "attr": {"dtype": {"type": "DT_FLOAT"}, "value": {"tensor": {"dtype": "DT_FLOAT", "tensorShape": {"dim": [{"size": "512"}]}}}}}, {"name": "StatefulPartitionedCall/audio_feature_model_1/StatefulPartitionedCall/StatefulPartitionedCall/model/conv5-BN/FusedBatchNormV3/Scaled", "op": "Const", "input": ["^audio_input"], "attr": {"dtype": {"type": "DT_FLOAT"}, "value": {"tensor": {"dtype": "DT_FLOAT", "tensorShape": {"dim": [{"size": "256"}]}}}}}, {"name": "StatefulPartitionedCall/audio_feature_model_1/StatefulPartitionedCall/StatefulPartitionedCall/model/conv5-BN/FusedBatchNormV3/Offset", "op": "Const", "input": ["^audio_input"], "attr": {"dtype": {"type": "DT_FLOAT"}, "value": {"tensor": {"dtype": "DT_FLOAT", "tensorShape": {"dim": [{"size": "256"}]}}}}}, {"name": "StatefulPartitionedCall/audio_feature_model_1/StatefulPartitionedCall/StatefulPartitionedCall/model/conv4-BN/FusedBatchNormV3/Scaled", "op": "Const", "input": ["^audio_input"], "attr": {"dtype": {"type": "DT_FLOAT"}, "value": {"tensor": {"dtype": "DT_FLOAT", "tensorShape": {"dim": [{"size": "128"}]}}}}}, {"name": "StatefulPartitionedCall/audio_feature_model_1/StatefulPartitionedCall/StatefulPartitionedCall/model/conv4-BN/FusedBatchNormV3/Offset", "op": "Const", "input": ["^audio_input"], "attr": {"value": {"tensor": {"dtype": "DT_FLOAT", "tensorShape": {"dim": [{"size": "128"}]}}}, "dtype": {"type": "DT_FLOAT"}}}, {"name": "StatefulPartitionedCall/audio_feature_model_1/StatefulPartitionedCall/StatefulPartitionedCall/model/conv3-BN/FusedBatchNormV3/Scaled", "op": "Const", "input": ["^audio_input"], "attr": {"dtype": {"type": "DT_FLOAT"}, "value": {"tensor": {"dtype": "DT_FLOAT", "tensorShape": {"dim": [{"size": "128"}]}}}}}, {"name": "StatefulPartitionedCall/audio_feature_model_1/StatefulPartitionedCall/StatefulPartitionedCall/model/conv3-BN/FusedBatchNormV3/Offset", "op": "Const", "input": ["^audio_input"], "attr": {"dtype": {"type": "DT_FLOAT"}, "value": {"tensor": {"dtype": "DT_FLOAT", "tensorShape": {"dim": [{"size": "128"}]}}}}}, {"name": "StatefulPartitionedCall/audio_feature_model_1/StatefulPartitionedCall/StatefulPartitionedCall/eye/diag", "op": "MatrixDiagV3", "input": ["StatefulPartitionedCall/audio_feature_model_1/StatefulPartitionedCall/StatefulPartitionedCall/eye/ones", "StatefulPartitionedCall/audio_feature_model_1/StatefulPartitionedCall/StatefulPartitionedCall/eye/diag/k", "StatefulPartitionedCall/audio_feature_model_1/StatefulPartitionedCall/StatefulPartitionedCall/eye/diag/num_rows", "StatefulPartitionedCall/audio_feature_model_1/StatefulPartitionedCall/StatefulPartitionedCall/eye/diag/num_cols", "StatefulPartitionedCall/audio_feature_model_1/StatefulPartitionedCall/StatefulPartitionedCall/eye/diag/padding_value"], "attr": {"align": {"s": "UklHSFRfTEVGVA=="}, "T": {"type": "DT_FLOAT"}}}, {"name": "StatefulPartitionedCall/audio_feature_model_1/StatefulPartitionedCall/StatefulPartitionedCall/meshgrid/mul", "op": "BroadcastTo", "input": ["StatefulPartitionedCall/audio_feature_model_1/StatefulPartitionedCall/StatefulPartitionedCall/meshgrid/Reshape_2", "ConstantFolding/StatefulPartitionedCall/audio_feature_model_1/StatefulPartitionedCall/StatefulPartitionedCall/meshgrid/mul-broadcastto_shape-0"], "attr": {"Tidx": {"type": "DT_INT32"}, "T": {"type": "DT_FLOAT"}}}, {"name": "StatefulPartitionedCall/audio_feature_model_1/StatefulPartitionedCall/StatefulPartitionedCall/meshgrid/mul_1", "op": "BroadcastTo", "input": ["StatefulPartitionedCall/audio_feature_model_1/StatefulPartitionedCall/StatefulPartitionedCall/meshgrid/Reshape_3", "ConstantFolding/StatefulPartitionedCall/audio_feature_model_1/StatefulPartitionedCall/StatefulPartitionedCall/meshgrid/mul_1-broadcastto_shape-0"], "attr": {"T": {"type": "DT_FLOAT"}, "Tidx": {"type": "DT_INT32"}}}, {"name": "StatefulPartitionedCall/audio_feature_model_1/StatefulPartitionedCall/StatefulPartitionedCall/frame/ones_like", "op": "Fill", "input": ["StatefulPartitionedCall/audio_feature_model_1/StatefulPartitionedCall/StatefulPartitionedCall/frame/ones_like/Shape/shape_as_tensor", "StatefulPartitionedCall/audio_feature_model_1/StatefulPartitionedCall/StatefulPartitionedCall/frame/ones_like/Const"], "attr": {"T": {"type": "DT_INT32"}, "index_type": {"type": "DT_INT32"}}}, {"name": "StatefulPartitionedCall/audio_feature_model_1/StatefulPartitionedCall/StatefulPartitionedCall/Pad_1", "op": "Pad", "input": ["audio_input", "StatefulPartitionedCall/audio_feature_model_1/StatefulPartitionedCall/StatefulPartitionedCall/Pad_1/paddings"], "attr": {"Tpaddings": {"type": "DT_INT32"}, "T": {"type": "DT_FLOAT"}}}, {"name": "StatefulPartitionedCall/audio_feature_model_1/StatefulPartitionedCall/StatefulPartitionedCall/stft/frame/ones_like", "op": "Fill", "input": ["StatefulPartitionedCall/audio_feature_model_1/StatefulPartitionedCall/StatefulPartitionedCall/stft/frame/ones_like/Shape/shape_as_tensor", "StatefulPartitionedCall/audio_feature_model_1/StatefulPartitionedCall/StatefulPartitionedCall/stft/frame/ones_like/Const"], "attr": {"T": {"type": "DT_INT32"}, "index_type": {"type": "DT_INT32"}}}, {"name": "StatefulPartitionedCall/audio_feature_model_1/StatefulPartitionedCall/StatefulPartitionedCall/Pad", "op": "Pad", "input": ["audio_input", "StatefulPartitionedCall/audio_feature_model_1/StatefulPartitionedCall/StatefulPartitionedCall/Pad/paddings"], "attr": {"Tpaddings": {"type": "DT_INT32"}, "T": {"type": "DT_FLOAT"}}}, {"name": "StatefulPartitionedCall/audio_feature_model_1/StatefulPartitionedCall/StatefulPartitionedCall/mul_2", "op": "Mul", "input": ["StatefulPartitionedCall/audio_feature_model_1/StatefulPartitionedCall/StatefulPartitionedCall/eye/diag", "StatefulPartitionedCall/audio_feature_model_1/StatefulPartitionedCall/StatefulPartitionedCall/mul_2/y"], "attr": {"T": {"type": "DT_FLOAT"}}}, {"name": "StatefulPartitionedCall/audio_feature_model_1/StatefulPartitionedCall/StatefulPartitionedCall/sub_2", "op": "Sub", "input": ["StatefulPartitionedCall/audio_feature_model_1/StatefulPartitionedCall/StatefulPartitionedCall/meshgrid/mul", "StatefulPartitionedCall/audio_feature_model_1/StatefulPartitionedCall/StatefulPartitionedCall/meshgrid/mul_1"], "attr": {"T": {"type": "DT_FLOAT"}}}, {"name": "StatefulPartitionedCall/audio_feature_model_1/StatefulPartitionedCall/StatefulPartitionedCall/frame/Shape", "op": "Shape", "input": ["StatefulPartitionedCall/audio_feature_model_1/StatefulPartitionedCall/StatefulPartitionedCall/Pad_1"], "attr": {"T": {"type": "DT_FLOAT"}, "out_type": {"type": "DT_INT32"}}}, {"name": "StatefulPartitionedCall/audio_feature_model_1/StatefulPartitionedCall/StatefulPartitionedCall/stft/frame/Shape", "op": "Shape", "input": ["StatefulPartitionedCall/audio_feature_model_1/StatefulPartitionedCall/StatefulPartitionedCall/Pad"], "attr": {"out_type": {"type": "DT_INT32"}, "T": {"type": "DT_FLOAT"}}}, {"name": "StatefulPartitionedCall/audio_feature_model_1/StatefulPartitionedCall/StatefulPartitionedCall/add_2", "op": "AddV2", "input": ["StatefulPartitionedCall/audio_feature_model_1/StatefulPartitionedCall/StatefulPartitionedCall/mul_2", "StatefulPartitionedCall/audio_feature_model_1/StatefulPartitionedCall/StatefulPartitionedCall/mul_3"], "attr": {"T": {"type": "DT_FLOAT"}}}, {"name": "StatefulPartitionedCall/audio_feature_model_1/StatefulPartitionedCall/StatefulPartitionedCall/Abs_2", "op": "Abs", "input": ["StatefulPartitionedCall/audio_feature_model_1/StatefulPartitionedCall/StatefulPartitionedCall/sub_2"], "attr": {"T": {"type": "DT_FLOAT"}}}, {"name": "StatefulPartitionedCall/audio_feature_model_1/StatefulPartitionedCall/StatefulPartitionedCall/frame/split", "op": "SplitV", "input": ["StatefulPartitionedCall/audio_feature_model_1/StatefulPartitionedCall/StatefulPartitionedCall/frame/Shape", "StatefulPartitionedCall/audio_feature_model_1/StatefulPartitionedCall/StatefulPartitionedCall/frame/packed", "StatefulPartitionedCall/audio_feature_model_1/StatefulPartitionedCall/StatefulPartitionedCall/frame/split/split_dim"], "attr": {"Tlen": {"type": "DT_INT32"}, "num_split": {"i": "3"}, "T": {"type": "DT_INT32"}}}, {"name": "StatefulPartitionedCall/audio_feature_model_1/StatefulPartitionedCall/StatefulPartitionedCall/stft/frame/split", "op": "SplitV", "input": ["StatefulPartitionedCall/audio_feature_model_1/StatefulPartitionedCall/StatefulPartitionedCall/stft/frame/Shape", "StatefulPartitionedCall/audio_feature_model_1/StatefulPartitionedCall/StatefulPartitionedCall/stft/frame/packed", "StatefulPartitionedCall/audio_feature_model_1/StatefulPartitionedCall/StatefulPartitionedCall/stft/frame/split/split_dim"], "attr": {"num_split": {"i": "3"}, "T": {"type": "DT_INT32"}, "Tlen": {"type": "DT_INT32"}}}, {"name": "StatefulPartitionedCall/audio_feature_model_1/StatefulPartitionedCall/StatefulPartitionedCall/strided_slice_3", "op": "StridedSlice", "input": ["StatefulPartitionedCall/audio_feature_model_1/StatefulPartitionedCall/StatefulPartitionedCall/add_2", "StatefulPartitionedCall/audio_feature_model_1/StatefulPartitionedCall/StatefulPartitionedCall/strided_slice_3/stack", "StatefulPartitionedCall/audio_feature_model_1/StatefulPartitionedCall/StatefulPartitionedCall/strided_slice_3/stack_1", "StatefulPartitionedCall/audio_feature_model_1/StatefulPartitionedCall/StatefulPartitionedCall/strided_slice_3/stack_2"], "attr": {"Index": {"type": "DT_INT32"}, "T": {"type": "DT_FLOAT"}, "ellipsis_mask": {"i": "2"}, "shrink_axis_mask": {"i": "0"}, "end_mask": {"i": "0"}, "new_axis_mask": {"i": "1"}, "begin_mask": {"i": "0"}}}, {"name": "StatefulPartitionedCall/audio_feature_model_1/StatefulPartitionedCall/StatefulPartitionedCall/sub_3", "op": "Sub", "input": ["StatefulPartitionedCall/audio_feature_model_1/StatefulPartitionedCall/StatefulPartitionedCall/sub_3/x", "StatefulPartitionedCall/audio_feature_model_1/StatefulPartitionedCall/StatefulPartitionedCall/Abs_2"], "attr": {"T": {"type": "DT_FLOAT"}}}, {"name": "StatefulPartitionedCall/audio_feature_model_1/StatefulPartitionedCall/StatefulPartitionedCall/frame/Reshape", "op": "Reshape", "input": ["StatefulPartitionedCall/audio_feature_model_1/StatefulPartitionedCall/StatefulPartitionedCall/frame/split:1", "StatefulPartitionedCall/audio_feature_model_1/StatefulPartitionedCall/StatefulPartitionedCall/frame/Reshape/shape_1"], "attr": {"Tshape": {"type": "DT_INT32"}, "T": {"type": "DT_INT32"}}}, {"name": "StatefulPartitionedCall/audio_feature_model_1/StatefulPartitionedCall/StatefulPartitionedCall/stft/frame/Reshape", "op": "Reshape", "input": ["StatefulPartitionedCall/audio_feature_model_1/StatefulPartitionedCall/StatefulPartitionedCall/stft/frame/split:1", "StatefulPartitionedCall/audio_feature_model_1/StatefulPartitionedCall/StatefulPartitionedCall/stft/frame/Reshape/shape_1"], "attr": {"Tshape": {"type": "DT_INT32"}, "T": {"type": "DT_INT32"}}}, {"name": "StatefulPartitionedCall/audio_feature_model_1/StatefulPartitionedCall/StatefulPartitionedCall/Maximum_2", "op": "Maximum", "input": ["StatefulPartitionedCall/audio_feature_model_1/StatefulPartitionedCall/StatefulPartitionedCall/sub_3", "StatefulPartitionedCall/audio_feature_model_1/StatefulPartitionedCall/StatefulPartitionedCall/Maximum_2/y"], "attr": {"T": {"type": "DT_FLOAT"}}}, {"name": "StatefulPartitionedCall/audio_feature_model_1/StatefulPartitionedCall/StatefulPartitionedCall/frame/floordiv_3", "op": "FloorDiv", "input": ["StatefulPartitionedCall/audio_feature_model_1/StatefulPartitionedCall/StatefulPartitionedCall/frame/Reshape", "StatefulPartitionedCall/audio_feature_model_1/StatefulPartitionedCall/StatefulPartitionedCall/frame/floordiv_3/y"], "attr": {"T": {"type": "DT_INT32"}}}, {"name": "StatefulPartitionedCall/audio_feature_model_1/StatefulPartitionedCall/StatefulPartitionedCall/frame/sub_2", "op": "Sub", "input": ["StatefulPartitionedCall/audio_feature_model_1/StatefulPartitionedCall/StatefulPartitionedCall/frame/Reshape", "StatefulPartitionedCall/audio_feature_model_1/StatefulPartitionedCall/StatefulPartitionedCall/frame/frame_length"], "attr": {"T": {"type": "DT_INT32"}}}, {"name": "StatefulPartitionedCall/audio_feature_model_1/StatefulPartitionedCall/StatefulPartitionedCall/stft/frame/floordiv_3", "op": "FloorDiv", "input": ["StatefulPartitionedCall/audio_feature_model_1/StatefulPartitionedCall/StatefulPartitionedCall/stft/frame/Reshape", "StatefulPartitionedCall/audio_feature_model_1/StatefulPartitionedCall/StatefulPartitionedCall/stft/frame/floordiv_3/y"], "attr": {"T": {"type": "DT_INT32"}}}, {"name": "StatefulPartitionedCall/audio_feature_model_1/StatefulPartitionedCall/StatefulPartitionedCall/stft/frame/sub_2", "op": "Sub", "input": ["StatefulPartitionedCall/audio_feature_model_1/StatefulPartitionedCall/StatefulPartitionedCall/stft/frame/Reshape", "StatefulPartitionedCall/audio_feature_model_1/StatefulPartitionedCall/StatefulPartitionedCall/stft/frame_length"], "attr": {"T": {"type": "DT_INT32"}}}, {"name": "StatefulPartitionedCall/audio_feature_model_1/StatefulPartitionedCall/StatefulPartitionedCall/Sum", "op": "Sum", "input": ["StatefulPartitionedCall/audio_feature_model_1/StatefulPartitionedCall/StatefulPartitionedCall/Maximum_2", "StatefulPartitionedCall/audio_feature_model_1/StatefulPartitionedCall/StatefulPartitionedCall/Sum/reduction_indices"], "attr": {"keep_dims": {"b": false}, "Tidx": {"type": "DT_INT32"}, "T": {"type": "DT_FLOAT"}}}, {"name": "StatefulPartitionedCall/audio_feature_model_1/StatefulPartitionedCall/StatefulPartitionedCall/frame/mul", "op": "Mul", "input": ["StatefulPartitionedCall/audio_feature_model_1/StatefulPartitionedCall/StatefulPartitionedCall/frame/floordiv_3", "StatefulPartitionedCall/audio_feature_model_1/StatefulPartitionedCall/StatefulPartitionedCall/frame/mul/y"], "attr": {"T": {"type": "DT_INT32"}}}, {"name": "StatefulPartitionedCall/audio_feature_model_1/StatefulPartitionedCall/StatefulPartitionedCall/frame/concat_1/values_1", "op": "Pack", "input": ["StatefulPartitionedCall/audio_feature_model_1/StatefulPartitionedCall/StatefulPartitionedCall/frame/floordiv_3", "StatefulPartitionedCall/audio_feature_model_1/StatefulPartitionedCall/StatefulPartitionedCall/frame/concat_1/values_1/1"], "attr": {"axis": {"i": "0"}, "N": {"i": "2"}, "T": {"type": "DT_INT32"}}}, {"name": "StatefulPartitionedCall/audio_feature_model_1/StatefulPartitionedCall/StatefulPartitionedCall/frame/floordiv", "op": "FloorDiv", "input": ["StatefulPartitionedCall/audio_feature_model_1/StatefulPartitionedCall/StatefulPartitionedCall/frame/sub_2", "StatefulPartitionedCall/audio_feature_model_1/StatefulPartitionedCall/StatefulPartitionedCall/frame/frame_step"], "attr": {"T": {"type": "DT_INT32"}}}, {"name": "StatefulPartitionedCall/audio_feature_model_1/StatefulPartitionedCall/StatefulPartitionedCall/stft/frame/mul", "op": "Mul", "input": ["StatefulPartitionedCall/audio_feature_model_1/StatefulPartitionedCall/StatefulPartitionedCall/stft/frame/floordiv_3", "StatefulPartitionedCall/audio_feature_model_1/StatefulPartitionedCall/StatefulPartitionedCall/stft/frame/mul/y"], "attr": {"T": {"type": "DT_INT32"}}}, {"name": "StatefulPartitionedCall/audio_feature_model_1/StatefulPartitionedCall/StatefulPartitionedCall/stft/frame/concat_1/values_1", "op": "Pack", "input": ["StatefulPartitionedCall/audio_feature_model_1/StatefulPartitionedCall/StatefulPartitionedCall/stft/frame/floordiv_3", "StatefulPartitionedCall/audio_feature_model_1/StatefulPartitionedCall/StatefulPartitionedCall/stft/frame/concat_1/values_1/1"], "attr": {"axis": {"i": "0"}, "N": {"i": "2"}, "T": {"type": "DT_INT32"}}}, {"name": "StatefulPartitionedCall/audio_feature_model_1/StatefulPartitionedCall/StatefulPartitionedCall/stft/frame/floordiv", "op": "FloorDiv", "input": ["StatefulPartitionedCall/audio_feature_model_1/StatefulPartitionedCall/StatefulPartitionedCall/stft/frame/sub_2", "StatefulPartitionedCall/audio_feature_model_1/StatefulPartitionedCall/StatefulPartitionedCall/stft/frame_step"], "attr": {"T": {"type": "DT_INT32"}}}, {"name": "StatefulPartitionedCall/audio_feature_model_1/StatefulPartitionedCall/StatefulPartitionedCall/strided_slice_2", "op": "StridedSlice", "input": ["StatefulPartitionedCall/audio_feature_model_1/StatefulPartitionedCall/StatefulPartitionedCall/Sum", "StatefulPartitionedCall/audio_feature_model_1/StatefulPartitionedCall/StatefulPartitionedCall/strided_slice_2/stack", "StatefulPartitionedCall/audio_feature_model_1/StatefulPartitionedCall/StatefulPartitionedCall/strided_slice_2/stack_1", "StatefulPartitionedCall/audio_feature_model_1/StatefulPartitionedCall/StatefulPartitionedCall/strided_slice_2/stack_2"], "attr": {"Index": {"type": "DT_INT32"}, "T": {"type": "DT_FLOAT"}, "end_mask": {"i": "1"}, "begin_mask": {"i": "1"}, "new_axis_mask": {"i": "2"}, "ellipsis_mask": {"i": "0"}, "shrink_axis_mask": {"i": "0"}}}, {"name": "ConstantFolding/StatefulPartitionedCall/audio_feature_model_1/StatefulPartitionedCall/StatefulPartitionedCall/frame/concat/values_1_const_axis", "op": "Const", "input": ["^StatefulPartitionedCall/audio_feature_model_1/StatefulPartitionedCall/StatefulPartitionedCall/frame/mul"], "attr": {"value": {"tensor": {"dtype": "DT_INT32", "tensorShape": {}}}, "dtype": {"type": "DT_INT32"}}}, {"name": "StatefulPartitionedCall/audio_feature_model_1/StatefulPartitionedCall/StatefulPartitionedCall/frame/concat_1", "op": "ConcatV2", "input": ["StatefulPartitionedCall/audio_feature_model_1/StatefulPartitionedCall/StatefulPartitionedCall/frame/split", "StatefulPartitionedCall/audio_feature_model_1/StatefulPartitionedCall/StatefulPartitionedCall/frame/concat_1/values_1", "StatefulPartitionedCall/audio_feature_model_1/StatefulPartitionedCall/StatefulPartitionedCall/frame/split:2", "StatefulPartitionedCall/audio_feature_model_1/StatefulPartitionedCall/StatefulPartitionedCall/frame/concat_1/axis"], "attr": {"Tidx": {"type": "DT_INT32"}, "N": {"i": "3"}, "T": {"type": "DT_INT32"}}}, {"name": "StatefulPartitionedCall/audio_feature_model_1/StatefulPartitionedCall/StatefulPartitionedCall/frame/add", "op": "AddV2", "input": ["StatefulPartitionedCall/audio_feature_model_1/StatefulPartitionedCall/StatefulPartitionedCall/frame/add/x", "StatefulPartitionedCall/audio_feature_model_1/StatefulPartitionedCall/StatefulPartitionedCall/frame/floordiv"], "attr": {"T": {"type": "DT_INT32"}}}, {"name": "ConstantFolding/StatefulPartitionedCall/audio_feature_model_1/StatefulPartitionedCall/StatefulPartitionedCall/stft/frame/concat/values_1_const_axis", "op": "Const", "input": ["^StatefulPartitionedCall/audio_feature_model_1/StatefulPartitionedCall/StatefulPartitionedCall/stft/frame/mul"], "attr": {"dtype": {"type": "DT_INT32"}, "value": {"tensor": {"dtype": "DT_INT32", "tensorShape": {}}}}}, {"name": "StatefulPartitionedCall/audio_feature_model_1/StatefulPartitionedCall/StatefulPartitionedCall/stft/frame/concat_1", "op": "ConcatV2", "input": ["StatefulPartitionedCall/audio_feature_model_1/StatefulPartitionedCall/StatefulPartitionedCall/stft/frame/split", "StatefulPartitionedCall/audio_feature_model_1/StatefulPartitionedCall/StatefulPartitionedCall/stft/frame/concat_1/values_1", "StatefulPartitionedCall/audio_feature_model_1/StatefulPartitionedCall/StatefulPartitionedCall/stft/frame/split:2", "StatefulPartitionedCall/audio_feature_model_1/StatefulPartitionedCall/StatefulPartitionedCall/stft/frame/concat_1/axis"], "attr": {"T": {"type": "DT_INT32"}, "Tidx": {"type": "DT_INT32"}, "N": {"i": "3"}}}, {"name": "StatefulPartitionedCall/audio_feature_model_1/StatefulPartitionedCall/StatefulPartitionedCall/stft/frame/add", "op": "AddV2", "input": ["StatefulPartitionedCall/audio_feature_model_1/StatefulPartitionedCall/StatefulPartitionedCall/stft/frame/add/x", "StatefulPartitionedCall/audio_feature_model_1/StatefulPartitionedCall/StatefulPartitionedCall/stft/frame/floordiv"], "attr": {"T": {"type": "DT_INT32"}}}, {"name": "StatefulPartitionedCall/audio_feature_model_1/StatefulPartitionedCall/StatefulPartitionedCall/truediv_3", "op": "RealDiv", "input": ["StatefulPartitionedCall/audio_feature_model_1/StatefulPartitionedCall/StatefulPartitionedCall/Maximum_2", "StatefulPartitionedCall/audio_feature_model_1/StatefulPartitionedCall/StatefulPartitionedCall/strided_slice_2"], "attr": {"T": {"type": "DT_FLOAT"}}}, {"name": "StatefulPartitionedCall/audio_feature_model_1/StatefulPartitionedCall/StatefulPartitionedCall/frame/concat/values_1", "op": "ExpandDims", "input": ["StatefulPartitionedCall/audio_feature_model_1/StatefulPartitionedCall/StatefulPartitionedCall/frame/mul", "ConstantFolding/StatefulPartitionedCall/audio_feature_model_1/StatefulPartitionedCall/StatefulPartitionedCall/frame/concat/values_1_const_axis"], "attr": {"T": {"type": "DT_INT32"}, "Tdim": {"type": "DT_INT32"}}}, {"name": "StatefulPartitionedCall/audio_feature_model_1/StatefulPartitionedCall/StatefulPartitionedCall/frame/Maximum", "op": "Maximum", "input": ["StatefulPartitionedCall/audio_feature_model_1/StatefulPartitionedCall/StatefulPartitionedCall/frame/Const", "StatefulPartitionedCall/audio_feature_model_1/StatefulPartitionedCall/StatefulPartitionedCall/frame/add"], "attr": {"T": {"type": "DT_INT32"}}}, {"name": "StatefulPartitionedCall/audio_feature_model_1/StatefulPartitionedCall/StatefulPartitionedCall/stft/frame/concat/values_1", "op": "ExpandDims", "input": ["StatefulPartitionedCall/audio_feature_model_1/StatefulPartitionedCall/StatefulPartitionedCall/stft/frame/mul", "ConstantFolding/StatefulPartitionedCall/audio_feature_model_1/StatefulPartitionedCall/StatefulPartitionedCall/stft/frame/concat/values_1_const_axis"], "attr": {"Tdim": {"type": "DT_INT32"}, "T": {"type": "DT_INT32"}}}, {"name": "StatefulPartitionedCall/audio_feature_model_1/StatefulPartitionedCall/StatefulPartitionedCall/stft/frame/Maximum", "op": "Maximum", "input": ["StatefulPartitionedCall/audio_feature_model_1/StatefulPartitionedCall/StatefulPartitionedCall/stft/frame/Const", "StatefulPartitionedCall/audio_feature_model_1/StatefulPartitionedCall/StatefulPartitionedCall/stft/frame/add"], "attr": {"T": {"type": "DT_INT32"}}}, {"name": "StatefulPartitionedCall/audio_feature_model_1/StatefulPartitionedCall/StatefulPartitionedCall/frame/concat", "op": "ConcatV2", "input": ["StatefulPartitionedCall/audio_feature_model_1/StatefulPartitionedCall/StatefulPartitionedCall/frame/split", "StatefulPartitionedCall/audio_feature_model_1/StatefulPartitionedCall/StatefulPartitionedCall/frame/concat/values_1", "StatefulPartitionedCall/audio_feature_model_1/StatefulPartitionedCall/StatefulPartitionedCall/frame/split:2", "StatefulPartitionedCall/audio_feature_model_1/StatefulPartitionedCall/StatefulPartitionedCall/frame/concat/axis"], "attr": {"Tidx": {"type": "DT_INT32"}, "N": {"i": "3"}, "T": {"type": "DT_INT32"}}}, {"name": "StatefulPartitionedCall/audio_feature_model_1/StatefulPartitionedCall/StatefulPartitionedCall/frame/range_1", "op": "Range", "input": ["StatefulPartitionedCall/audio_feature_model_1/StatefulPartitionedCall/StatefulPartitionedCall/frame/range_1/start", "StatefulPartitionedCall/audio_feature_model_1/StatefulPartitionedCall/StatefulPartitionedCall/frame/Maximum", "StatefulPartitionedCall/audio_feature_model_1/StatefulPartitionedCall/StatefulPartitionedCall/frame/range_1/delta"], "attr": {"Tidx": {"type": "DT_INT32"}}}, {"name": "StatefulPartitionedCall/audio_feature_model_1/StatefulPartitionedCall/StatefulPartitionedCall/frame/Reshape_2/shape", "op": "Pack", "input": ["StatefulPartitionedCall/audio_feature_model_1/StatefulPartitionedCall/StatefulPartitionedCall/frame/Maximum", "StatefulPartitionedCall/audio_feature_model_1/StatefulPartitionedCall/StatefulPartitionedCall/frame/Reshape_2/shape/1"], "attr": {"axis": {"i": "0"}, "T": {"type": "DT_INT32"}, "N": {"i": "2"}}}, {"name": "StatefulPartitionedCall/audio_feature_model_1/StatefulPartitionedCall/StatefulPartitionedCall/stft/frame/concat", "op": "ConcatV2", "input": ["StatefulPartitionedCall/audio_feature_model_1/StatefulPartitionedCall/StatefulPartitionedCall/stft/frame/split", "StatefulPartitionedCall/audio_feature_model_1/StatefulPartitionedCall/StatefulPartitionedCall/stft/frame/concat/values_1", "StatefulPartitionedCall/audio_feature_model_1/StatefulPartitionedCall/StatefulPartitionedCall/stft/frame/split:2", "StatefulPartitionedCall/audio_feature_model_1/StatefulPartitionedCall/StatefulPartitionedCall/stft/frame/concat/axis"], "attr": {"Tidx": {"type": "DT_INT32"}, "N": {"i": "3"}, "T": {"type": "DT_INT32"}}}, {"name": "StatefulPartitionedCall/audio_feature_model_1/StatefulPartitionedCall/StatefulPartitionedCall/stft/frame/range_1", "op": "Range", "input": ["StatefulPartitionedCall/audio_feature_model_1/StatefulPartitionedCall/StatefulPartitionedCall/stft/frame/range_1/start", "StatefulPartitionedCall/audio_feature_model_1/StatefulPartitionedCall/StatefulPartitionedCall/stft/frame/Maximum", "StatefulPartitionedCall/audio_feature_model_1/StatefulPartitionedCall/StatefulPartitionedCall/stft/frame/range_1/delta"], "attr": {"Tidx": {"type": "DT_INT32"}}}, {"name": "StatefulPartitionedCall/audio_feature_model_1/StatefulPartitionedCall/StatefulPartitionedCall/stft/frame/Reshape_2/shape", "op": "Pack", "input": ["StatefulPartitionedCall/audio_feature_model_1/StatefulPartitionedCall/StatefulPartitionedCall/stft/frame/Maximum", "StatefulPartitionedCall/audio_feature_model_1/StatefulPartitionedCall/StatefulPartitionedCall/stft/frame/Reshape_2/shape/1"], "attr": {"axis": {"i": "0"}, "T": {"type": "DT_INT32"}, "N": {"i": "2"}}}, {"name": "StatefulPartitionedCall/audio_feature_model_1/StatefulPartitionedCall/StatefulPartitionedCall/stft/frame/packed_1", "op": "Pack", "input": ["StatefulPartitionedCall/audio_feature_model_1/StatefulPartitionedCall/StatefulPartitionedCall/stft/frame/Maximum", "StatefulPartitionedCall/audio_feature_model_1/StatefulPartitionedCall/StatefulPartitionedCall/stft/frame_length"], "attr": {"T": {"type": "DT_INT32"}, "N": {"i": "2"}, "axis": {"i": "0"}}}, {"name": "StatefulPartitionedCall/audio_feature_model_1/StatefulPartitionedCall/StatefulPartitionedCall/frame/StridedSlice", "op": "StridedSlice", "input": ["StatefulPartitionedCall/audio_feature_model_1/StatefulPartitionedCall/StatefulPartitionedCall/Pad_1", "StatefulPartitionedCall/audio_feature_model_1/StatefulPartitionedCall/StatefulPartitionedCall/frame/zeros_like", "StatefulPartitionedCall/audio_feature_model_1/StatefulPartitionedCall/StatefulPartitionedCall/frame/concat", "StatefulPartitionedCall/audio_feature_model_1/StatefulPartitionedCall/StatefulPartitionedCall/frame/ones_like"], "attr": {"end_mask": {"i": "0"}, "T": {"type": "DT_FLOAT"}, "ellipsis_mask": {"i": "0"}, "Index": {"type": "DT_INT32"}, "shrink_axis_mask": {"i": "0"}, "new_axis_mask": {"i": "0"}, "begin_mask": {"i": "0"}}}, {"name": "StatefulPartitionedCall/audio_feature_model_1/StatefulPartitionedCall/StatefulPartitionedCall/frame/mul_1", "op": "Mul", "input": ["StatefulPartitionedCall/audio_feature_model_1/StatefulPartitionedCall/StatefulPartitionedCall/frame/range_1", "StatefulPartitionedCall/audio_feature_model_1/StatefulPartitionedCall/StatefulPartitionedCall/frame/floordiv_2"], "attr": {"T": {"type": "DT_INT32"}}}, {"name": "StatefulPartitionedCall/audio_feature_model_1/StatefulPartitionedCall/StatefulPartitionedCall/stft/frame/StridedSlice", "op": "StridedSlice", "input": ["StatefulPartitionedCall/audio_feature_model_1/StatefulPartitionedCall/StatefulPartitionedCall/Pad", "StatefulPartitionedCall/audio_feature_model_1/StatefulPartitionedCall/StatefulPartitionedCall/stft/frame/zeros_like", "StatefulPartitionedCall/audio_feature_model_1/StatefulPartitionedCall/StatefulPartitionedCall/stft/frame/concat", "StatefulPartitionedCall/audio_feature_model_1/StatefulPartitionedCall/StatefulPartitionedCall/stft/frame/ones_like"], "attr": {"new_axis_mask": {"i": "0"}, "begin_mask": {"i": "0"}, "ellipsis_mask": {"i": "0"}, "T": {"type": "DT_FLOAT"}, "shrink_axis_mask": {"i": "0"}, "end_mask": {"i": "0"}, "Index": {"type": "DT_INT32"}}}, {"name": "StatefulPartitionedCall/audio_feature_model_1/StatefulPartitionedCall/StatefulPartitionedCall/stft/frame/Reshape_2", "op": "Reshape", "input": ["StatefulPartitionedCall/audio_feature_model_1/StatefulPartitionedCall/StatefulPartitionedCall/stft/frame/range_1", "StatefulPartitionedCall/audio_feature_model_1/StatefulPartitionedCall/StatefulPartitionedCall/stft/frame/Reshape_2/shape"], "attr": {"Tshape": {"type": "DT_INT32"}, "T": {"type": "DT_INT32"}}}, {"name": "StatefulPartitionedCall/audio_feature_model_1/StatefulPartitionedCall/StatefulPartitionedCall/stft/frame/concat_2", "op": "ConcatV2", "input": ["StatefulPartitionedCall/audio_feature_model_1/StatefulPartitionedCall/StatefulPartitionedCall/stft/frame/split", "StatefulPartitionedCall/audio_feature_model_1/StatefulPartitionedCall/StatefulPartitionedCall/stft/frame/packed_1", "StatefulPartitionedCall/audio_feature_model_1/StatefulPartitionedCall/StatefulPartitionedCall/stft/frame/split:2", "StatefulPartitionedCall/audio_feature_model_1/StatefulPartitionedCall/StatefulPartitionedCall/stft/frame/concat_2/axis"], "attr": {"N": {"i": "3"}, "Tidx": {"type": "DT_INT32"}, "T": {"type": "DT_INT32"}}}, {"name": "StatefulPartitionedCall/audio_feature_model_1/StatefulPartitionedCall/StatefulPartitionedCall/frame/Reshape_1", "op": "Reshape", "input": ["StatefulPartitionedCall/audio_feature_model_1/StatefulPartitionedCall/StatefulPartitionedCall/frame/StridedSlice", "StatefulPartitionedCall/audio_feature_model_1/StatefulPartitionedCall/StatefulPartitionedCall/frame/concat_1"], "attr": {"T": {"type": "DT_FLOAT"}, "Tshape": {"type": "DT_INT32"}}}, {"name": "StatefulPartitionedCall/audio_feature_model_1/StatefulPartitionedCall/StatefulPartitionedCall/frame/Reshape_2", "op": "Reshape", "input": ["StatefulPartitionedCall/audio_feature_model_1/StatefulPartitionedCall/StatefulPartitionedCall/frame/mul_1", "StatefulPartitionedCall/audio_feature_model_1/StatefulPartitionedCall/StatefulPartitionedCall/frame/Reshape_2/shape"], "attr": {"T": {"type": "DT_INT32"}, "Tshape": {"type": "DT_INT32"}}}, {"name": "StatefulPartitionedCall/audio_feature_model_1/StatefulPartitionedCall/StatefulPartitionedCall/stft/frame/Reshape_1", "op": "Reshape", "input": ["StatefulPartitionedCall/audio_feature_model_1/StatefulPartitionedCall/StatefulPartitionedCall/stft/frame/StridedSlice", "StatefulPartitionedCall/audio_feature_model_1/StatefulPartitionedCall/StatefulPartitionedCall/stft/frame/concat_1"], "attr": {"Tshape": {"type": "DT_INT32"}, "T": {"type": "DT_FLOAT"}}}, {"name": "StatefulPartitionedCall/audio_feature_model_1/StatefulPartitionedCall/StatefulPartitionedCall/stft/frame/add_1", "op": "AddV2", "input": ["StatefulPartitionedCall/audio_feature_model_1/StatefulPartitionedCall/StatefulPartitionedCall/stft/frame/Reshape_2", "StatefulPartitionedCall/audio_feature_model_1/StatefulPartitionedCall/StatefulPartitionedCall/stft/frame/Reshape_3"], "attr": {"T": {"type": "DT_INT32"}}}, {"name": "StatefulPartitionedCall/audio_feature_model_1/StatefulPartitionedCall/StatefulPartitionedCall/frame/add_1", "op": "AddV2", "input": ["StatefulPartitionedCall/audio_feature_model_1/StatefulPartitionedCall/StatefulPartitionedCall/frame/Reshape_2", "StatefulPartitionedCall/audio_feature_model_1/StatefulPartitionedCall/StatefulPartitionedCall/frame/Reshape_3"], "attr": {"T": {"type": "DT_INT32"}}}, {"name": "StatefulPartitionedCall/audio_feature_model_1/StatefulPartitionedCall/StatefulPartitionedCall/stft/frame/GatherV2", "op": "GatherV2", "input": ["StatefulPartitionedCall/audio_feature_model_1/StatefulPartitionedCall/StatefulPartitionedCall/stft/frame/Reshape_1", "StatefulPartitionedCall/audio_feature_model_1/StatefulPartitionedCall/StatefulPartitionedCall/stft/frame/add_1", "StatefulPartitionedCall/audio_feature_model_1/StatefulPartitionedCall/StatefulPartitionedCall/stft/frame/strided_slice"], "attr": {"Tindices": {"type": "DT_INT32"}, "batch_dims": {"i": "0"}, "Tparams": {"type": "DT_FLOAT"}, "Taxis": {"type": "DT_INT32"}}}, {"name": "StatefulPartitionedCall/audio_feature_model_1/StatefulPartitionedCall/StatefulPartitionedCall/frame/GatherV2", "op": "GatherV2", "input": ["StatefulPartitionedCall/audio_feature_model_1/StatefulPartitionedCall/StatefulPartitionedCall/frame/Reshape_1", "StatefulPartitionedCall/audio_feature_model_1/StatefulPartitionedCall/StatefulPartitionedCall/frame/add_1", "StatefulPartitionedCall/audio_feature_model_1/StatefulPartitionedCall/StatefulPartitionedCall/frame/strided_slice"], "attr": {"batch_dims": {"i": "0"}, "Tindices": {"type": "DT_INT32"}, "Taxis": {"type": "DT_INT32"}, "Tparams": {"type": "DT_FLOAT"}}}, {"name": "StatefulPartitionedCall/audio_feature_model_1/StatefulPartitionedCall/StatefulPartitionedCall/stft/frame/Reshape_4", "op": "Reshape", "input": ["StatefulPartitionedCall/audio_feature_model_1/StatefulPartitionedCall/StatefulPartitionedCall/stft/frame/GatherV2", "StatefulPartitionedCall/audio_feature_model_1/StatefulPartitionedCall/StatefulPartitionedCall/stft/frame/concat_2"], "attr": {"T": {"type": "DT_FLOAT"}, "Tshape": {"type": "DT_INT32"}}}, {"name": "StatefulPartitionedCall/audio_feature_model_1/StatefulPartitionedCall/StatefulPartitionedCall/Reshape", "op": "Reshape", "input": ["StatefulPartitionedCall/audio_feature_model_1/StatefulPartitionedCall/StatefulPartitionedCall/frame/GatherV2", "StatefulPartitionedCall/audio_feature_model_1/StatefulPartitionedCall/StatefulPartitionedCall/Reshape/shape"], "attr": {"Tshape": {"type": "DT_INT32"}, "T": {"type": "DT_FLOAT"}}}, {"name": "StatefulPartitionedCall/audio_feature_model_1/StatefulPartitionedCall/StatefulPartitionedCall/stft/mul", "op": "Mul", "input": ["StatefulPartitionedCall/audio_feature_model_1/StatefulPartitionedCall/StatefulPartitionedCall/stft/frame/Reshape_4", "StatefulPartitionedCall/audio_feature_model_1/StatefulPartitionedCall/StatefulPartitionedCall/stft/hann_window/sub_2"], "attr": {"T": {"type": "DT_FLOAT"}}}, {"name": "StatefulPartitionedCall/audio_feature_model_1/StatefulPartitionedCall/StatefulPartitionedCall/moments/mean", "op": "Mean", "input": ["StatefulPartitionedCall/audio_feature_model_1/StatefulPartitionedCall/StatefulPartitionedCall/Reshape", "StatefulPartitionedCall/audio_feature_model_1/StatefulPartitionedCall/StatefulPartitionedCall/moments/mean/reduction_indices"], "attr": {"keep_dims": {"b": true}, "T": {"type": "DT_FLOAT"}, "Tidx": {"type": "DT_INT32"}}}, {"name": "StatefulPartitionedCall/audio_feature_model_1/StatefulPartitionedCall/StatefulPartitionedCall/stft/rfft", "op": "RFFT", "input": ["StatefulPartitionedCall/audio_feature_model_1/StatefulPartitionedCall/StatefulPartitionedCall/stft/mul", "StatefulPartitionedCall/audio_feature_model_1/StatefulPartitionedCall/StatefulPartitionedCall/stft/rfft/fft_length"], "attr": {"Treal": {"type": "DT_FLOAT"}, "Tcomplex": {"type": "DT_COMPLEX64"}}}, {"name": "StatefulPartitionedCall/audio_feature_model_1/StatefulPartitionedCall/StatefulPartitionedCall/moments/Squeeze", "op": "Squeeze", "input": ["StatefulPartitionedCall/audio_feature_model_1/StatefulPartitionedCall/StatefulPartitionedCall/moments/mean"], "attr": {"squeeze_dims": {"list": {"i": ["-1"]}}, "T": {"type": "DT_FLOAT"}}}, {"name": "StatefulPartitionedCall/audio_feature_model_1/StatefulPartitionedCall/StatefulPartitionedCall/moments/SquaredDifference", "op": "SquaredDifference", "input": ["StatefulPartitionedCall/audio_feature_model_1/StatefulPartitionedCall/StatefulPartitionedCall/Reshape", "StatefulPartitionedCall/audio_feature_model_1/StatefulPartitionedCall/StatefulPartitionedCall/moments/mean"], "attr": {"T": {"type": "DT_FLOAT"}}}, {"name": "StatefulPartitionedCall/audio_feature_model_1/StatefulPartitionedCall/StatefulPartitionedCall/Abs", "op": "ComplexAbs", "input": ["StatefulPartitionedCall/audio_feature_model_1/StatefulPartitionedCall/StatefulPartitionedCall/stft/rfft"], "attr": {"T": {"type": "DT_COMPLEX64"}, "Tout": {"type": "DT_FLOAT"}}}, {"name": "StatefulPartitionedCall/audio_feature_model_1/StatefulPartitionedCall/StatefulPartitionedCall/strided_slice", "op": "StridedSlice", "input": ["StatefulPartitionedCall/audio_feature_model_1/StatefulPartitionedCall/StatefulPartitionedCall/moments/Squeeze", "StatefulPartitionedCall/audio_feature_model_1/StatefulPartitionedCall/StatefulPartitionedCall/strided_slice/stack", "StatefulPartitionedCall/audio_feature_model_1/StatefulPartitionedCall/StatefulPartitionedCall/strided_slice/stack_1", "StatefulPartitionedCall/audio_feature_model_1/StatefulPartitionedCall/StatefulPartitionedCall/strided_slice/stack_2"], "attr": {"shrink_axis_mask": {"i": "0"}, "new_axis_mask": {"i": "2"}, "end_mask": {"i": "1"}, "begin_mask": {"i": "1"}, "ellipsis_mask": {"i": "0"}, "Index": {"type": "DT_INT32"}, "T": {"type": "DT_FLOAT"}}}, {"name": "StatefulPartitionedCall/audio_feature_model_1/StatefulPartitionedCall/StatefulPartitionedCall/moments/variance", "op": "Mean", "input": ["StatefulPartitionedCall/audio_feature_model_1/StatefulPartitionedCall/StatefulPartitionedCall/moments/SquaredDifference", "StatefulPartitionedCall/audio_feature_model_1/StatefulPartitionedCall/StatefulPartitionedCall/moments/variance/reduction_indices"], "attr": {"Tidx": {"type": "DT_INT32"}, "keep_dims": {"b": true}, "T": {"type": "DT_FLOAT"}}}, {"name": "StatefulPartitionedCall/audio_feature_model_1/StatefulPartitionedCall/StatefulPartitionedCall/pow", "op": "Square", "input": ["StatefulPartitionedCall/audio_feature_model_1/StatefulPartitionedCall/StatefulPartitionedCall/Abs"], "attr": {"T": {"type": "DT_FLOAT"}}}, {"name": "StatefulPartitionedCall/audio_feature_model_1/StatefulPartitionedCall/StatefulPartitionedCall/sub_1", "op": "Sub", "input": ["StatefulPartitionedCall/audio_feature_model_1/StatefulPartitionedCall/StatefulPartitionedCall/Reshape", "StatefulPartitionedCall/audio_feature_model_1/StatefulPartitionedCall/StatefulPartitionedCall/strided_slice"], "attr": {"T": {"type": "DT_FLOAT"}}}, {"name": "StatefulPartitionedCall/audio_feature_model_1/StatefulPartitionedCall/StatefulPartitionedCall/moments/Squeeze_1", "op": "Squeeze", "input": ["StatefulPartitionedCall/audio_feature_model_1/StatefulPartitionedCall/StatefulPartitionedCall/moments/variance"], "attr": {"T": {"type": "DT_FLOAT"}, "squeeze_dims": {"list": {"i": ["-1"]}}}}, {"name": "StatefulPartitionedCall/audio_feature_model_1/StatefulPartitionedCall/StatefulPartitionedCall/mul", "op": "Mul", "input": ["StatefulPartitionedCall/audio_feature_model_1/StatefulPartitionedCall/StatefulPartitionedCall/pow", "StatefulPartitionedCall/audio_feature_model_1/StatefulPartitionedCall/StatefulPartitionedCall/mul/y"], "attr": {"T": {"type": "DT_FLOAT"}}}, {"name": "StatefulPartitionedCall/audio_feature_model_1/StatefulPartitionedCall/StatefulPartitionedCall/Abs_1", "op": "Abs", "input": ["StatefulPartitionedCall/audio_feature_model_1/StatefulPartitionedCall/StatefulPartitionedCall/moments/Squeeze_1"], "attr": {"T": {"type": "DT_FLOAT"}}}, {"name": "StatefulPartitionedCall/audio_feature_model_1/StatefulPartitionedCall/StatefulPartitionedCall/Sqrt", "op": "Sqrt", "input": ["StatefulPartitionedCall/audio_feature_model_1/StatefulPartitionedCall/StatefulPartitionedCall/moments/Squeeze_1"], "attr": {"T": {"type": "DT_FLOAT"}}}, {"name": "StatefulPartitionedCall/audio_feature_model_1/StatefulPartitionedCall/StatefulPartitionedCall/Mean", "op": "Mean", "input": ["StatefulPartitionedCall/audio_feature_model_1/StatefulPartitionedCall/StatefulPartitionedCall/mul", "StatefulPartitionedCall/audio_feature_model_1/StatefulPartitionedCall/StatefulPartitionedCall/Mean/reduction_indices"], "attr": {"T": {"type": "DT_FLOAT"}, "keep_dims": {"b": false}, "Tidx": {"type": "DT_INT32"}}}, {"name": "StatefulPartitionedCall/audio_feature_model_1/StatefulPartitionedCall/StatefulPartitionedCall/Greater", "op": "Greater", "input": ["StatefulPartitionedCall/audio_feature_model_1/StatefulPartitionedCall/StatefulPartitionedCall/Abs_1", "StatefulPartitionedCall/audio_feature_model_1/StatefulPartitionedCall/StatefulPartitionedCall/Greater/y"], "attr": {"T": {"type": "DT_FLOAT"}}}, {"name": "StatefulPartitionedCall/audio_feature_model_1/StatefulPartitionedCall/StatefulPartitionedCall/Maximum", "op": "Maximum", "input": ["StatefulPartitionedCall/audio_feature_model_1/StatefulPartitionedCall/StatefulPartitionedCall/Maximum/x", "StatefulPartitionedCall/audio_feature_model_1/StatefulPartitionedCall/StatefulPartitionedCall/Mean"], "attr": {"T": {"type": "DT_FLOAT"}}}, {"name": "StatefulPartitionedCall/audio_feature_model_1/StatefulPartitionedCall/StatefulPartitionedCall/SelectV2_3", "op": "SelectV2", "input": ["StatefulPartitionedCall/audio_feature_model_1/StatefulPartitionedCall/StatefulPartitionedCall/Greater", "StatefulPartitionedCall/audio_feature_model_1/StatefulPartitionedCall/StatefulPartitionedCall/Sqrt", "StatefulPartitionedCall/audio_feature_model_1/StatefulPartitionedCall/StatefulPartitionedCall/SelectV2_3/e"], "attr": {"T": {"type": "DT_FLOAT"}}}, {"name": "StatefulPartitionedCall/audio_feature_model_1/StatefulPartitionedCall/StatefulPartitionedCall/LessEqual", "op": "LessEqual", "input": ["StatefulPartitionedCall/audio_feature_model_1/StatefulPartitionedCall/StatefulPartitionedCall/Maximum", "StatefulPartitionedCall/audio_feature_model_1/StatefulPartitionedCall/StatefulPartitionedCall/LessEqual/y"], "attr": {"T": {"type": "DT_FLOAT"}}}, {"name": "StatefulPartitionedCall/audio_feature_model_1/StatefulPartitionedCall/StatefulPartitionedCall/strided_slice_1", "op": "StridedSlice", "input": ["StatefulPartitionedCall/audio_feature_model_1/StatefulPartitionedCall/StatefulPartitionedCall/SelectV2_3", "StatefulPartitionedCall/audio_feature_model_1/StatefulPartitionedCall/StatefulPartitionedCall/strided_slice_1/stack", "StatefulPartitionedCall/audio_feature_model_1/StatefulPartitionedCall/StatefulPartitionedCall/strided_slice_1/stack_1", "StatefulPartitionedCall/audio_feature_model_1/StatefulPartitionedCall/StatefulPartitionedCall/strided_slice_1/stack_2"], "attr": {"end_mask": {"i": "1"}, "Index": {"type": "DT_INT32"}, "new_axis_mask": {"i": "2"}, "begin_mask": {"i": "1"}, "ellipsis_mask": {"i": "0"}, "T": {"type": "DT_FLOAT"}, "shrink_axis_mask": {"i": "0"}}}, {"name": "StatefulPartitionedCall/audio_feature_model_1/StatefulPartitionedCall/StatefulPartitionedCall/SelectV2", "op": "SelectV2", "input": ["StatefulPartitionedCall/audio_feature_model_1/StatefulPartitionedCall/StatefulPartitionedCall/LessEqual", "StatefulPartitionedCall/audio_feature_model_1/StatefulPartitionedCall/StatefulPartitionedCall/SelectV2/t", "StatefulPartitionedCall/audio_feature_model_1/StatefulPartitionedCall/StatefulPartitionedCall/Maximum"], "attr": {"T": {"type": "DT_FLOAT"}}}, {"name": "StatefulPartitionedCall/audio_feature_model_1/StatefulPartitionedCall/StatefulPartitionedCall/truediv_1", "op": "RealDiv", "input": ["StatefulPartitionedCall/audio_feature_model_1/StatefulPartitionedCall/StatefulPartitionedCall/sub_1", "StatefulPartitionedCall/audio_feature_model_1/StatefulPartitionedCall/StatefulPartitionedCall/strided_slice_1"], "attr": {"T": {"type": "DT_FLOAT"}}}, {"name": "StatefulPartitionedCall/audio_feature_model_1/StatefulPartitionedCall/StatefulPartitionedCall/Log", "op": "Log", "input": ["StatefulPartitionedCall/audio_feature_model_1/StatefulPartitionedCall/StatefulPartitionedCall/SelectV2"], "attr": {"T": {"type": "DT_FLOAT"}}}, {"name": "StatefulPartitionedCall/audio_feature_model_1/StatefulPartitionedCall/StatefulPartitionedCall/model/input-reshape/Shape", "op": "Shape", "input": ["StatefulPartitionedCall/audio_feature_model_1/StatefulPartitionedCall/StatefulPartitionedCall/truediv_1"], "attr": {"T": {"type": "DT_FLOAT"}, "out_type": {"type": "DT_INT32"}}}, {"name": "StatefulPartitionedCall/audio_feature_model_1/StatefulPartitionedCall/StatefulPartitionedCall/mul_1", "op": "Mul", "input": ["StatefulPartitionedCall/audio_feature_model_1/StatefulPartitionedCall/StatefulPartitionedCall/Log", "StatefulPartitionedCall/audio_feature_model_1/StatefulPartitionedCall/StatefulPartitionedCall/truediv"], "attr": {"T": {"type": "DT_FLOAT"}}}, {"name": "StatefulPartitionedCall/audio_feature_model_1/StatefulPartitionedCall/StatefulPartitionedCall/model/input-reshape/strided_slice", "op": "StridedSlice", "input": ["StatefulPartitionedCall/audio_feature_model_1/StatefulPartitionedCall/StatefulPartitionedCall/model/input-reshape/Shape", "StatefulPartitionedCall/audio_feature_model_1/StatefulPartitionedCall/StatefulPartitionedCall/model/input-reshape/strided_slice/stack", "StatefulPartitionedCall/audio_feature_model_1/StatefulPartitionedCall/StatefulPartitionedCall/model/input-reshape/strided_slice/stack_1", "StatefulPartitionedCall/audio_feature_model_1/StatefulPartitionedCall/StatefulPartitionedCall/model/input-reshape/strided_slice/stack_2"], "attr": {"Index": {"type": "DT_INT32"}, "ellipsis_mask": {"i": "0"}, "begin_mask": {"i": "0"}, "shrink_axis_mask": {"i": "1"}, "end_mask": {"i": "0"}, "T": {"type": "DT_INT32"}, "new_axis_mask": {"i": "0"}}}, {"name": "StatefulPartitionedCall/audio_feature_model_1/StatefulPartitionedCall/StatefulPartitionedCall/Maximum_1", "op": "Maximum", "input": ["StatefulPartitionedCall/audio_feature_model_1/StatefulPartitionedCall/StatefulPartitionedCall/mul_1", "StatefulPartitionedCall/audio_feature_model_1/StatefulPartitionedCall/StatefulPartitionedCall/Maximum_1/y"], "attr": {"T": {"type": "DT_FLOAT"}}}, {"name": "StatefulPartitionedCall/audio_feature_model_1/StatefulPartitionedCall/StatefulPartitionedCall/model/input-reshape/Reshape/shape", "op": "Pack", "input": ["StatefulPartitionedCall/audio_feature_model_1/StatefulPartitionedCall/StatefulPartitionedCall/model/input-reshape/strided_slice", "StatefulPartitionedCall/audio_feature_model_1/StatefulPartitionedCall/StatefulPartitionedCall/model/input-reshape/Reshape/shape/1", "StatefulPartitionedCall/audio_feature_model_1/StatefulPartitionedCall/StatefulPartitionedCall/model/input-reshape/Reshape/shape/2", "StatefulPartitionedCall/audio_feature_model_1/StatefulPartitionedCall/StatefulPartitionedCall/model/input-reshape/Reshape/shape/3"], "attr": {"N": {"i": "4"}, "axis": {"i": "0"}, "T": {"type": "DT_INT32"}}}, {"name": "StatefulPartitionedCall/audio_feature_model_1/StatefulPartitionedCall/StatefulPartitionedCall/Squeeze_3", "op": "Squeeze", "input": ["StatefulPartitionedCall/audio_feature_model_1/StatefulPartitionedCall/StatefulPartitionedCall/Maximum_1"], "attr": {"squeeze_dims": {"list": {}}, "T": {"type": "DT_FLOAT"}}}, {"name": "StatefulPartitionedCall/audio_feature_model_1/StatefulPartitionedCall/StatefulPartitionedCall/model/input-reshape/Reshape", "op": "Reshape", "input": ["StatefulPartitionedCall/audio_feature_model_1/StatefulPartitionedCall/StatefulPartitionedCall/truediv_1", "StatefulPartitionedCall/audio_feature_model_1/StatefulPartitionedCall/StatefulPartitionedCall/model/input-reshape/Reshape/shape"], "attr": {"T": {"type": "DT_FLOAT"}, "Tshape": {"type": "DT_INT32"}}}, {"name": "StatefulPartitionedCall/audio_feature_model_1/StatefulPartitionedCall/StatefulPartitionedCall/model/conv1/Relu", "op": "_FusedConv2D", "input": ["StatefulPartitionedCall/audio_feature_model_1/StatefulPartitionedCall/StatefulPartitionedCall/model/input-reshape/Reshape", "StatefulPartitionedCall/audio_feature_model_1/StatefulPartitionedCall/StatefulPartitionedCall/model/conv1/Conv2D/ReadVariableOp", "StatefulPartitionedCall/audio_feature_model_1/StatefulPartitionedCall/StatefulPartitionedCall/model/conv1/BiasAdd/ReadVariableOp"], "device": "/device:CPU:0", "attr": {"num_args": {"i": "1"}, "padding": {"s": "U0FNRQ=="}, "strides": {"list": {"i": ["1", "4", "1", "1"]}}, "leakyrelu_alpha": {"f": 0.2}, "explicit_paddings": {"list": {}}, "fused_ops": {"list": {"s": ["Qmlhc0FkZA==", "UmVsdQ=="]}}, "T": {"type": "DT_FLOAT"}, "data_format": {"s": "TkhXQw=="}, "epsilon": {"f": 0.0}, "TArgs": {"list": {"type": ["DT_FLOAT"]}}, "num_host_args": {"i": "0"}, "use_cudnn_on_gpu": {"b": true}, "dilations": {"list": {"i": ["1", "1", "1", "1"]}}, "filter_format": {"s": "SFdJTw=="}}}, {"name": "StatefulPartitionedCall/audio_feature_model_1/StatefulPartitionedCall/StatefulPartitionedCall/model/conv1-BN/FusedBatchNormV3/Mul", "op": "Mul", "input": ["StatefulPartitionedCall/audio_feature_model_1/StatefulPartitionedCall/StatefulPartitionedCall/model/conv1/Relu", "StatefulPartitionedCall/audio_feature_model_1/StatefulPartitionedCall/StatefulPartitionedCall/model/conv1-BN/FusedBatchNormV3/Scaled"], "attr": {"T": {"type": "DT_FLOAT"}}}, {"name": "StatefulPartitionedCall/audio_feature_model_1/StatefulPartitionedCall/StatefulPartitionedCall/model/conv1-BN/FusedBatchNormV3", "op": "Add", "input": ["StatefulPartitionedCall/audio_feature_model_1/StatefulPartitionedCall/StatefulPartitionedCall/model/conv1-BN/FusedBatchNormV3/Mul", "StatefulPartitionedCall/audio_feature_model_1/StatefulPartitionedCall/StatefulPartitionedCall/model/conv1-BN/FusedBatchNormV3/Offset"], "attr": {"T": {"type": "DT_FLOAT"}}}, {"name": "StatefulPartitionedCall/audio_feature_model_1/StatefulPartitionedCall/StatefulPartitionedCall/model/conv1-maxpool/MaxPool", "op": "MaxPool", "input": ["StatefulPartitionedCall/audio_feature_model_1/StatefulPartitionedCall/StatefulPartitionedCall/model/conv1-BN/FusedBatchNormV3"], "attr": {"explicit_paddings": {"list": {}}, "padding": {"s": "VkFMSUQ="}, "strides": {"list": {"i": ["1", "2", "1", "1"]}}, "data_format": {"s": "TkhXQw=="}, "ksize": {"list": {"i": ["1", "2", "1", "1"]}}, "T": {"type": "DT_FLOAT"}}}, {"name": "StatefulPartitionedCall/audio_feature_model_1/StatefulPartitionedCall/StatefulPartitionedCall/model/conv2/Relu", "op": "_FusedConv2D", "input": ["StatefulPartitionedCall/audio_feature_model_1/StatefulPartitionedCall/StatefulPartitionedCall/model/conv1-maxpool/MaxPool", "StatefulPartitionedCall/audio_feature_model_1/StatefulPartitionedCall/StatefulPartitionedCall/model/conv2/Conv2D/ReadVariableOp", "StatefulPartitionedCall/audio_feature_model_1/StatefulPartitionedCall/StatefulPartitionedCall/model/conv2/BiasAdd/ReadVariableOp"], "device": "/device:CPU:0", "attr": {"TArgs": {"list": {"type": ["DT_FLOAT"]}}, "epsilon": {"f": 0.0}, "padding": {"s": "U0FNRQ=="}, "dilations": {"list": {"i": ["1", "1", "1", "1"]}}, "fused_ops": {"list": {"s": ["Qmlhc0FkZA==", "UmVsdQ=="]}}, "num_host_args": {"i": "0"}, "use_cudnn_on_gpu": {"b": true}, "leakyrelu_alpha": {"f": 0.2}, "explicit_paddings": {"list": {}}, "strides": {"list": {"i": ["1", "1", "1", "1"]}}, "num_args": {"i": "1"}, "data_format": {"s": "TkhXQw=="}, "T": {"type": "DT_FLOAT"}, "filter_format": {"s": "SFdJTw=="}}}, {"name": "StatefulPartitionedCall/audio_feature_model_1/StatefulPartitionedCall/StatefulPartitionedCall/model/conv2-BN/FusedBatchNormV3/Mul", "op": "Mul", "input": ["StatefulPartitionedCall/audio_feature_model_1/StatefulPartitionedCall/StatefulPartitionedCall/model/conv2/Relu", "StatefulPartitionedCall/audio_feature_model_1/StatefulPartitionedCall/StatefulPartitionedCall/model/conv2-BN/FusedBatchNormV3/Scaled"], "attr": {"T": {"type": "DT_FLOAT"}}}, {"name": "StatefulPartitionedCall/audio_feature_model_1/StatefulPartitionedCall/StatefulPartitionedCall/model/conv2-BN/FusedBatchNormV3", "op": "Add", "input": ["StatefulPartitionedCall/audio_feature_model_1/StatefulPartitionedCall/StatefulPartitionedCall/model/conv2-BN/FusedBatchNormV3/Mul", "StatefulPartitionedCall/audio_feature_model_1/StatefulPartitionedCall/StatefulPartitionedCall/model/conv2-BN/FusedBatchNormV3/Offset"], "attr": {"T": {"type": "DT_FLOAT"}}}, {"name": "StatefulPartitionedCall/audio_feature_model_1/StatefulPartitionedCall/StatefulPartitionedCall/model/conv2-maxpool/MaxPool", "op": "MaxPool", "input": ["StatefulPartitionedCall/audio_feature_model_1/StatefulPartitionedCall/StatefulPartitionedCall/model/conv2-BN/FusedBatchNormV3"], "attr": {"strides": {"list": {"i": ["1", "2", "1", "1"]}}, "explicit_paddings": {"list": {}}, "T": {"type": "DT_FLOAT"}, "data_format": {"s": "TkhXQw=="}, "padding": {"s": "VkFMSUQ="}, "ksize": {"list": {"i": ["1", "2", "1", "1"]}}}}, {"name": "StatefulPartitionedCall/audio_feature_model_1/StatefulPartitionedCall/StatefulPartitionedCall/model/conv3/Relu", "op": "_FusedConv2D", "input": ["StatefulPartitionedCall/audio_feature_model_1/StatefulPartitionedCall/StatefulPartitionedCall/model/conv2-maxpool/MaxPool", "StatefulPartitionedCall/audio_feature_model_1/StatefulPartitionedCall/StatefulPartitionedCall/model/conv3/Conv2D/ReadVariableOp", "StatefulPartitionedCall/audio_feature_model_1/StatefulPartitionedCall/StatefulPartitionedCall/model/conv3/BiasAdd/ReadVariableOp"], "device": "/device:CPU:0", "attr": {"num_host_args": {"i": "0"}, "T": {"type": "DT_FLOAT"}, "leakyrelu_alpha": {"f": 0.2}, "strides": {"list": {"i": ["1", "1", "1", "1"]}}, "num_args": {"i": "1"}, "data_format": {"s": "TkhXQw=="}, "dilations": {"list": {"i": ["1", "1", "1", "1"]}}, "filter_format": {"s": "SFdJTw=="}, "padding": {"s": "U0FNRQ=="}, "TArgs": {"list": {"type": ["DT_FLOAT"]}}, "use_cudnn_on_gpu": {"b": true}, "explicit_paddings": {"list": {}}, "fused_ops": {"list": {"s": ["Qmlhc0FkZA==", "UmVsdQ=="]}}, "epsilon": {"f": 0.0}}}, {"name": "StatefulPartitionedCall/audio_feature_model_1/StatefulPartitionedCall/StatefulPartitionedCall/model/conv3-BN/FusedBatchNormV3/Mul", "op": "Mul", "input": ["StatefulPartitionedCall/audio_feature_model_1/StatefulPartitionedCall/StatefulPartitionedCall/model/conv3/Relu", "StatefulPartitionedCall/audio_feature_model_1/StatefulPartitionedCall/StatefulPartitionedCall/model/conv3-BN/FusedBatchNormV3/Scaled"], "attr": {"T": {"type": "DT_FLOAT"}}}, {"name": "StatefulPartitionedCall/audio_feature_model_1/StatefulPartitionedCall/StatefulPartitionedCall/model/conv3-BN/FusedBatchNormV3", "op": "Add", "input": ["StatefulPartitionedCall/audio_feature_model_1/StatefulPartitionedCall/StatefulPartitionedCall/model/conv3-BN/FusedBatchNormV3/Mul", "StatefulPartitionedCall/audio_feature_model_1/StatefulPartitionedCall/StatefulPartitionedCall/model/conv3-BN/FusedBatchNormV3/Offset"], "attr": {"T": {"type": "DT_FLOAT"}}}, {"name": "StatefulPartitionedCall/audio_feature_model_1/StatefulPartitionedCall/StatefulPartitionedCall/model/conv3-maxpool/MaxPool", "op": "MaxPool", "input": ["StatefulPartitionedCall/audio_feature_model_1/StatefulPartitionedCall/StatefulPartitionedCall/model/conv3-BN/FusedBatchNormV3"], "attr": {"explicit_paddings": {"list": {}}, "padding": {"s": "VkFMSUQ="}, "strides": {"list": {"i": ["1", "2", "1", "1"]}}, "data_format": {"s": "TkhXQw=="}, "T": {"type": "DT_FLOAT"}, "ksize": {"list": {"i": ["1", "2", "1", "1"]}}}}, {"name": "StatefulPartitionedCall/audio_feature_model_1/StatefulPartitionedCall/StatefulPartitionedCall/model/conv4/Relu", "op": "_FusedConv2D", "input": ["StatefulPartitionedCall/audio_feature_model_1/StatefulPartitionedCall/StatefulPartitionedCall/model/conv3-maxpool/MaxPool", "StatefulPartitionedCall/audio_feature_model_1/StatefulPartitionedCall/StatefulPartitionedCall/model/conv4/Conv2D/ReadVariableOp", "StatefulPartitionedCall/audio_feature_model_1/StatefulPartitionedCall/StatefulPartitionedCall/model/conv4/BiasAdd/ReadVariableOp"], "device": "/device:CPU:0", "attr": {"explicit_paddings": {"list": {}}, "TArgs": {"list": {"type": ["DT_FLOAT"]}}, "use_cudnn_on_gpu": {"b": true}, "strides": {"list": {"i": ["1", "1", "1", "1"]}}, "num_host_args": {"i": "0"}, "num_args": {"i": "1"}, "filter_format": {"s": "SFdJTw=="}, "leakyrelu_alpha": {"f": 0.2}, "data_format": {"s": "TkhXQw=="}, "T": {"type": "DT_FLOAT"}, "fused_ops": {"list": {"s": ["Qmlhc0FkZA==", "UmVsdQ=="]}}, "dilations": {"list": {"i": ["1", "1", "1", "1"]}}, "padding": {"s": "U0FNRQ=="}, "epsilon": {"f": 0.0}}}, {"name": "StatefulPartitionedCall/audio_feature_model_1/StatefulPartitionedCall/StatefulPartitionedCall/model/conv4-BN/FusedBatchNormV3/Mul", "op": "Mul", "input": ["StatefulPartitionedCall/audio_feature_model_1/StatefulPartitionedCall/StatefulPartitionedCall/model/conv4/Relu", "StatefulPartitionedCall/audio_feature_model_1/StatefulPartitionedCall/StatefulPartitionedCall/model/conv4-BN/FusedBatchNormV3/Scaled"], "attr": {"T": {"type": "DT_FLOAT"}}}, {"name": "StatefulPartitionedCall/audio_feature_model_1/StatefulPartitionedCall/StatefulPartitionedCall/model/conv4-BN/FusedBatchNormV3", "op": "Add", "input": ["StatefulPartitionedCall/audio_feature_model_1/StatefulPartitionedCall/StatefulPartitionedCall/model/conv4-BN/FusedBatchNormV3/Mul", "StatefulPartitionedCall/audio_feature_model_1/StatefulPartitionedCall/StatefulPartitionedCall/model/conv4-BN/FusedBatchNormV3/Offset"], "attr": {"T": {"type": "DT_FLOAT"}}}, {"name": "StatefulPartitionedCall/audio_feature_model_1/StatefulPartitionedCall/StatefulPartitionedCall/model/conv4-maxpool/MaxPool", "op": "MaxPool", "input": ["StatefulPartitionedCall/audio_feature_model_1/StatefulPartitionedCall/StatefulPartitionedCall/model/conv4-BN/FusedBatchNormV3"], "attr": {"ksize": {"list": {"i": ["1", "2", "1", "1"]}}, "padding": {"s": "VkFMSUQ="}, "T": {"type": "DT_FLOAT"}, "data_format": {"s": "TkhXQw=="}, "strides": {"list": {"i": ["1", "2", "1", "1"]}}, "explicit_paddings": {"list": {}}}}, {"name": "StatefulPartitionedCall/audio_feature_model_1/StatefulPartitionedCall/StatefulPartitionedCall/model/conv5/Relu", "op": "_FusedConv2D", "input": ["StatefulPartitionedCall/audio_feature_model_1/StatefulPartitionedCall/StatefulPartitionedCall/model/conv4-maxpool/MaxPool", "StatefulPartitionedCall/audio_feature_model_1/StatefulPartitionedCall/StatefulPartitionedCall/model/conv5/Conv2D/ReadVariableOp", "StatefulPartitionedCall/audio_feature_model_1/StatefulPartitionedCall/StatefulPartitionedCall/model/conv5/BiasAdd/ReadVariableOp"], "device": "/device:CPU:0", "attr": {"fused_ops": {"list": {"s": ["Qmlhc0FkZA==", "UmVsdQ=="]}}, "TArgs": {"list": {"type": ["DT_FLOAT"]}}, "use_cudnn_on_gpu": {"b": true}, "epsilon": {"f": 0.0}, "padding": {"s": "U0FNRQ=="}, "num_host_args": {"i": "0"}, "filter_format": {"s": "SFdJTw=="}, "leakyrelu_alpha": {"f": 0.2}, "strides": {"list": {"i": ["1", "1", "1", "1"]}}, "data_format": {"s": "TkhXQw=="}, "T": {"type": "DT_FLOAT"}, "dilations": {"list": {"i": ["1", "1", "1", "1"]}}, "explicit_paddings": {"list": {}}, "num_args": {"i": "1"}}}, {"name": "StatefulPartitionedCall/audio_feature_model_1/StatefulPartitionedCall/StatefulPartitionedCall/model/conv5-BN/FusedBatchNormV3/Mul", "op": "Mul", "input": ["StatefulPartitionedCall/audio_feature_model_1/StatefulPartitionedCall/StatefulPartitionedCall/model/conv5/Relu", "StatefulPartitionedCall/audio_feature_model_1/StatefulPartitionedCall/StatefulPartitionedCall/model/conv5-BN/FusedBatchNormV3/Scaled"], "attr": {"T": {"type": "DT_FLOAT"}}}, {"name": "StatefulPartitionedCall/audio_feature_model_1/StatefulPartitionedCall/StatefulPartitionedCall/model/conv5-BN/FusedBatchNormV3", "op": "Add", "input": ["StatefulPartitionedCall/audio_feature_model_1/StatefulPartitionedCall/StatefulPartitionedCall/model/conv5-BN/FusedBatchNormV3/Mul", "StatefulPartitionedCall/audio_feature_model_1/StatefulPartitionedCall/StatefulPartitionedCall/model/conv5-BN/FusedBatchNormV3/Offset"], "attr": {"T": {"type": "DT_FLOAT"}}}, {"name": "StatefulPartitionedCall/audio_feature_model_1/StatefulPartitionedCall/StatefulPartitionedCall/model/conv5-maxpool/MaxPool", "op": "MaxPool", "input": ["StatefulPartitionedCall/audio_feature_model_1/StatefulPartitionedCall/StatefulPartitionedCall/model/conv5-BN/FusedBatchNormV3"], "attr": {"ksize": {"list": {"i": ["1", "2", "1", "1"]}}, "strides": {"list": {"i": ["1", "2", "1", "1"]}}, "T": {"type": "DT_FLOAT"}, "padding": {"s": "VkFMSUQ="}, "explicit_paddings": {"list": {}}, "data_format": {"s": "TkhXQw=="}}}, {"name": "StatefulPartitionedCall/audio_feature_model_1/StatefulPartitionedCall/StatefulPartitionedCall/model/conv6/Relu", "op": "_FusedConv2D", "input": ["StatefulPartitionedCall/audio_feature_model_1/StatefulPartitionedCall/StatefulPartitionedCall/model/conv5-maxpool/MaxPool", "StatefulPartitionedCall/audio_feature_model_1/StatefulPartitionedCall/StatefulPartitionedCall/model/conv6/Conv2D/ReadVariableOp", "StatefulPartitionedCall/audio_feature_model_1/StatefulPartitionedCall/StatefulPartitionedCall/model/conv6/BiasAdd/ReadVariableOp"], "device": "/device:CPU:0", "attr": {"leakyrelu_alpha": {"f": 0.2}, "strides": {"list": {"i": ["1", "1", "1", "1"]}}, "use_cudnn_on_gpu": {"b": true}, "fused_ops": {"list": {"s": ["Qmlhc0FkZA==", "UmVsdQ=="]}}, "dilations": {"list": {"i": ["1", "1", "1", "1"]}}, "padding": {"s": "U0FNRQ=="}, "TArgs": {"list": {"type": ["DT_FLOAT"]}}, "filter_format": {"s": "SFdJTw=="}, "num_host_args": {"i": "0"}, "data_format": {"s": "TkhXQw=="}, "epsilon": {"f": 0.0}, "T": {"type": "DT_FLOAT"}, "num_args": {"i": "1"}, "explicit_paddings": {"list": {}}}}, {"name": "StatefulPartitionedCall/audio_feature_model_1/StatefulPartitionedCall/StatefulPartitionedCall/model/conv6-BN/FusedBatchNormV3/Mul", "op": "Mul", "input": ["StatefulPartitionedCall/audio_feature_model_1/StatefulPartitionedCall/StatefulPartitionedCall/model/conv6/Relu", "StatefulPartitionedCall/audio_feature_model_1/StatefulPartitionedCall/StatefulPartitionedCall/model/conv6-BN/FusedBatchNormV3/Scaled"], "attr": {"T": {"type": "DT_FLOAT"}}}, {"name": "StatefulPartitionedCall/audio_feature_model_1/StatefulPartitionedCall/StatefulPartitionedCall/model/conv6-BN/FusedBatchNormV3", "op": "Add", "input": ["StatefulPartitionedCall/audio_feature_model_1/StatefulPartitionedCall/StatefulPartitionedCall/model/conv6-BN/FusedBatchNormV3/Mul", "StatefulPartitionedCall/audio_feature_model_1/StatefulPartitionedCall/StatefulPartitionedCall/model/conv6-BN/FusedBatchNormV3/Offset"], "attr": {"T": {"type": "DT_FLOAT"}}}, {"name": "StatefulPartitionedCall/audio_feature_model_1/StatefulPartitionedCall/StatefulPartitionedCall/model/conv6-maxpool/MaxPool", "op": "MaxPool", "input": ["StatefulPartitionedCall/audio_feature_model_1/StatefulPartitionedCall/StatefulPartitionedCall/model/conv6-BN/FusedBatchNormV3"], "attr": {"padding": {"s": "VkFMSUQ="}, "strides": {"list": {"i": ["1", "2", "1", "1"]}}, "T": {"type": "DT_FLOAT"}, "explicit_paddings": {"list": {}}, "data_format": {"s": "TkhXQw=="}, "ksize": {"list": {"i": ["1", "2", "1", "1"]}}}}, {"name": "StatefulPartitionedCall/audio_feature_model_1/StatefulPartitionedCall/StatefulPartitionedCall/model/transpose/transpose", "op": "Transpose", "input": ["StatefulPartitionedCall/audio_feature_model_1/StatefulPartitionedCall/StatefulPartitionedCall/model/conv6-maxpool/MaxPool", "StatefulPartitionedCall/audio_feature_model_1/StatefulPartitionedCall/StatefulPartitionedCall/model/transpose/transpose/perm"], "attr": {"T": {"type": "DT_FLOAT"}, "Tperm": {"type": "DT_INT32"}}}, {"name": "StatefulPartitionedCall/audio_feature_model_1/StatefulPartitionedCall/StatefulPartitionedCall/model/flatten/Reshape", "op": "Reshape", "input": ["StatefulPartitionedCall/audio_feature_model_1/StatefulPartitionedCall/StatefulPartitionedCall/model/transpose/transpose", "StatefulPartitionedCall/audio_feature_model_1/StatefulPartitionedCall/StatefulPartitionedCall/model/flatten/Const"], "attr": {"T": {"type": "DT_FLOAT"}, "Tshape": {"type": "DT_INT32"}}}, {"name": "StatefulPartitionedCall/audio_feature_model_1/StatefulPartitionedCall/StatefulPartitionedCall/model/classifier/BiasAdd", "op": "_FusedMatMul", "input": ["StatefulPartitionedCall/audio_feature_model_1/StatefulPartitionedCall/StatefulPartitionedCall/model/flatten/Reshape", "StatefulPartitionedCall/audio_feature_model_1/StatefulPartitionedCall/StatefulPartitionedCall/model/classifier/MatMul/ReadVariableOp", "StatefulPartitionedCall/audio_feature_model_1/StatefulPartitionedCall/StatefulPartitionedCall/model/classifier/BiasAdd/ReadVariableOp"], "device": "/device:CPU:0", "attr": {"leakyrelu_alpha": {"f": 0.2}, "transpose_b": {"b": false}, "transpose_a": {"b": false}, "epsilon": {"f": 0.0}, "fused_ops": {"list": {"s": ["Qmlhc0FkZA=="]}}, "T": {"type": "DT_FLOAT"}, "num_args": {"i": "1"}}}, {"name": "StatefulPartitionedCall/audio_feature_model_1/StatefulPartitionedCall/StatefulPartitionedCall/model/classifier/Sigmoid", "op": "Sigmoid", "input": ["StatefulPartitionedCall/audio_feature_model_1/StatefulPartitionedCall/StatefulPartitionedCall/model/classifier/BiasAdd"], "attr": {"T": {"type": "DT_FLOAT"}}}, {"name": "StatefulPartitionedCall/audio_feature_model_1/StatefulPartitionedCall/StatefulPartitionedCall/Reshape_1", "op": "Reshape", "input": ["StatefulPartitionedCall/audio_feature_model_1/StatefulPartitionedCall/StatefulPartitionedCall/model/classifier/Sigmoid", "StatefulPartitionedCall/audio_feature_model_1/StatefulPartitionedCall/StatefulPartitionedCall/Reshape_1/shape"], "attr": {"Tshape": {"type": "DT_INT32"}, "T": {"type": "DT_FLOAT"}}}, {"name": "StatefulPartitionedCall/audio_feature_model_1/StatefulPartitionedCall/StatefulPartitionedCall/HiddenMarkovModel/posterior_mode/Shape_1", "op": "Shape", "input": ["StatefulPartitionedCall/audio_feature_model_1/StatefulPartitionedCall/StatefulPartitionedCall/Reshape_1"], "attr": {"T": {"type": "DT_FLOAT"}, "out_type": {"type": "DT_INT32"}}}, {"name": "StatefulPartitionedCall/audio_feature_model_1/StatefulPartitionedCall/StatefulPartitionedCall/HiddenMarkovModel/posterior_mode/scan/while/loop_counter", "op": "Const", "input": ["^StatefulPartitionedCall/audio_feature_model_1/StatefulPartitionedCall/StatefulPartitionedCall/Reshape_1"], "attr": {"dtype": {"type": "DT_INT32"}, "value": {"tensor": {"dtype": "DT_INT32", "tensorShape": {}}}}}, {"name": "StatefulPartitionedCall/audio_feature_model_1/StatefulPartitionedCall/StatefulPartitionedCall/HiddenMarkovModel/posterior_mode/scan/sub/y", "op": "Const", "input": ["^StatefulPartitionedCall/audio_feature_model_1/StatefulPartitionedCall/StatefulPartitionedCall/Reshape_1"], "attr": {"value": {"tensor": {"dtype": "DT_INT32", "tensorShape": {}}}, "dtype": {"type": "DT_INT32"}}}, {"name": "StatefulPartitionedCall/audio_feature_model_1/StatefulPartitionedCall/StatefulPartitionedCall/HiddenMarkovModel/posterior_mode/scan/TensorArrayV2_1/element_shape", "op": "Const", "input": ["^StatefulPartitionedCall/audio_feature_model_1/StatefulPartitionedCall/StatefulPartitionedCall/Reshape_1"], "attr": {"dtype": {"type": "DT_INT32"}, "value": {"tensor": {"dtype": "DT_INT32", "tensorShape": {"dim": [{"size": "1"}]}}}}}, {"name": "StatefulPartitionedCall/audio_feature_model_1/StatefulPartitionedCall/StatefulPartitionedCall/HiddenMarkovModel/posterior_mode/scan/strided_slice/stack", "op": "Const", "input": ["^StatefulPartitionedCall/audio_feature_model_1/StatefulPartitionedCall/StatefulPartitionedCall/Reshape_1"], "attr": {"value": {"tensor": {"dtype": "DT_INT32", "tensorShape": {"dim": [{"size": "1"}]}}}, "dtype": {"type": "DT_INT32"}}}, {"name": "StatefulPartitionedCall/audio_feature_model_1/StatefulPartitionedCall/StatefulPartitionedCall/HiddenMarkovModel/posterior_mode/scan/strided_slice/stack_1", "op": "Const", "input": ["^StatefulPartitionedCall/audio_feature_model_1/StatefulPartitionedCall/StatefulPartitionedCall/Reshape_1"], "attr": {"value": {"tensor": {"dtype": "DT_INT32", "tensorShape": {"dim": [{"size": "1"}]}}}, "dtype": {"type": "DT_INT32"}}}, {"name": "StatefulPartitionedCall/audio_feature_model_1/StatefulPartitionedCall/StatefulPartitionedCall/HiddenMarkovModel/posterior_mode/scan/strided_slice/stack_2", "op": "Const", "input": ["^StatefulPartitionedCall/audio_feature_model_1/StatefulPartitionedCall/StatefulPartitionedCall/Reshape_1"], "attr": {"dtype": {"type": "DT_INT32"}, "value": {"tensor": {"dtype": "DT_INT32", "tensorShape": {"dim": [{"size": "1"}]}}}}}, {"name": "StatefulPartitionedCall/audio_feature_model_1/StatefulPartitionedCall/StatefulPartitionedCall/HiddenMarkovModel/posterior_mode/forward_log_probs/TensorArrayV2Stack_1/TensorListStack/element_shape", "op": "Const", "input": ["^StatefulPartitionedCall/audio_feature_model_1/StatefulPartitionedCall/StatefulPartitionedCall/Reshape_1"], "attr": {"dtype": {"type": "DT_INT32"}, "value": {"tensor": {"dtype": "DT_INT32", "tensorShape": {"dim": [{"size": "2"}]}}}}}, {"name": "StatefulPartitionedCall/audio_feature_model_1/StatefulPartitionedCall/StatefulPartitionedCall/HiddenMarkovModel/posterior_mode/scan/TensorArrayUnstack/TensorListFromTensor/element_shape", "op": "Const", "input": ["^StatefulPartitionedCall/audio_feature_model_1/StatefulPartitionedCall/StatefulPartitionedCall/Reshape_1"], "attr": {"value": {"tensor": {"dtype": "DT_INT32", "tensorShape": {"dim": [{"size": "2"}]}}}, "dtype": {"type": "DT_INT32"}}}, {"name": "StatefulPartitionedCall/audio_feature_model_1/StatefulPartitionedCall/StatefulPartitionedCall/HiddenMarkovModel/posterior_mode/scan/TensorArrayV2Stack/TensorListStack/element_shape", "op": "Const", "input": ["^StatefulPartitionedCall/audio_feature_model_1/StatefulPartitionedCall/StatefulPartitionedCall/Reshape_1"], "attr": {"value": {"tensor": {"dtype": "DT_INT32", "tensorShape": {"dim": [{"size": "1"}]}}}, "dtype": {"type": "DT_INT32"}}}, {"name": "StatefulPartitionedCall/audio_feature_model_1/StatefulPartitionedCall/StatefulPartitionedCall/HiddenMarkovModel/posterior_mode/forward_log_probs/while/loop_counter", "op": "Const", "input": ["^StatefulPartitionedCall/audio_feature_model_1/StatefulPartitionedCall/StatefulPartitionedCall/Reshape_1"], "attr": {"value": {"tensor": {"dtype": "DT_INT32", "tensorShape": {}}}, "dtype": {"type": "DT_INT32"}}}, {"name": "StatefulPartitionedCall/audio_feature_model_1/StatefulPartitionedCall/StatefulPartitionedCall/HiddenMarkovModel/posterior_mode/forward_log_probs/Const", "op": "Const", "input": ["^StatefulPartitionedCall/audio_feature_model_1/StatefulPartitionedCall/StatefulPartitionedCall/Reshape_1"], "attr": {"dtype": {"type": "DT_INT32"}, "value": {"tensor": {"dtype": "DT_INT32", "tensorShape": {}}}}}, {"name": "StatefulPartitionedCall/audio_feature_model_1/StatefulPartitionedCall/StatefulPartitionedCall/HiddenMarkovModel/posterior_mode/strided_slice_4/stack", "op": "Const", "input": ["^StatefulPartitionedCall/audio_feature_model_1/StatefulPartitionedCall/StatefulPartitionedCall/Reshape_1"], "attr": {"dtype": {"type": "DT_INT32"}, "value": {"tensor": {"dtype": "DT_INT32", "tensorShape": {"dim": [{"size": "1"}]}}}}}, {"name": "StatefulPartitionedCall/audio_feature_model_1/StatefulPartitionedCall/StatefulPartitionedCall/HiddenMarkovModel/posterior_mode/strided_slice_4/stack_1", "op": "Const", "input": ["^StatefulPartitionedCall/audio_feature_model_1/StatefulPartitionedCall/StatefulPartitionedCall/Reshape_1"], "attr": {"dtype": {"type": "DT_INT32"}, "value": {"tensor": {"dtype": "DT_INT32", "tensorShape": {"dim": [{"size": "1"}]}}}}}, {"name": "StatefulPartitionedCall/audio_feature_model_1/StatefulPartitionedCall/StatefulPartitionedCall/HiddenMarkovModel/posterior_mode/strided_slice_4/stack_2", "op": "Const", "input": ["^StatefulPartitionedCall/audio_feature_model_1/StatefulPartitionedCall/StatefulPartitionedCall/Reshape_1"], "attr": {"value": {"tensor": {"dtype": "DT_INT32", "tensorShape": {"dim": [{"size": "1"}]}}}, "dtype": {"type": "DT_INT32"}}}, {"name": "StatefulPartitionedCall/audio_feature_model_1/StatefulPartitionedCall/StatefulPartitionedCall/HiddenMarkovModel/posterior_mode/Categorical/log_prob/Categorical/logits_parameter/Log", "op": "Const", "input": ["^StatefulPartitionedCall/audio_feature_model_1/StatefulPartitionedCall/StatefulPartitionedCall/Reshape_1"], "attr": {"value": {"tensor": {"dtype": "DT_FLOAT", "tensorShape": {"dim": [{"size": "360"}]}}}, "dtype": {"type": "DT_FLOAT"}}}, {"name": "StatefulPartitionedCall/audio_feature_model_1/StatefulPartitionedCall/StatefulPartitionedCall/HiddenMarkovModel/posterior_mode/Categorical/log_prob/ones_like/Shape/shape_as_tensor", "op": "Const", "input": ["^StatefulPartitionedCall/audio_feature_model_1/StatefulPartitionedCall/StatefulPartitionedCall/Reshape_1"], "attr": {"value": {"tensor": {"dtype": "DT_INT32", "tensorShape": {"dim": [{"size": "2"}]}}}, "dtype": {"type": "DT_INT32"}}}, {"name": "StatefulPartitionedCall/audio_feature_model_1/StatefulPartitionedCall/StatefulPartitionedCall/HiddenMarkovModel/posterior_mode/Categorical/log_prob/ones_like/Const", "op": "Const", "input": ["^StatefulPartitionedCall/audio_feature_model_1/StatefulPartitionedCall/StatefulPartitionedCall/Reshape_1"], "attr": {"value": {"tensor": {"dtype": "DT_FLOAT", "tensorShape": {}}}, "dtype": {"type": "DT_FLOAT"}}}, {"name": "StatefulPartitionedCall/audio_feature_model_1/StatefulPartitionedCall/StatefulPartitionedCall/HiddenMarkovModel/posterior_mode/Categorical/log_prob/mul_1", "op": "Const", "input": ["^StatefulPartitionedCall/audio_feature_model_1/StatefulPartitionedCall/StatefulPartitionedCall/Reshape_1"], "attr": {"value": {"tensor": {"dtype": "DT_INT32", "tensorShape": {"dim": [{"size": "360"}]}}}, "dtype": {"type": "DT_INT32"}}}, {"name": "StatefulPartitionedCall/audio_feature_model_1/StatefulPartitionedCall/StatefulPartitionedCall/HiddenMarkovModel/posterior_mode/zeros/Const", "op": "Const", "input": ["^StatefulPartitionedCall/audio_feature_model_1/StatefulPartitionedCall/StatefulPartitionedCall/Reshape_1"], "attr": {"dtype": {"type": "DT_INT64"}, "value": {"tensor": {"dtype": "DT_INT64", "tensorShape": {}}}}}, {"name": "StatefulPartitionedCall/audio_feature_model_1/StatefulPartitionedCall/StatefulPartitionedCall/HiddenMarkovModel/posterior_mode/forward_log_probs/TensorArrayV2_1/element_shape", "op": "Const", "input": ["^StatefulPartitionedCall/audio_feature_model_1/StatefulPartitionedCall/StatefulPartitionedCall/Reshape_1"], "attr": {"value": {"tensor": {"dtype": "DT_INT32", "tensorShape": {"dim": [{"size": "2"}]}}}, "dtype": {"type": "DT_INT32"}}}, {"name": "StatefulPartitionedCall/audio_feature_model_1/StatefulPartitionedCall/StatefulPartitionedCall/HiddenMarkovModel/posterior_mode/forward_log_probs/TensorArrayV2_2/element_shape", "op": "Const", "input": ["^StatefulPartitionedCall/audio_feature_model_1/StatefulPartitionedCall/StatefulPartitionedCall/Reshape_1"], "attr": {"value": {"tensor": {"dtype": "DT_INT32", "tensorShape": {"dim": [{"size": "2"}]}}}, "dtype": {"type": "DT_INT32"}}}, {"name": "StatefulPartitionedCall/audio_feature_model_1/StatefulPartitionedCall/StatefulPartitionedCall/HiddenMarkovModel/posterior_mode/forward_log_probs/strided_slice/stack", "op": "Const", "input": ["^StatefulPartitionedCall/audio_feature_model_1/StatefulPartitionedCall/StatefulPartitionedCall/Reshape_1"], "attr": {"dtype": {"type": "DT_INT32"}, "value": {"tensor": {"dtype": "DT_INT32", "tensorShape": {"dim": [{"size": "1"}]}}}}}, {"name": "StatefulPartitionedCall/audio_feature_model_1/StatefulPartitionedCall/StatefulPartitionedCall/HiddenMarkovModel/posterior_mode/forward_log_probs/strided_slice/stack_1", "op": "Const", "input": ["^StatefulPartitionedCall/audio_feature_model_1/StatefulPartitionedCall/StatefulPartitionedCall/Reshape_1"], "attr": {"value": {"tensor": {"dtype": "DT_INT32", "tensorShape": {"dim": [{"size": "1"}]}}}, "dtype": {"type": "DT_INT32"}}}, {"name": "StatefulPartitionedCall/audio_feature_model_1/StatefulPartitionedCall/StatefulPartitionedCall/HiddenMarkovModel/posterior_mode/forward_log_probs/strided_slice/stack_2", "op": "Const", "input": ["^StatefulPartitionedCall/audio_feature_model_1/StatefulPartitionedCall/StatefulPartitionedCall/Reshape_1"], "attr": {"dtype": {"type": "DT_INT32"}, "value": {"tensor": {"dtype": "DT_INT32", "tensorShape": {"dim": [{"size": "1"}]}}}}}, {"name": "StatefulPartitionedCall/audio_feature_model_1/StatefulPartitionedCall/StatefulPartitionedCall/HiddenMarkovModel/posterior_mode/Multinomial/log_prob/Log", "op": "Log", "input": ["StatefulPartitionedCall/audio_feature_model_1/StatefulPartitionedCall/StatefulPartitionedCall/strided_slice_3", "^StatefulPartitionedCall/audio_feature_model_1/StatefulPartitionedCall/StatefulPartitionedCall/Reshape_1"], "attr": {"T": {"type": "DT_FLOAT"}}}, {"name": "StatefulPartitionedCall/audio_feature_model_1/StatefulPartitionedCall/StatefulPartitionedCall/HiddenMarkovModel/posterior_mode/Multinomial/log_prob/Sum/reduction_indices", "op": "Const", "input": ["^StatefulPartitionedCall/audio_feature_model_1/StatefulPartitionedCall/StatefulPartitionedCall/Reshape_1"], "attr": {"value": {"tensor": {"dtype": "DT_INT32", "tensorShape": {}}}, "dtype": {"type": "DT_INT32"}}}, {"name": "StatefulPartitionedCall/audio_feature_model_1/StatefulPartitionedCall/StatefulPartitionedCall/HiddenMarkovModel/posterior_mode/strided_slice_2/stack", "op": "Const", "input": ["^StatefulPartitionedCall/audio_feature_model_1/StatefulPartitionedCall/StatefulPartitionedCall/Reshape_1"], "attr": {"value": {"tensor": {"dtype": "DT_INT32", "tensorShape": {"dim": [{"size": "1"}]}}}, "dtype": {"type": "DT_INT32"}}}, {"name": "StatefulPartitionedCall/audio_feature_model_1/StatefulPartitionedCall/StatefulPartitionedCall/HiddenMarkovModel/posterior_mode/strided_slice_2/stack_1", "op": "Const", "input": ["^StatefulPartitionedCall/audio_feature_model_1/StatefulPartitionedCall/StatefulPartitionedCall/Reshape_1"], "attr": {"dtype": {"type": "DT_INT32"}, "value": {"tensor": {"dtype": "DT_INT32", "tensorShape": {"dim": [{"size": "1"}]}}}}}, {"name": "StatefulPartitionedCall/audio_feature_model_1/StatefulPartitionedCall/StatefulPartitionedCall/HiddenMarkovModel/posterior_mode/strided_slice_2/stack_2", "op": "Const", "input": ["^StatefulPartitionedCall/audio_feature_model_1/StatefulPartitionedCall/StatefulPartitionedCall/Reshape_1"], "attr": {"dtype": {"type": "DT_INT32"}, "value": {"tensor": {"dtype": "DT_INT32", "tensorShape": {"dim": [{"size": "1"}]}}}}}, {"name": "StatefulPartitionedCall/audio_feature_model_1/StatefulPartitionedCall/StatefulPartitionedCall/HiddenMarkovModel/posterior_mode/HiddenMarkovModel/batch_shape_tensor/Const", "op": "Const", "input": ["^StatefulPartitionedCall/audio_feature_model_1/StatefulPartitionedCall/StatefulPartitionedCall/Reshape_1"], "attr": {"dtype": {"type": "DT_INT32"}, "value": {"tensor": {"dtype": "DT_INT32", "tensorShape": {"dim": [{"size": "1"}]}}}}}, {"name": "StatefulPartitionedCall/audio_feature_model_1/StatefulPartitionedCall/StatefulPartitionedCall/HiddenMarkovModel/posterior_mode/strided_slice_3/stack", "op": "Const", "input": ["^StatefulPartitionedCall/audio_feature_model_1/StatefulPartitionedCall/StatefulPartitionedCall/Reshape_1"], "attr": {"value": {"tensor": {"dtype": "DT_INT32", "tensorShape": {"dim": [{"size": "1"}]}}}, "dtype": {"type": "DT_INT32"}}}, {"name": "StatefulPartitionedCall/audio_feature_model_1/StatefulPartitionedCall/StatefulPartitionedCall/HiddenMarkovModel/posterior_mode/strided_slice_3/stack_1", "op": "Const", "input": ["^StatefulPartitionedCall/audio_feature_model_1/StatefulPartitionedCall/StatefulPartitionedCall/Reshape_1"], "attr": {"dtype": {"type": "DT_INT32"}, "value": {"tensor": {"dtype": "DT_INT32", "tensorShape": {"dim": [{"size": "1"}]}}}}}, {"name": "StatefulPartitionedCall/audio_feature_model_1/StatefulPartitionedCall/StatefulPartitionedCall/HiddenMarkovModel/posterior_mode/strided_slice_3/stack_2", "op": "Const", "input": ["^StatefulPartitionedCall/audio_feature_model_1/StatefulPartitionedCall/StatefulPartitionedCall/Reshape_1"], "attr": {"value": {"tensor": {"dtype": "DT_INT32", "tensorShape": {"dim": [{"size": "1"}]}}}, "dtype": {"type": "DT_INT32"}}}, {"name": "StatefulPartitionedCall/audio_feature_model_1/StatefulPartitionedCall/StatefulPartitionedCall/HiddenMarkovModel/posterior_mode/concat/axis", "op": "Const", "input": ["^StatefulPartitionedCall/audio_feature_model_1/StatefulPartitionedCall/StatefulPartitionedCall/Reshape_1"], "attr": {"dtype": {"type": "DT_INT32"}, "value": {"tensor": {"dtype": "DT_INT32", "tensorShape": {}}}}}, {"name": "StatefulPartitionedCall/audio_feature_model_1/StatefulPartitionedCall/StatefulPartitionedCall/HiddenMarkovModel/posterior_mode/concat_1", "op": "Const", "input": ["^StatefulPartitionedCall/audio_feature_model_1/StatefulPartitionedCall/StatefulPartitionedCall/Reshape_1"], "attr": {"dtype": {"type": "DT_INT64"}, "value": {"tensor": {"dtype": "DT_INT64", "tensorShape": {"dim": [{"size": "3"}]}}}}}, {"name": "StatefulPartitionedCall/audio_feature_model_1/StatefulPartitionedCall/StatefulPartitionedCall/HiddenMarkovModel/posterior_mode/ExpandDims/dim", "op": "Const", "input": ["^StatefulPartitionedCall/audio_feature_model_1/StatefulPartitionedCall/StatefulPartitionedCall/Reshape_1"], "attr": {"dtype": {"type": "DT_INT32"}, "value": {"tensor": {"dtype": "DT_INT32", "tensorShape": {}}}}}, {"name": "StatefulPartitionedCall/audio_feature_model_1/StatefulPartitionedCall/StatefulPartitionedCall/HiddenMarkovModel/posterior_mode/Multinomial/log_prob/log_combinations/add_1/y", "op": "Const", "input": ["^StatefulPartitionedCall/audio_feature_model_1/StatefulPartitionedCall/StatefulPartitionedCall/Reshape_1"], "attr": {"dtype": {"type": "DT_FLOAT"}, "value": {"tensor": {"dtype": "DT_FLOAT", "tensorShape": {}}}}}, {"name": "StatefulPartitionedCall/audio_feature_model_1/StatefulPartitionedCall/StatefulPartitionedCall/HiddenMarkovModel/posterior_mode/Multinomial/log_prob/log_combinations/Sum/reduction_indices", "op": "Const", "input": ["^StatefulPartitionedCall/audio_feature_model_1/StatefulPartitionedCall/StatefulPartitionedCall/Reshape_1"], "attr": {"dtype": {"type": "DT_INT32"}, "value": {"tensor": {"dtype": "DT_INT32", "tensorShape": {}}}}}, {"name": "StatefulPartitionedCall/audio_feature_model_1/StatefulPartitionedCall/StatefulPartitionedCall/HiddenMarkovModel/posterior_mode/strided_slice_5/stack", "op": "Const", "input": ["^StatefulPartitionedCall/audio_feature_model_1/StatefulPartitionedCall/StatefulPartitionedCall/Reshape_1"], "attr": {"value": {"tensor": {"dtype": "DT_INT32", "tensorShape": {"dim": [{"size": "1"}]}}}, "dtype": {"type": "DT_INT32"}}}, {"name": "StatefulPartitionedCall/audio_feature_model_1/StatefulPartitionedCall/StatefulPartitionedCall/HiddenMarkovModel/posterior_mode/strided_slice_5/stack_1", "op": "Const", "input": ["^StatefulPartitionedCall/audio_feature_model_1/StatefulPartitionedCall/StatefulPartitionedCall/Reshape_1"], "attr": {"dtype": {"type": "DT_INT32"}, "value": {"tensor": {"dtype": "DT_INT32", "tensorShape": {"dim": [{"size": "1"}]}}}}}, {"name": "StatefulPartitionedCall/audio_feature_model_1/StatefulPartitionedCall/StatefulPartitionedCall/HiddenMarkovModel/posterior_mode/strided_slice_5/stack_2", "op": "Const", "input": ["^StatefulPartitionedCall/audio_feature_model_1/StatefulPartitionedCall/StatefulPartitionedCall/Reshape_1"], "attr": {"dtype": {"type": "DT_INT32"}, "value": {"tensor": {"dtype": "DT_INT32", "tensorShape": {"dim": [{"size": "1"}]}}}}}, {"name": "StatefulPartitionedCall/audio_feature_model_1/StatefulPartitionedCall/StatefulPartitionedCall/HiddenMarkovModel/posterior_mode/forward_log_probs/TensorArrayUnstack/TensorListFromTensor/element_shape", "op": "Const", "input": ["^StatefulPartitionedCall/audio_feature_model_1/StatefulPartitionedCall/StatefulPartitionedCall/Reshape_1"], "attr": {"dtype": {"type": "DT_INT32"}, "value": {"tensor": {"dtype": "DT_INT32", "tensorShape": {"dim": [{"size": "2"}]}}}}}, {"name": "StatefulPartitionedCall/audio_feature_model_1/StatefulPartitionedCall/StatefulPartitionedCall/HiddenMarkovModel/posterior_mode/Categorical_1/log_prob/Categorical_1/logits_parameter/Log", "op": "Log", "input": ["StatefulPartitionedCall/audio_feature_model_1/StatefulPartitionedCall/StatefulPartitionedCall/truediv_3", "^StatefulPartitionedCall/audio_feature_model_1/StatefulPartitionedCall/StatefulPartitionedCall/Reshape_1"], "attr": {"T": {"type": "DT_FLOAT"}}}, {"name": "StatefulPartitionedCall/audio_feature_model_1/StatefulPartitionedCall/StatefulPartitionedCall/HiddenMarkovModel/posterior_mode/Categorical_1/log_prob/ones_like/Shape/shape_as_tensor", "op": "Const", "input": ["^StatefulPartitionedCall/audio_feature_model_1/StatefulPartitionedCall/StatefulPartitionedCall/Reshape_1"], "attr": {"dtype": {"type": "DT_INT32"}, "value": {"tensor": {"dtype": "DT_INT32", "tensorShape": {"dim": [{"size": "3"}]}}}}}, {"name": "StatefulPartitionedCall/audio_feature_model_1/StatefulPartitionedCall/StatefulPartitionedCall/HiddenMarkovModel/posterior_mode/Categorical_1/log_prob/ones_like/Const", "op": "Const", "input": ["^StatefulPartitionedCall/audio_feature_model_1/StatefulPartitionedCall/StatefulPartitionedCall/Reshape_1"], "attr": {"dtype": {"type": "DT_FLOAT"}, "value": {"tensor": {"dtype": "DT_FLOAT", "tensorShape": {}}}}}, {"name": "StatefulPartitionedCall/audio_feature_model_1/StatefulPartitionedCall/StatefulPartitionedCall/HiddenMarkovModel/posterior_mode/Categorical_1/log_prob/SparseSoftmaxCrossEntropyWithLogits/Reshape/shape", "op": "Const", "input": ["^StatefulPartitionedCall/audio_feature_model_1/StatefulPartitionedCall/StatefulPartitionedCall/Reshape_1"], "attr": {"dtype": {"type": "DT_INT32"}, "value": {"tensor": {"dtype": "DT_INT32", "tensorShape": {"dim": [{"size": "2"}]}}}}}, {"name": "StatefulPartitionedCall/audio_feature_model_1/StatefulPartitionedCall/StatefulPartitionedCall/HiddenMarkovModel/posterior_mode/Reshape_1", "op": "Const", "input": ["^StatefulPartitionedCall/audio_feature_model_1/StatefulPartitionedCall/StatefulPartitionedCall/Reshape_1"], "attr": {"value": {"tensor": {"dtype": "DT_INT32", "tensorShape": {"dim": [{"size": "360"}, {"size": "1"}]}}}, "dtype": {"type": "DT_INT32"}}}, {"name": "ConstantFolding/StatefulPartitionedCall/audio_feature_model_1/StatefulPartitionedCall/StatefulPartitionedCall/HiddenMarkovModel/posterior_mode/Categorical_1/log_prob/mul_1-broadcastto_shape-0", "op": "Const", "input": ["^StatefulPartitionedCall/audio_feature_model_1/StatefulPartitionedCall/StatefulPartitionedCall/Reshape_1"], "attr": {"dtype": {"type": "DT_INT32"}, "value": {"tensor": {"dtype": "DT_INT32", "tensorShape": {"dim": [{"size": "2"}]}}}}}, {"name": "StatefulPartitionedCall/audio_feature_model_1/StatefulPartitionedCall/StatefulPartitionedCall/HiddenMarkovModel/posterior_mode/Categorical_1/log_prob/SparseSoftmaxCrossEntropyWithLogits/Reshape_1/shape", "op": "Const", "input": ["^StatefulPartitionedCall/audio_feature_model_1/StatefulPartitionedCall/StatefulPartitionedCall/Reshape_1"], "attr": {"value": {"tensor": {"dtype": "DT_INT32", "tensorShape": {"dim": [{"size": "1"}]}}}, "dtype": {"type": "DT_INT32"}}}, {"name": "StatefulPartitionedCall/audio_feature_model_1/StatefulPartitionedCall/StatefulPartitionedCall/HiddenMarkovModel/posterior_mode/Categorical_1/log_prob/SparseSoftmaxCrossEntropyWithLogits/Shape", "op": "Const", "input": ["^StatefulPartitionedCall/audio_feature_model_1/StatefulPartitionedCall/StatefulPartitionedCall/Reshape_1"], "attr": {"dtype": {"type": "DT_INT32"}, "value": {"tensor": {"dtype": "DT_INT32", "tensorShape": {"dim": [{"size": "2"}]}}}}}, {"name": "StatefulPartitionedCall/audio_feature_model_1/StatefulPartitionedCall/StatefulPartitionedCall/HiddenMarkovModel/posterior_mode/concat_4", "op": "Const", "input": ["^StatefulPartitionedCall/audio_feature_model_1/StatefulPartitionedCall/StatefulPartitionedCall/Reshape_1"], "attr": {"dtype": {"type": "DT_INT32"}, "value": {"tensor": {"dtype": "DT_INT32", "tensorShape": {"dim": [{"size": "2"}]}}}}}, {"name": "StatefulPartitionedCall/audio_feature_model_1/StatefulPartitionedCall/StatefulPartitionedCall/HiddenMarkovModel/posterior_mode/forward_log_probs/TensorArrayV2Stack/TensorListStack/element_shape", "op": "Const", "input": ["^StatefulPartitionedCall/audio_feature_model_1/StatefulPartitionedCall/StatefulPartitionedCall/Reshape_1"], "attr": {"dtype": {"type": "DT_INT32"}, "value": {"tensor": {"dtype": "DT_INT32", "tensorShape": {"dim": [{"size": "2"}]}}}}}, {"name": "StatefulPartitionedCall/audio_feature_model_1/StatefulPartitionedCall/StatefulPartitionedCall/HiddenMarkovModel/posterior_mode/strided_slice_6/stack", "op": "Const", "input": ["^StatefulPartitionedCall/audio_feature_model_1/StatefulPartitionedCall/StatefulPartitionedCall/Reshape_1"], "attr": {"dtype": {"type": "DT_INT32"}, "value": {"tensor": {"dtype": "DT_INT32", "tensorShape": {"dim": [{"size": "1"}]}}}}}, {"name": "StatefulPartitionedCall/audio_feature_model_1/StatefulPartitionedCall/StatefulPartitionedCall/HiddenMarkovModel/posterior_mode/strided_slice_6/stack_1", "op": "Const", "input": ["^StatefulPartitionedCall/audio_feature_model_1/StatefulPartitionedCall/StatefulPartitionedCall/Reshape_1"], "attr": {"value": {"tensor": {"dtype": "DT_INT32", "tensorShape": {"dim": [{"size": "1"}]}}}, "dtype": {"type": "DT_INT32"}}}, {"name": "StatefulPartitionedCall/audio_feature_model_1/StatefulPartitionedCall/StatefulPartitionedCall/HiddenMarkovModel/posterior_mode/strided_slice_6/stack_2", "op": "Const", "input": ["^StatefulPartitionedCall/audio_feature_model_1/StatefulPartitionedCall/StatefulPartitionedCall/Reshape_1"], "attr": {"dtype": {"type": "DT_INT32"}, "value": {"tensor": {"dtype": "DT_INT32", "tensorShape": {"dim": [{"size": "1"}]}}}}}, {"name": "StatefulPartitionedCall/audio_feature_model_1/StatefulPartitionedCall/StatefulPartitionedCall/HiddenMarkovModel/posterior_mode/ArgMax/dimension", "op": "Const", "input": ["^StatefulPartitionedCall/audio_feature_model_1/StatefulPartitionedCall/StatefulPartitionedCall/Reshape_1"], "attr": {"dtype": {"type": "DT_INT32"}, "value": {"tensor": {"dtype": "DT_INT32", "tensorShape": {}}}}}, {"name": "StatefulPartitionedCall/audio_feature_model_1/StatefulPartitionedCall/StatefulPartitionedCall/HiddenMarkovModel/posterior_mode/concat_5/axis", "op": "Const", "input": ["^StatefulPartitionedCall/audio_feature_model_1/StatefulPartitionedCall/StatefulPartitionedCall/Reshape_1"], "attr": {"dtype": {"type": "DT_INT32"}, "value": {"tensor": {"dtype": "DT_INT32", "tensorShape": {}}}}}, {"name": "StatefulPartitionedCall/audio_feature_model_1/StatefulPartitionedCall/StatefulPartitionedCall/HiddenMarkovModel/posterior_mode/concat_6", "op": "Const", "input": ["^StatefulPartitionedCall/audio_feature_model_1/StatefulPartitionedCall/StatefulPartitionedCall/Reshape_1"], "attr": {"dtype": {"type": "DT_INT32"}, "value": {"tensor": {"dtype": "DT_INT32", "tensorShape": {"dim": [{"size": "2"}]}}}}}, {"name": "StatefulPartitionedCall/audio_feature_model_1/StatefulPartitionedCall/StatefulPartitionedCall/HiddenMarkovModel/posterior_mode/Categorical/log_prob/ones_like", "op": "Fill", "input": ["StatefulPartitionedCall/audio_feature_model_1/StatefulPartitionedCall/StatefulPartitionedCall/HiddenMarkovModel/posterior_mode/Categorical/log_prob/ones_like/Shape/shape_as_tensor", "StatefulPartitionedCall/audio_feature_model_1/StatefulPartitionedCall/StatefulPartitionedCall/HiddenMarkovModel/posterior_mode/Categorical/log_prob/ones_like/Const"], "attr": {"T": {"type": "DT_FLOAT"}, "index_type": {"type": "DT_INT32"}}}, {"name": "StatefulPartitionedCall/audio_feature_model_1/StatefulPartitionedCall/StatefulPartitionedCall/HiddenMarkovModel/posterior_mode/strided_slice_2", "op": "StridedSlice", "input": ["StatefulPartitionedCall/audio_feature_model_1/StatefulPartitionedCall/StatefulPartitionedCall/HiddenMarkovModel/posterior_mode/Shape_1", "StatefulPartitionedCall/audio_feature_model_1/StatefulPartitionedCall/StatefulPartitionedCall/HiddenMarkovModel/posterior_mode/strided_slice_2/stack", "StatefulPartitionedCall/audio_feature_model_1/StatefulPartitionedCall/StatefulPartitionedCall/HiddenMarkovModel/posterior_mode/strided_slice_2/stack_1", "StatefulPartitionedCall/audio_feature_model_1/StatefulPartitionedCall/StatefulPartitionedCall/HiddenMarkovModel/posterior_mode/strided_slice_2/stack_2"], "attr": {"T": {"type": "DT_INT32"}, "Index": {"type": "DT_INT32"}, "shrink_axis_mask": {"i": "0"}, "begin_mask": {"i": "1"}, "new_axis_mask": {"i": "0"}, "ellipsis_mask": {"i": "0"}, "end_mask": {"i": "0"}}}, {"name": "StatefulPartitionedCall/audio_feature_model_1/StatefulPartitionedCall/StatefulPartitionedCall/HiddenMarkovModel/posterior_mode/strided_slice_3", "op": "StridedSlice", "input": ["StatefulPartitionedCall/audio_feature_model_1/StatefulPartitionedCall/StatefulPartitionedCall/HiddenMarkovModel/posterior_mode/Shape_1", "StatefulPartitionedCall/audio_feature_model_1/StatefulPartitionedCall/StatefulPartitionedCall/HiddenMarkovModel/posterior_mode/strided_slice_3/stack", "StatefulPartitionedCall/audio_feature_model_1/StatefulPartitionedCall/StatefulPartitionedCall/HiddenMarkovModel/posterior_mode/strided_slice_3/stack_1", "StatefulPartitionedCall/audio_feature_model_1/StatefulPartitionedCall/StatefulPartitionedCall/HiddenMarkovModel/posterior_mode/strided_slice_3/stack_2"], "attr": {"shrink_axis_mask": {"i": "0"}, "ellipsis_mask": {"i": "0"}, "new_axis_mask": {"i": "0"}, "begin_mask": {"i": "0"}, "end_mask": {"i": "1"}, "Index": {"type": "DT_INT32"}, "T": {"type": "DT_INT32"}}}, {"name": "StatefulPartitionedCall/audio_feature_model_1/StatefulPartitionedCall/StatefulPartitionedCall/HiddenMarkovModel/posterior_mode/Categorical_1/log_prob/ones_like", "op": "Fill", "input": ["StatefulPartitionedCall/audio_feature_model_1/StatefulPartitionedCall/StatefulPartitionedCall/HiddenMarkovModel/posterior_mode/Categorical_1/log_prob/ones_like/Shape/shape_as_tensor", "StatefulPartitionedCall/audio_feature_model_1/StatefulPartitionedCall/StatefulPartitionedCall/HiddenMarkovModel/posterior_mode/Categorical_1/log_prob/ones_like/Const"], "attr": {"T": {"type": "DT_FLOAT"}, "index_type": {"type": "DT_INT32"}}}, {"name": "StatefulPartitionedCall/audio_feature_model_1/StatefulPartitionedCall/StatefulPartitionedCall/HiddenMarkovModel/posterior_mode/Categorical_1/log_prob/mul_1", "op": "BroadcastTo", "input": ["StatefulPartitionedCall/audio_feature_model_1/StatefulPartitionedCall/StatefulPartitionedCall/HiddenMarkovModel/posterior_mode/Reshape_1", "ConstantFolding/StatefulPartitionedCall/audio_feature_model_1/StatefulPartitionedCall/StatefulPartitionedCall/HiddenMarkovModel/posterior_mode/Categorical_1/log_prob/mul_1-broadcastto_shape-0"], "attr": {"T": {"type": "DT_INT32"}, "Tidx": {"type": "DT_INT32"}}}, {"name": "StatefulPartitionedCall/audio_feature_model_1/StatefulPartitionedCall/StatefulPartitionedCall/HiddenMarkovModel/posterior_mode/Categorical/log_prob/mul", "op": "Mul", "input": ["StatefulPartitionedCall/audio_feature_model_1/StatefulPartitionedCall/StatefulPartitionedCall/HiddenMarkovModel/posterior_mode/Categorical/log_prob/Categorical/logits_parameter/Log", "StatefulPartitionedCall/audio_feature_model_1/StatefulPartitionedCall/StatefulPartitionedCall/HiddenMarkovModel/posterior_mode/Categorical/log_prob/ones_like"], "attr": {"T": {"type": "DT_FLOAT"}}}, {"name": "StatefulPartitionedCall/audio_feature_model_1/StatefulPartitionedCall/StatefulPartitionedCall/HiddenMarkovModel/posterior_mode/BroadcastArgs", "op": "BroadcastArgs", "input": ["StatefulPartitionedCall/audio_feature_model_1/StatefulPartitionedCall/StatefulPartitionedCall/HiddenMarkovModel/posterior_mode/strided_slice_2", "StatefulPartitionedCall/audio_feature_model_1/StatefulPartitionedCall/StatefulPartitionedCall/HiddenMarkovModel/posterior_mode/HiddenMarkovModel/batch_shape_tensor/Const"], "attr": {"T": {"type": "DT_INT32"}}}, {"name": "StatefulPartitionedCall/audio_feature_model_1/StatefulPartitionedCall/StatefulPartitionedCall/HiddenMarkovModel/posterior_mode/Categorical_1/log_prob/mul", "op": "Mul", "input": ["StatefulPartitionedCall/audio_feature_model_1/StatefulPartitionedCall/StatefulPartitionedCall/HiddenMarkovModel/posterior_mode/Categorical_1/log_prob/Categorical_1/logits_parameter/Log", "StatefulPartitionedCall/audio_feature_model_1/StatefulPartitionedCall/StatefulPartitionedCall/HiddenMarkovModel/posterior_mode/Categorical_1/log_prob/ones_like"], "attr": {"T": {"type": "DT_FLOAT"}}}, {"name": "StatefulPartitionedCall/audio_feature_model_1/StatefulPartitionedCall/StatefulPartitionedCall/HiddenMarkovModel/posterior_mode/Categorical_1/log_prob/SparseSoftmaxCrossEntropyWithLogits/Reshape_1", "op": "Reshape", "input": ["StatefulPartitionedCall/audio_feature_model_1/StatefulPartitionedCall/StatefulPartitionedCall/HiddenMarkovModel/posterior_mode/Categorical_1/log_prob/mul_1", "StatefulPartitionedCall/audio_feature_model_1/StatefulPartitionedCall/StatefulPartitionedCall/HiddenMarkovModel/posterior_mode/Categorical_1/log_prob/SparseSoftmaxCrossEntropyWithLogits/Reshape_1/shape"], "attr": {"Tshape": {"type": "DT_INT32"}, "T": {"type": "DT_INT32"}}}, {"name": "StatefulPartitionedCall/audio_feature_model_1/StatefulPartitionedCall/StatefulPartitionedCall/HiddenMarkovModel/posterior_mode/Categorical/log_prob/SparseSoftmaxCrossEntropyWithLogits/SparseSoftmaxCrossEntropyWithLogits", "op": "SparseSoftmaxCrossEntropyWithLogits", "input": ["StatefulPartitionedCall/audio_feature_model_1/StatefulPartitionedCall/StatefulPartitionedCall/HiddenMarkovModel/posterior_mode/Categorical/log_prob/mul", "StatefulPartitionedCall/audio_feature_model_1/StatefulPartitionedCall/StatefulPartitionedCall/HiddenMarkovModel/posterior_mode/Categorical/log_prob/mul_1"], "attr": {"Tlabels": {"type": "DT_INT32"}, "T": {"type": "DT_FLOAT"}}}, {"name": "StatefulPartitionedCall/audio_feature_model_1/StatefulPartitionedCall/StatefulPartitionedCall/HiddenMarkovModel/posterior_mode/concat", "op": "ConcatV2", "input": ["StatefulPartitionedCall/audio_feature_model_1/StatefulPartitionedCall/StatefulPartitionedCall/HiddenMarkovModel/posterior_mode/BroadcastArgs", "StatefulPartitionedCall/audio_feature_model_1/StatefulPartitionedCall/StatefulPartitionedCall/HiddenMarkovModel/posterior_mode/strided_slice_3", "StatefulPartitionedCall/audio_feature_model_1/StatefulPartitionedCall/StatefulPartitionedCall/HiddenMarkovModel/posterior_mode/concat/axis"], "attr": {"Tidx": {"type": "DT_INT32"}, "T": {"type": "DT_INT32"}, "N": {"i": "2"}}}, {"name": "StatefulPartitionedCall/audio_feature_model_1/StatefulPartitionedCall/StatefulPartitionedCall/HiddenMarkovModel/posterior_mode/Categorical_1/log_prob/SparseSoftmaxCrossEntropyWithLogits/Reshape", "op": "Reshape", "input": ["StatefulPartitionedCall/audio_feature_model_1/StatefulPartitionedCall/StatefulPartitionedCall/HiddenMarkovModel/posterior_mode/Categorical_1/log_prob/mul", "StatefulPartitionedCall/audio_feature_model_1/StatefulPartitionedCall/StatefulPartitionedCall/HiddenMarkovModel/posterior_mode/Categorical_1/log_prob/SparseSoftmaxCrossEntropyWithLogits/Reshape/shape"], "attr": {"T": {"type": "DT_FLOAT"}, "Tshape": {"type": "DT_INT32"}}}, {"name": "StatefulPartitionedCall/audio_feature_model_1/StatefulPartitionedCall/StatefulPartitionedCall/HiddenMarkovModel/posterior_mode/BroadcastTo", "op": "BroadcastTo", "input": ["StatefulPartitionedCall/audio_feature_model_1/StatefulPartitionedCall/StatefulPartitionedCall/Reshape_1", "StatefulPartitionedCall/audio_feature_model_1/StatefulPartitionedCall/StatefulPartitionedCall/HiddenMarkovModel/posterior_mode/concat"], "attr": {"T": {"type": "DT_FLOAT"}, "Tidx": {"type": "DT_INT32"}}}, {"name": "StatefulPartitionedCall/audio_feature_model_1/StatefulPartitionedCall/StatefulPartitionedCall/HiddenMarkovModel/posterior_mode/Categorical_1/log_prob/SparseSoftmaxCrossEntropyWithLogits/SparseSoftmaxCrossEntropyWithLogits", "op": "SparseSoftmaxCrossEntropyWithLogits", "input": ["StatefulPartitionedCall/audio_feature_model_1/StatefulPartitionedCall/StatefulPartitionedCall/HiddenMarkovModel/posterior_mode/Categorical_1/log_prob/SparseSoftmaxCrossEntropyWithLogits/Reshape", "StatefulPartitionedCall/audio_feature_model_1/StatefulPartitionedCall/StatefulPartitionedCall/HiddenMarkovModel/posterior_mode/Categorical_1/log_prob/SparseSoftmaxCrossEntropyWithLogits/Reshape_1"], "attr": {"Tlabels": {"type": "DT_INT32"}, "T": {"type": "DT_FLOAT"}}}, {"name": "StatefulPartitionedCall/audio_feature_model_1/StatefulPartitionedCall/StatefulPartitionedCall/HiddenMarkovModel/posterior_mode/transpose", "op": "Transpose", "input": ["StatefulPartitionedCall/audio_feature_model_1/StatefulPartitionedCall/StatefulPartitionedCall/HiddenMarkovModel/posterior_mode/BroadcastTo", "StatefulPartitionedCall/audio_feature_model_1/StatefulPartitionedCall/StatefulPartitionedCall/HiddenMarkovModel/posterior_mode/concat_1"], "attr": {"Tperm": {"type": "DT_INT64"}, "T": {"type": "DT_FLOAT"}}}, {"name": "StatefulPartitionedCall/audio_feature_model_1/StatefulPartitionedCall/StatefulPartitionedCall/HiddenMarkovModel/posterior_mode/Categorical_1/log_prob/SparseSoftmaxCrossEntropyWithLogits/Reshape_2", "op": "Reshape", "input": ["StatefulPartitionedCall/audio_feature_model_1/StatefulPartitionedCall/StatefulPartitionedCall/HiddenMarkovModel/posterior_mode/Categorical_1/log_prob/SparseSoftmaxCrossEntropyWithLogits/SparseSoftmaxCrossEntropyWithLogits", "StatefulPartitionedCall/audio_feature_model_1/StatefulPartitionedCall/StatefulPartitionedCall/HiddenMarkovModel/posterior_mode/Categorical_1/log_prob/SparseSoftmaxCrossEntropyWithLogits/Shape"], "attr": {"T": {"type": "DT_FLOAT"}, "Tshape": {"type": "DT_INT32"}}}, {"name": "StatefulPartitionedCall/audio_feature_model_1/StatefulPartitionedCall/StatefulPartitionedCall/HiddenMarkovModel/posterior_mode/ExpandDims", "op": "ExpandDims", "input": ["StatefulPartitionedCall/audio_feature_model_1/StatefulPartitionedCall/StatefulPartitionedCall/HiddenMarkovModel/posterior_mode/transpose", "StatefulPartitionedCall/audio_feature_model_1/StatefulPartitionedCall/StatefulPartitionedCall/HiddenMarkovModel/posterior_mode/ExpandDims/dim"], "attr": {"T": {"type": "DT_FLOAT"}, "Tdim": {"type": "DT_INT32"}}}, {"name": "StatefulPartitionedCall/audio_feature_model_1/StatefulPartitionedCall/StatefulPartitionedCall/HiddenMarkovModel/posterior_mode/Categorical_1/log_prob/Neg", "op": "Neg", "input": ["StatefulPartitionedCall/audio_feature_model_1/StatefulPartitionedCall/StatefulPartitionedCall/HiddenMarkovModel/posterior_mode/Categorical_1/log_prob/SparseSoftmaxCrossEntropyWithLogits/Reshape_2"], "attr": {"T": {"type": "DT_FLOAT"}}}, {"name": "StatefulPartitionedCall/audio_feature_model_1/StatefulPartitionedCall/StatefulPartitionedCall/HiddenMarkovModel/posterior_mode/Multinomial/log_prob/multiply_no_nan", "op": "MulNoNan", "input": ["StatefulPartitionedCall/audio_feature_model_1/StatefulPartitionedCall/StatefulPartitionedCall/HiddenMarkovModel/posterior_mode/Multinomial/log_prob/Log", "StatefulPartitionedCall/audio_feature_model_1/StatefulPartitionedCall/StatefulPartitionedCall/HiddenMarkovModel/posterior_mode/ExpandDims"], "attr": {"T": {"type": "DT_FLOAT"}}}, {"name": "StatefulPartitionedCall/audio_feature_model_1/StatefulPartitionedCall/StatefulPartitionedCall/HiddenMarkovModel/posterior_mode/Multinomial/log_prob/log_combinations/add_1", "op": "AddV2", "input": ["StatefulPartitionedCall/audio_feature_model_1/StatefulPartitionedCall/StatefulPartitionedCall/HiddenMarkovModel/posterior_mode/ExpandDims", "StatefulPartitionedCall/audio_feature_model_1/StatefulPartitionedCall/StatefulPartitionedCall/HiddenMarkovModel/posterior_mode/Multinomial/log_prob/log_combinations/add_1/y"], "attr": {"T": {"type": "DT_FLOAT"}}}, {"name": "StatefulPartitionedCall/audio_feature_model_1/StatefulPartitionedCall/StatefulPartitionedCall/HiddenMarkovModel/posterior_mode/transpose_1", "op": "Transpose", "input": ["StatefulPartitionedCall/audio_feature_model_1/StatefulPartitionedCall/StatefulPartitionedCall/HiddenMarkovModel/posterior_mode/Categorical_1/log_prob/Neg", "StatefulPartitionedCall/audio_feature_model_1/StatefulPartitionedCall/StatefulPartitionedCall/HiddenMarkovModel/posterior_mode/concat_4"], "attr": {"T": {"type": "DT_FLOAT"}, "Tperm": {"type": "DT_INT32"}}}, {"name": "StatefulPartitionedCall/audio_feature_model_1/StatefulPartitionedCall/StatefulPartitionedCall/HiddenMarkovModel/posterior_mode/Multinomial/log_prob/Sum", "op": "Sum", "input": ["StatefulPartitionedCall/audio_feature_model_1/StatefulPartitionedCall/StatefulPartitionedCall/HiddenMarkovModel/posterior_mode/Multinomial/log_prob/multiply_no_nan", "StatefulPartitionedCall/audio_feature_model_1/StatefulPartitionedCall/StatefulPartitionedCall/HiddenMarkovModel/posterior_mode/Multinomial/log_prob/Sum/reduction_indices"], "attr": {"Tidx": {"type": "DT_INT32"}, "T": {"type": "DT_FLOAT"}, "keep_dims": {"b": false}}}, {"name": "StatefulPartitionedCall/audio_feature_model_1/StatefulPartitionedCall/StatefulPartitionedCall/HiddenMarkovModel/posterior_mode/Multinomial/log_prob/log_combinations/Lgamma_1", "op": "Lgamma", "input": ["StatefulPartitionedCall/audio_feature_model_1/StatefulPartitionedCall/StatefulPartitionedCall/HiddenMarkovModel/posterior_mode/Multinomial/log_prob/log_combinations/add_1"], "attr": {"T": {"type": "DT_FLOAT"}}}, {"name": "StatefulPartitionedCall/audio_feature_model_1/StatefulPartitionedCall/StatefulPartitionedCall/HiddenMarkovModel/posterior_mode/Multinomial/log_prob/log_combinations/Sum", "op": "Sum", "input": ["StatefulPartitionedCall/audio_feature_model_1/StatefulPartitionedCall/StatefulPartitionedCall/HiddenMarkovModel/posterior_mode/Multinomial/log_prob/log_combinations/Lgamma_1", "StatefulPartitionedCall/audio_feature_model_1/StatefulPartitionedCall/StatefulPartitionedCall/HiddenMarkovModel/posterior_mode/Multinomial/log_prob/log_combinations/Sum/reduction_indices"], "attr": {"Tidx": {"type": "DT_INT32"}, "keep_dims": {"b": false}, "T": {"type": "DT_FLOAT"}}}, {"name": "StatefulPartitionedCall/audio_feature_model_1/StatefulPartitionedCall/StatefulPartitionedCall/HiddenMarkovModel/posterior_mode/Multinomial/log_prob/add", "op": "Sub", "input": ["StatefulPartitionedCall/audio_feature_model_1/StatefulPartitionedCall/StatefulPartitionedCall/HiddenMarkovModel/posterior_mode/Multinomial/log_prob/Sum", "StatefulPartitionedCall/audio_feature_model_1/StatefulPartitionedCall/StatefulPartitionedCall/HiddenMarkovModel/posterior_mode/Multinomial/log_prob/log_combinations/Sum"], "attr": {"T": {"type": "DT_FLOAT"}}}, {"name": "StatefulPartitionedCall/audio_feature_model_1/StatefulPartitionedCall/StatefulPartitionedCall/HiddenMarkovModel/posterior_mode/strided_slice_4", "op": "StridedSlice", "input": ["StatefulPartitionedCall/audio_feature_model_1/StatefulPartitionedCall/StatefulPartitionedCall/HiddenMarkovModel/posterior_mode/Multinomial/log_prob/add", "StatefulPartitionedCall/audio_feature_model_1/StatefulPartitionedCall/StatefulPartitionedCall/HiddenMarkovModel/posterior_mode/strided_slice_4/stack", "StatefulPartitionedCall/audio_feature_model_1/StatefulPartitionedCall/StatefulPartitionedCall/HiddenMarkovModel/posterior_mode/strided_slice_4/stack_1", "StatefulPartitionedCall/audio_feature_model_1/StatefulPartitionedCall/StatefulPartitionedCall/HiddenMarkovModel/posterior_mode/strided_slice_4/stack_2"], "attr": {"new_axis_mask": {"i": "0"}, "Index": {"type": "DT_INT32"}, "shrink_axis_mask": {"i": "1"}, "end_mask": {"i": "0"}, "ellipsis_mask": {"i": "0"}, "T": {"type": "DT_FLOAT"}, "begin_mask": {"i": "0"}}}, {"name": "StatefulPartitionedCall/audio_feature_model_1/StatefulPartitionedCall/StatefulPartitionedCall/HiddenMarkovModel/posterior_mode/strided_slice_5", "o…
titionedCall/processor_group_1/filtered_noise/overlap_and_add/concat_3", "shape": [3], "dtype": "int32"}, {"name": "StatefulPartitionedCall/StatefulPartitionedCall/StatefulPartitionedCall/autoencoder_inference/StatefulPartitionedCall/processor_group_1/filtered_noise/overlap_and_add/strided_slice/stack", "shape": [3], "dtype": "int32"}, {"name": "StatefulPartitionedCall/StatefulPartitionedCall/StatefulPartitionedCall/autoencoder_inference/StatefulPartitionedCall/processor_group_1/filtered_noise/overlap_and_add/strided_slice/stack_1", "shape": [3], "dtype": "int32"}, {"name": "StatefulPartitionedCall/StatefulPartitionedCall/StatefulPartitionedCall/autoencoder_inference/StatefulPartitionedCall/processor_group_1/filtered_noise/overlap_and_add/strided_slice/stack_2", "shape": [3], "dtype": "int32"}, {"name": "StatefulPartitionedCall/StatefulPartitionedCall/StatefulPartitionedCall/autoencoder_inference/StatefulPartitionedCall/processor_group_1/filtered_noise/overlap_and_add/concat_4", "shape": [4], "dtype": "int32"}, {"name": "StatefulPartitionedCall/StatefulPartitionedCall/StatefulPartitionedCall/autoencoder_inference/StatefulPartitionedCall/processor_group_1/filtered_noise/overlap_and_add/Sum/reduction_indices", "shape": [], "dtype": "int32"}, {"name": "StatefulPartitionedCall/StatefulPartitionedCall/StatefulPartitionedCall/autoencoder_inference/StatefulPartitionedCall/processor_group_1/filtered_noise/overlap_and_add/concat_5", "shape": [2], "dtype": "int32"}, {"name": "StatefulPartitionedCall/StatefulPartitionedCall/StatefulPartitionedCall/autoencoder_inference/StatefulPartitionedCall/processor_group_1/filtered_noise/overlap_and_add/strided_slice_1/stack", "shape": [2], "dtype": "int32"}, {"name": "StatefulPartitionedCall/StatefulPartitionedCall/StatefulPartitionedCall/autoencoder_inference/StatefulPartitionedCall/processor_group_1/filtered_noise/overlap_and_add/strided_slice_1/stack_1", "shape": [2], "dtype": "int32"}, {"name": "StatefulPartitionedCall/StatefulPartitionedCall/StatefulPartitionedCall/autoencoder_inference/StatefulPartitionedCall/processor_group_1/filtered_noise/overlap_and_add/strided_slice_1/stack_2", "shape": [2], "dtype": "int32"}, {"name": "StatefulPartitionedCall/StatefulPartitionedCall/StatefulPartitionedCall/autoencoder_inference/StatefulPartitionedCall/processor_group_1/filtered_noise/strided_slice/stack", "shape": [2], "dtype": "int32"}, {"name": "StatefulPartitionedCall/StatefulPartitionedCall/StatefulPartitionedCall/autoencoder_inference/StatefulPartitionedCall/processor_group_1/filtered_noise/strided_slice/stack_1", "shape": [2], "dtype": "int32"}, {"name": "StatefulPartitionedCall/StatefulPartitionedCall/StatefulPartitionedCall/autoencoder_inference/StatefulPartitionedCall/processor_group_1/filtered_noise/strided_slice/stack_2", "shape": [2], "dtype": "int32"}, {"name": "StatefulPartitionedCall/StatefulPartitionedCall/StatefulPartitionedCall/autoencoder_inference/StatefulPartitionedCall/processor_group_1/harmonic/mul/x", "shape": [], "dtype": "float32"}, {"name": "StatefulPartitionedCall/StatefulPartitionedCall/StatefulPartitionedCall/autoencoder_inference/StatefulPartitionedCall/rnn_fc_decoder_1/rnn_1/gru_1/PartitionedCall/while/loop_counter", "shape": [], "dtype": "int32"}, {"name": "StatefulPartitionedCall/StatefulPartitionedCall/StatefulPartitionedCall/autoencoder_inference/StatefulPartitionedCall/rnn_fc_decoder_1/rnn_1/gru_1/PartitionedCall/while/maximum_iterations", "shape": [], "dtype": "int32"}, {"name": "StatefulPartitionedCall/StatefulPartitionedCall/StatefulPartitionedCall/autoencoder_inference/StatefulPartitionedCall/rnn_fc_decoder_1/rnn_1/gru_1/PartitionedCall/time", "shape": [], "dtype": "int32"}, {"name": "StatefulPartitionedCall/StatefulPartitionedCall/StatefulPartitionedCall/autoencoder_inference/StatefulPartitionedCall/rnn_fc_decoder_1/rnn_1/gru_1/PartitionedCall/TensorArrayV2_1/element_shape", "shape": [2], "dtype": "int32"}, {"name": "StatefulPartitionedCall/StatefulPartitionedCall/StatefulPartitionedCall/autoencoder_inference/StatefulPartitionedCall/rnn_fc_decoder_1/rnn_1/gru_1/zeros/packed", "shape": [2], "dtype": "int32"}, {"name": "StatefulPartitionedCall/StatefulPartitionedCall/StatefulPartitionedCall/autoencoder_inference/StatefulPartitionedCall/rnn_fc_decoder_1/rnn_1/gru_1/zeros/Const", "shape": [], "dtype": "float32"}, {"name": "StatefulPartitionedCall/StatefulPartitionedCall/StatefulPartitionedCall/autoencoder_inference/StatefulPartitionedCall/rnn_fc_decoder_1/rnn_1/gru_1/PartitionedCall/strided_slice", "shape": [], "dtype": "int32"}, {"name": "StatefulPartitionedCall/StatefulPartitionedCall/StatefulPartitionedCall/autoencoder_inference/StatefulPartitionedCall/f0_loudness_preprocessor_1/strided_slice_4/stack", "shape": [2], "dtype": "int32"}, {"name": "StatefulPartitionedCall/StatefulPartitionedCall/StatefulPartitionedCall/autoencoder_inference/StatefulPartitionedCall/f0_loudness_preprocessor_1/strided_slice_4/stack_1", "shape": [2], "dtype": "int32"}, {"name": "StatefulPartitionedCall/StatefulPartitionedCall/StatefulPartitionedCall/autoencoder_inference/StatefulPartitionedCall/f0_loudness_preprocessor_1/strided_slice_4/stack_2", "shape": [2], "dtype": "int32"}, {"name": "StatefulPartitionedCall/StatefulPartitionedCall/StatefulPartitionedCall/autoencoder_inference/StatefulPartitionedCall/f0_loudness_preprocessor_1/strided_slice_5/stack", "shape": [3], "dtype": "int32"}, {"name": "StatefulPartitionedCall/StatefulPartitionedCall/StatefulPartitionedCall/autoencoder_inference/StatefulPartitionedCall/f0_loudness_preprocessor_1/strided_slice_5/stack_1", "shape": [3], "dtype": "int32"}, {"name": "StatefulPartitionedCall/StatefulPartitionedCall/StatefulPartitionedCall/autoencoder_inference/StatefulPartitionedCall/f0_loudness_preprocessor_1/strided_slice_5/stack_2", "shape": [3], "dtype": "int32"}, {"name": "StatefulPartitionedCall/StatefulPartitionedCall/StatefulPartitionedCall/autoencoder_inference/StatefulPartitionedCall/f0_loudness_preprocessor_1/strided_slice_6/stack", "shape": [4], "dtype": "int32"}, {"name": "StatefulPartitionedCall/StatefulPartitionedCall/StatefulPartitionedCall/autoencoder_inference/StatefulPartitionedCall/f0_loudness_preprocessor_1/strided_slice_6/stack_1", "shape": [4], "dtype": "int32"}, {"name": "StatefulPartitionedCall/StatefulPartitionedCall/StatefulPartitionedCall/autoencoder_inference/StatefulPartitionedCall/f0_loudness_preprocessor_1/strided_slice_6/stack_2", "shape": [4], "dtype": "int32"}, {"name": "StatefulPartitionedCall/StatefulPartitionedCall/StatefulPartitionedCall/autoencoder_inference/StatefulPartitionedCall/f0_loudness_preprocessor_1/resize_1/size", "shape": [2], "dtype": "int32"}, {"name": "StatefulPartitionedCall/StatefulPartitionedCall/StatefulPartitionedCall/autoencoder_inference/StatefulPartitionedCall/f0_loudness_preprocessor_1/strided_slice_7/stack", "shape": [4], "dtype": "int32"}, {"name": "StatefulPartitionedCall/StatefulPartitionedCall/StatefulPartitionedCall/autoencoder_inference/StatefulPartitionedCall/f0_loudness_preprocessor_1/strided_slice_7/stack_1", "shape": [4], "dtype": "int32"}, {"name": "StatefulPartitionedCall/StatefulPartitionedCall/StatefulPartitionedCall/autoencoder_inference/StatefulPartitionedCall/f0_loudness_preprocessor_1/strided_slice_7/stack_2", "shape": [4], "dtype": "int32"}, {"name": "ConstantFolding/StatefulPartitionedCall/StatefulPartitionedCall/StatefulPartitionedCall/autoencoder_inference/StatefulPartitionedCall/f0_loudness_preprocessor_1/truediv_3_recip", "shape": [], "dtype": "float32"}, {"name": "StatefulPartitionedCall/StatefulPartitionedCall/StatefulPartitionedCall/autoencoder_inference/StatefulPartitionedCall/f0_loudness_preprocessor_1/add_1/y", "shape": [], "dtype": "float32"}, {"name": "StatefulPartitionedCall/StatefulPartitionedCall/StatefulPartitionedCall/autoencoder_inference/StatefulPartitionedCall/rnn_fc_decoder_1/fc_stack_3/fc_9/dense_10/Tensordot/Reshape/shape", "shape": [2], "dtype": "int32"}, {"name": "StatefulPartitionedCall/StatefulPartitionedCall/StatefulPartitionedCall/autoencoder_inference/StatefulPartitionedCall/rnn_fc_decoder_1/fc_stack_3/fc_9/dense_10/Tensordot/shape", "shape": [3], "dtype": "int32"}, {"name": "StatefulPartitionedCall/StatefulPartitionedCall/StatefulPartitionedCall/autoencoder_inference/StatefulPartitionedCall/rnn_fc_decoder_1/fc_stack_3/fc_9/layer_normalization_9/Reshape/shape", "shape": [4], "dtype": "int32"}, {"name": "StatefulPartitionedCall/StatefulPartitionedCall/StatefulPartitionedCall/autoencoder_inference/StatefulPartitionedCall/rnn_fc_decoder_1/fc_stack_3/fc_9/layer_normalization_9/ones/packed", "shape": [1], "dtype": "int32"}, {"name": "StatefulPartitionedCall/StatefulPartitionedCall/StatefulPartitionedCall/autoencoder_inference/StatefulPartitionedCall/rnn_fc_decoder_1/fc_stack_3/fc_9/layer_normalization_9/ones/Const", "shape": [], "dtype": "float32"}, {"name": "StatefulPartitionedCall/StatefulPartitionedCall/StatefulPartitionedCall/autoencoder_inference/StatefulPartitionedCall/rnn_fc_decoder_1/fc_stack_3/fc_9/layer_normalization_9/zeros/packed", "shape": [1], "dtype": "int32"}, {"name": "StatefulPartitionedCall/StatefulPartitionedCall/StatefulPartitionedCall/autoencoder_inference/StatefulPartitionedCall/rnn_fc_decoder_1/fc_stack_3/fc_9/layer_normalization_9/zeros/Const", "shape": [], "dtype": "float32"}, {"name": "StatefulPartitionedCall/StatefulPartitionedCall/StatefulPartitionedCall/autoencoder_inference/StatefulPartitionedCall/rnn_fc_decoder_1/fc_stack_3/fc_9/layer_normalization_9/Const", "shape": [0], "dtype": "float32"}, {"name": "StatefulPartitionedCall/StatefulPartitionedCall/StatefulPartitionedCall/autoencoder_inference/StatefulPartitionedCall/rnn_fc_decoder_1/fc_stack_3/fc_9/layer_normalization_9/Const_1", "shape": [0], "dtype": "float32"}, {"name": "StatefulPartitionedCall/StatefulPartitionedCall/StatefulPartitionedCall/autoencoder_inference/StatefulPartitionedCall/rnn_fc_decoder_1/fc_stack_3/fc_9/layer_normalization_9/Shape", "shape": [3], "dtype": "int32"}, {"name": "StatefulPartitionedCall/StatefulPartitionedCall/StatefulPartitionedCall/autoencoder_inference/StatefulPartitionedCall/rnn_fc_decoder_1/fc_stack_3/fc_10/dense_11/Tensordot/Reshape/shape", "shape": [2], "dtype": "int32"}, {"name": "StatefulPartitionedCall/StatefulPartitionedCall/StatefulPartitionedCall/autoencoder_inference/StatefulPartitionedCall/rnn_fc_decoder_1/fc_stack_3/fc_10/dense_11/Tensordot/shape", "shape": [3], "dtype": "int32"}, {"name": "StatefulPartitionedCall/StatefulPartitionedCall/StatefulPartitionedCall/autoencoder_inference/StatefulPartitionedCall/rnn_fc_decoder_1/fc_stack_3/fc_10/layer_normalization_10/Reshape/shape", "shape": [4], "dtype": "int32"}, {"name": "StatefulPartitionedCall/StatefulPartitionedCall/StatefulPartitionedCall/autoencoder_inference/StatefulPartitionedCall/rnn_fc_decoder_1/fc_stack_3/fc_10/layer_normalization_10/ones/packed", "shape": [1], "dtype": "int32"}, {"name": "StatefulPartitionedCall/StatefulPartitionedCall/StatefulPartitionedCall/autoencoder_inference/StatefulPartitionedCall/rnn_fc_decoder_1/fc_stack_3/fc_10/layer_normalization_10/ones/Const", "shape": [], "dtype": "float32"}, {"name": "StatefulPartitionedCall/StatefulPartitionedCall/StatefulPartitionedCall/autoencoder_inference/StatefulPartitionedCall/rnn_fc_decoder_1/fc_stack_3/fc_10/layer_normalization_10/zeros/packed", "shape": [1], "dtype": "int32"}, {"name": "StatefulPartitionedCall/StatefulPartitionedCall/StatefulPartitionedCall/autoencoder_inference/StatefulPartitionedCall/rnn_fc_decoder_1/fc_stack_3/fc_10/layer_normalization_10/zeros/Const", "shape": [], "dtype": "float32"}, {"name": "StatefulPartitionedCall/StatefulPartitionedCall/StatefulPartitionedCall/autoencoder_inference/StatefulPartitionedCall/rnn_fc_decoder_1/fc_stack_3/fc_10/layer_normalization_10/Const", "shape": [0], "dtype": "float32"}, {"name": "StatefulPartitionedCall/StatefulPartitionedCall/StatefulPartitionedCall/autoencoder_inference/StatefulPartitionedCall/rnn_fc_decoder_1/fc_stack_3/fc_10/layer_normalization_10/Const_1", "shape": [0], "dtype": "float32"}, {"name": "StatefulPartitionedCall/StatefulPartitionedCall/StatefulPartitionedCall/autoencoder_inference/StatefulPartitionedCall/rnn_fc_decoder_1/fc_stack_3/fc_10/layer_normalization_10/Shape", "shape": [3], "dtype": "int32"}, {"name": "StatefulPartitionedCall/StatefulPartitionedCall/StatefulPartitionedCall/autoencoder_inference/StatefulPartitionedCall/rnn_fc_decoder_1/fc_stack_3/fc_11/dense_12/Tensordot/Reshape/shape", "shape": [2], "dtype": "int32"}, {"name": "StatefulPartitionedCall/StatefulPartitionedCall/StatefulPartitionedCall/autoencoder_inference/StatefulPartitionedCall/rnn_fc_decoder_1/fc_stack_3/fc_11/dense_12/Tensordot/shape", "shape": [3], "dtype": "int32"}, {"name": "StatefulPartitionedCall/StatefulPartitionedCall/StatefulPartitionedCall/autoencoder_inference/StatefulPartitionedCall/rnn_fc_decoder_1/fc_stack_3/fc_11/layer_normalization_11/Reshape/shape", "shape": [4], "dtype": "int32"}, {"name": "StatefulPartitionedCall/StatefulPartitionedCall/StatefulPartitionedCall/autoencoder_inference/StatefulPartitionedCall/rnn_fc_decoder_1/fc_stack_3/fc_11/layer_normalization_11/ones/packed", "shape": [1], "dtype": "int32"}, {"name": "StatefulPartitionedCall/StatefulPartitionedCall/StatefulPartitionedCall/autoencoder_inference/StatefulPartitionedCall/rnn_fc_decoder_1/fc_stack_3/fc_11/layer_normalization_11/ones/Const", "shape": [], "dtype": "float32"}, {"name": "StatefulPartitionedCall/StatefulPartitionedCall/StatefulPartitionedCall/autoencoder_inference/StatefulPartitionedCall/rnn_fc_decoder_1/fc_stack_3/fc_11/layer_normalization_11/zeros/packed", "shape": [1], "dtype": "int32"}, {"name": "StatefulPartitionedCall/StatefulPartitionedCall/StatefulPartitionedCall/autoencoder_inference/StatefulPartitionedCall/rnn_fc_decoder_1/fc_stack_3/fc_11/layer_normalization_11/zeros/Const", "shape": [], "dtype": "float32"}, {"name": "StatefulPartitionedCall/StatefulPartitionedCall/StatefulPartitionedCall/autoencoder_inference/StatefulPartitionedCall/rnn_fc_decoder_1/fc_stack_3/fc_11/layer_normalization_11/Const", "shape": [0], "dtype": "float32"}, {"name": "StatefulPartitionedCall/StatefulPartitionedCall/StatefulPartitionedCall/autoencoder_inference/StatefulPartitionedCall/rnn_fc_decoder_1/fc_stack_3/fc_11/layer_normalization_11/Const_1", "shape": [0], "dtype": "float32"}, {"name": "StatefulPartitionedCall/StatefulPartitionedCall/StatefulPartitionedCall/autoencoder_inference/StatefulPartitionedCall/rnn_fc_decoder_1/fc_stack_3/fc_11/layer_normalization_11/Shape", "shape": [3], "dtype": "int32"}, {"name": "StatefulPartitionedCall/StatefulPartitionedCall/StatefulPartitionedCall/autoencoder_inference/StatefulPartitionedCall/f0_loudness_preprocessor_1/LessEqual_1/y", "shape": [], "dtype": "float32"}, {"name": "StatefulPartitionedCall/StatefulPartitionedCall/StatefulPartitionedCall/autoencoder_inference/StatefulPartitionedCall/f0_loudness_preprocessor_1/SelectV2_6/t", "shape": [], "dtype": "float32"}, {"name": "StatefulPartitionedCall/StatefulPartitionedCall/StatefulPartitionedCall/autoencoder_inference/StatefulPartitionedCall/f0_loudness_preprocessor_1/mul/x", "shape": [], "dtype": "float32"}, {"name": "StatefulPartitionedCall/StatefulPartitionedCall/StatefulPartitionedCall/autoencoder_inference/StatefulPartitionedCall/f0_loudness_preprocessor_1/LessEqual/y", "shape": [], "dtype": "float32"}, {"name": "StatefulPartitionedCall/StatefulPartitionedCall/StatefulPartitionedCall/autoencoder_inference/StatefulPartitionedCall/f0_loudness_preprocessor_1/SelectV2/t", "shape": [], "dtype": "float32"}, {"name": "StatefulPartitionedCall/StatefulPartitionedCall/StatefulPartitionedCall/autoencoder_inference/StatefulPartitionedCall/f0_loudness_preprocessor_1/strided_slice/stack", "shape": [2], "dtype": "int32"}, {"name": "StatefulPartitionedCall/StatefulPartitionedCall/StatefulPartitionedCall/autoencoder_inference/StatefulPartitionedCall/f0_loudness_preprocessor_1/strided_slice/stack_1", "shape": [2], "dtype": "int32"}, {"name": "StatefulPartitionedCall/StatefulPartitionedCall/StatefulPartitionedCall/autoencoder_inference/StatefulPartitionedCall/f0_loudness_preprocessor_1/strided_slice/stack_2", "shape": [2], "dtype": "int32"}, {"name": "StatefulPartitionedCall/StatefulPartitionedCall/StatefulPartitionedCall/autoencoder_inference/StatefulPartitionedCall/f0_loudness_preprocessor_1/strided_slice_1/stack", "shape": [3], "dtype": "int32"}, {"name": "StatefulPartitionedCall/StatefulPartitionedCall/StatefulPartitionedCall/autoencoder_inference/StatefulPartitionedCall/f0_loudness_preprocessor_1/strided_slice_1/stack_1", "shape": [3], "dtype": "int32"}, {"name": "StatefulPartitionedCall/StatefulPartitionedCall/StatefulPartitionedCall/autoencoder_inference/StatefulPartitionedCall/f0_loudness_preprocessor_1/strided_slice_1/stack_2", "shape": [3], "dtype": "int32"}, {"name": "StatefulPartitionedCall/StatefulPartitionedCall/StatefulPartitionedCall/autoencoder_inference/StatefulPartitionedCall/f0_loudness_preprocessor_1/strided_slice_2/stack", "shape": [4], "dtype": "int32"}, {"name": "StatefulPartitionedCall/StatefulPartitionedCall/StatefulPartitionedCall/autoencoder_inference/StatefulPartitionedCall/f0_loudness_preprocessor_1/strided_slice_2/stack_1", "shape": [4], "dtype": "int32"}, {"name": "StatefulPartitionedCall/StatefulPartitionedCall/StatefulPartitionedCall/autoencoder_inference/StatefulPartitionedCall/f0_loudness_preprocessor_1/strided_slice_2/stack_2", "shape": [4], "dtype": "int32"}, {"name": "StatefulPartitionedCall/StatefulPartitionedCall/StatefulPartitionedCall/autoencoder_inference/StatefulPartitionedCall/f0_loudness_preprocessor_1/resize/size", "shape": [2], "dtype": "int32"}, {"name": "StatefulPartitionedCall/StatefulPartitionedCall/StatefulPartitionedCall/autoencoder_inference/StatefulPartitionedCall/f0_loudness_preprocessor_1/strided_slice_3/stack", "shape": [4], "dtype": "int32"}, {"name": "StatefulPartitionedCall/StatefulPartitionedCall/StatefulPartitionedCall/autoencoder_inference/StatefulPartitionedCall/f0_loudness_preprocessor_1/strided_slice_3/stack_1", "shape": [4], "dtype": "int32"}, {"name": "StatefulPartitionedCall/StatefulPartitionedCall/StatefulPartitionedCall/autoencoder_inference/StatefulPartitionedCall/f0_loudness_preprocessor_1/strided_slice_3/stack_2", "shape": [4], "dtype": "int32"}, {"name": "ConstantFolding/StatefulPartitionedCall/StatefulPartitionedCall/StatefulPartitionedCall/autoencoder_inference/StatefulPartitionedCall/f0_loudness_preprocessor_1/truediv_recip", "shape": [], "dtype": "float32"}, {"name": "StatefulPartitionedCall/StatefulPartitionedCall/StatefulPartitionedCall/autoencoder_inference/StatefulPartitionedCall/f0_loudness_preprocessor_1/truediv_1", "shape": [], "dtype": "float32"}, {"name": "StatefulPartitionedCall/StatefulPartitionedCall/StatefulPartitionedCall/autoencoder_inference/StatefulPartitionedCall/f0_loudness_preprocessor_1/add/y", "shape": [], "dtype": "float32"}, {"name": "ConstantFolding/StatefulPartitionedCall/StatefulPartitionedCall/StatefulPartitionedCall/autoencoder_inference/StatefulPartitionedCall/f0_loudness_preprocessor_1/truediv_2_recip", "shape": [], "dtype": "float32"}, {"name": "StatefulPartitionedCall/StatefulPartitionedCall/StatefulPartitionedCall/autoencoder_inference/StatefulPartitionedCall/rnn_fc_decoder_1/fc_stack_4/fc_12/dense_13/Tensordot/Reshape/shape", "shape": [2], "dtype": "int32"}, {"name": "StatefulPartitionedCall/StatefulPartitionedCall/StatefulPartitionedCall/autoencoder_inference/StatefulPartitionedCall/rnn_fc_decoder_1/fc_stack_4/fc_12/dense_13/Tensordot/shape", "shape": [3], "dtype": "int32"}, {"name": "StatefulPartitionedCall/StatefulPartitionedCall/StatefulPartitionedCall/autoencoder_inference/StatefulPartitionedCall/rnn_fc_decoder_1/fc_stack_4/fc_12/layer_normalization_12/Reshape/shape", "shape": [4], "dtype": "int32"}, {"name": "StatefulPartitionedCall/StatefulPartitionedCall/StatefulPartitionedCall/autoencoder_inference/StatefulPartitionedCall/rnn_fc_decoder_1/fc_stack_4/fc_12/layer_normalization_12/ones/packed", "shape": [1], "dtype": "int32"}, {"name": "StatefulPartitionedCall/StatefulPartitionedCall/StatefulPartitionedCall/autoencoder_inference/StatefulPartitionedCall/rnn_fc_decoder_1/fc_stack_4/fc_12/layer_normalization_12/ones/Const", "shape": [], "dtype": "float32"}, {"name": "StatefulPartitionedCall/StatefulPartitionedCall/StatefulPartitionedCall/autoencoder_inference/StatefulPartitionedCall/rnn_fc_decoder_1/fc_stack_4/fc_12/layer_normalization_12/zeros/packed", "shape": [1], "dtype": "int32"}, {"name": "StatefulPartitionedCall/StatefulPartitionedCall/StatefulPartitionedCall/autoencoder_inference/StatefulPartitionedCall/rnn_fc_decoder_1/fc_stack_4/fc_12/layer_normalization_12/zeros/Const", "shape": [], "dtype": "float32"}, {"name": "StatefulPartitionedCall/StatefulPartitionedCall/StatefulPartitionedCall/autoencoder_inference/StatefulPartitionedCall/rnn_fc_decoder_1/fc_stack_4/fc_12/layer_normalization_12/Const", "shape": [0], "dtype": "float32"}, {"name": "StatefulPartitionedCall/StatefulPartitionedCall/StatefulPartitionedCall/autoencoder_inference/StatefulPartitionedCall/rnn_fc_decoder_1/fc_stack_4/fc_12/layer_normalization_12/Const_1", "shape": [0], "dtype": "float32"}, {"name": "StatefulPartitionedCall/StatefulPartitionedCall/StatefulPartitionedCall/autoencoder_inference/StatefulPartitionedCall/rnn_fc_decoder_1/fc_stack_4/fc_12/layer_normalization_12/Shape", "shape": [3], "dtype": "int32"}, {"name": "StatefulPartitionedCall/StatefulPartitionedCall/StatefulPartitionedCall/autoencoder_inference/StatefulPartitionedCall/rnn_fc_decoder_1/fc_stack_4/fc_13/dense_14/Tensordot/Reshape/shape", "shape": [2], "dtype": "int32"}, {"name": "StatefulPartitionedCall/StatefulPartitionedCall/StatefulPartitionedCall/autoencoder_inference/StatefulPartitionedCall/rnn_fc_decoder_1/fc_stack_4/fc_13/dense_14/Tensordot/shape", "shape": [3], "dtype": "int32"}, {"name": "StatefulPartitionedCall/StatefulPartitionedCall/StatefulPartitionedCall/autoencoder_inference/StatefulPartitionedCall/rnn_fc_decoder_1/fc_stack_4/fc_13/layer_normalization_13/Reshape/shape", "shape": [4], "dtype": "int32"}, {"name": "StatefulPartitionedCall/StatefulPartitionedCall/StatefulPartitionedCall/autoencoder_inference/StatefulPartitionedCall/rnn_fc_decoder_1/fc_stack_4/fc_13/layer_normalization_13/ones/packed", "shape": [1], "dtype": "int32"}, {"name": "StatefulPartitionedCall/StatefulPartitionedCall/StatefulPartitionedCall/autoencoder_inference/StatefulPartitionedCall/rnn_fc_decoder_1/fc_stack_4/fc_13/layer_normalization_13/ones/Const", "shape": [], "dtype": "float32"}, {"name": "StatefulPartitionedCall/StatefulPartitionedCall/StatefulPartitionedCall/autoencoder_inference/StatefulPartitionedCall/rnn_fc_decoder_1/fc_stack_4/fc_13/layer_normalization_13/zeros/packed", "shape": [1], "dtype": "int32"}, {"name": "StatefulPartitionedCall/StatefulPartitionedCall/StatefulPartitionedCall/autoencoder_inference/StatefulPartitionedCall/rnn_fc_decoder_1/fc_stack_4/fc_13/layer_normalization_13/zeros/Const", "shape": [], "dtype": "float32"}, {"name": "StatefulPartitionedCall/StatefulPartitionedCall/StatefulPartitionedCall/autoencoder_inference/StatefulPartitionedCall/rnn_fc_decoder_1/fc_stack_4/fc_13/layer_normalization_13/Const", "shape": [0], "dtype": "float32"}, {"name": "StatefulPartitionedCall/StatefulPartitionedCall/StatefulPartitionedCall/autoencoder_inference/StatefulPartitionedCall/rnn_fc_decoder_1/fc_stack_4/fc_13/layer_normalization_13/Const_1", "shape": [0], "dtype": "float32"}, {"name": "StatefulPartitionedCall/StatefulPartitionedCall/StatefulPartitionedCall/autoencoder_inference/StatefulPartitionedCall/rnn_fc_decoder_1/fc_stack_4/fc_13/layer_normalization_13/Shape", "shape": [3], "dtype": "int32"}, {"name": "StatefulPartitionedCall/StatefulPartitionedCall/StatefulPartitionedCall/autoencoder_inference/StatefulPartitionedCall/rnn_fc_decoder_1/fc_stack_4/fc_14/dense_15/Tensordot/Reshape/shape", "shape": [2], "dtype": "int32"}, {"name": "StatefulPartitionedCall/StatefulPartitionedCall/StatefulPartitionedCall/autoencoder_inference/StatefulPartitionedCall/rnn_fc_decoder_1/fc_stack_4/fc_14/dense_15/Tensordot/shape", "shape": [3], "dtype": "int32"}, {"name": "StatefulPartitionedCall/StatefulPartitionedCall/StatefulPartitionedCall/autoencoder_inference/StatefulPartitionedCall/rnn_fc_decoder_1/fc_stack_4/fc_14/layer_normalization_14/Reshape/shape", "shape": [4], "dtype": "int32"}, {"name": "StatefulPartitionedCall/StatefulPartitionedCall/StatefulPartitionedCall/autoencoder_inference/StatefulPartitionedCall/rnn_fc_decoder_1/fc_stack_4/fc_14/layer_normalization_14/ones/packed", "shape": [1], "dtype": "int32"}, {"name": "StatefulPartitionedCall/StatefulPartitionedCall/StatefulPartitionedCall/autoencoder_inference/StatefulPartitionedCall/rnn_fc_decoder_1/fc_stack_4/fc_14/layer_normalization_14/ones/Const", "shape": [], "dtype": "float32"}, {"name": "StatefulPartitionedCall/StatefulPartitionedCall/StatefulPartitionedCall/autoencoder_inference/StatefulPartitionedCall/rnn_fc_decoder_1/fc_stack_4/fc_14/layer_normalization_14/zeros/packed", "shape": [1], "dtype": "int32"}, {"name": "StatefulPartitionedCall/StatefulPartitionedCall/StatefulPartitionedCall/autoencoder_inference/StatefulPartitionedCall/rnn_fc_decoder_1/fc_stack_4/fc_14/layer_normalization_14/zeros/Const", "shape": [], "dtype": "float32"}, {"name": "StatefulPartitionedCall/StatefulPartitionedCall/StatefulPartitionedCall/autoencoder_inference/StatefulPartitionedCall/rnn_fc_decoder_1/fc_stack_4/fc_14/layer_normalization_14/Const", "shape": [0], "dtype": "float32"}, {"name": "StatefulPartitionedCall/StatefulPartitionedCall/StatefulPartitionedCall/autoencoder_inference/StatefulPartitionedCall/rnn_fc_decoder_1/fc_stack_4/fc_14/layer_normalization_14/Const_1", "shape": [0], "dtype": "float32"}, {"name": "StatefulPartitionedCall/StatefulPartitionedCall/StatefulPartitionedCall/autoencoder_inference/StatefulPartitionedCall/rnn_fc_decoder_1/fc_stack_4/fc_14/layer_normalization_14/Shape", "shape": [3], "dtype": "int32"}, {"name": "StatefulPartitionedCall/StatefulPartitionedCall/StatefulPartitionedCall/autoencoder_inference/StatefulPartitionedCall/rnn_fc_decoder_1/concat/axis", "shape": [], "dtype": "int32"}, {"name": "StatefulPartitionedCall/StatefulPartitionedCall/StatefulPartitionedCall/autoencoder_inference/StatefulPartitionedCall/rnn_fc_decoder_1/rnn_1/gru_1/PartitionedCall/transpose/perm", "shape": [3], "dtype": "int32"}, {"name": "StatefulPartitionedCall/StatefulPartitionedCall/StatefulPartitionedCall/autoencoder_inference/StatefulPartitionedCall/rnn_fc_decoder_1/rnn_1/gru_1/PartitionedCall/TensorArrayUnstack/TensorListFromTensor/element_shape", "shape": [2], "dtype": "int32"}, {"name": "Func/StatefulPartitionedCall/StatefulPartitionedCall/StatefulPartitionedCall/autoencoder_inference/StatefulPartitionedCall/rnn_fc_decoder_1/rnn_1/gru_1/PartitionedCall/input/_429", "shape": [1024, 1536], "dtype": "float32"}, {"name": "ConstantFolding/StatefulPartitionedCall/StatefulPartitionedCall/StatefulPartitionedCall/autoencoder_inference/StatefulPartitionedCall/rnn_fc_decoder_1/rnn_1/gru_1/PartitionedCall/unstack-folded-0", "shape": [1536], "dtype": "float32"}, {"name": "Func/StatefulPartitionedCall/StatefulPartitionedCall/StatefulPartitionedCall/autoencoder_inference/StatefulPartitionedCall/rnn_fc_decoder_1/rnn_1/gru_1/PartitionedCall/input/_430", "shape": [512, 1536], "dtype": "float32"}, {"name": "ConstantFolding/StatefulPartitionedCall/StatefulPartitionedCall/StatefulPartitionedCall/autoencoder_inference/StatefulPartitionedCall/rnn_fc_decoder_1/rnn_1/gru_1/PartitionedCall/unstack-folded-1", "shape": [1536], "dtype": "float32"}, {"name": "StatefulPartitionedCall/StatefulPartitionedCall/StatefulPartitionedCall/autoencoder_inference/StatefulPartitionedCall/rnn_fc_decoder_1/rnn_1/gru_1/PartitionedCall/TensorArrayV2Stack/TensorListStack/element_shape", "shape": [2], "dtype": "int32"}, {"name": "StatefulPartitionedCall/StatefulPartitionedCall/StatefulPartitionedCall/autoencoder_inference/StatefulPartitionedCall/rnn_fc_decoder_1/rnn_1/gru_1/PartitionedCall/transpose_1/perm", "shape": [3], "dtype": "int32"}, {"name": "StatefulPartitionedCall/StatefulPartitionedCall/StatefulPartitionedCall/autoencoder_inference/StatefulPartitionedCall/rnn_fc_decoder_1/concat_1/axis", "shape": [], "dtype": "int32"}, {"name": "StatefulPartitionedCall/StatefulPartitionedCall/StatefulPartitionedCall/autoencoder_inference/StatefulPartitionedCall/rnn_fc_decoder_1/fc_stack_5/fc_15/dense_16/Tensordot/Reshape/shape", "shape": [2], "dtype": "int32"}, {"name": "StatefulPartitionedCall/StatefulPartitionedCall/StatefulPartitionedCall/autoencoder_inference/StatefulPartitionedCall/rnn_fc_decoder_1/fc_stack_5/fc_15/dense_16/Tensordot/shape", "shape": [3], "dtype": "int32"}, {"name": "StatefulPartitionedCall/StatefulPartitionedCall/StatefulPartitionedCall/autoencoder_inference/StatefulPartitionedCall/rnn_fc_decoder_1/fc_stack_5/fc_15/layer_normalization_15/Reshape/shape", "shape": [4], "dtype": "int32"}, {"name": "StatefulPartitionedCall/StatefulPartitionedCall/StatefulPartitionedCall/autoencoder_inference/StatefulPartitionedCall/rnn_fc_decoder_1/fc_stack_5/fc_15/layer_normalization_15/ones/packed", "shape": [1], "dtype": "int32"}, {"name": "StatefulPartitionedCall/StatefulPartitionedCall/StatefulPartitionedCall/autoencoder_inference/StatefulPartitionedCall/rnn_fc_decoder_1/fc_stack_5/fc_15/layer_normalization_15/ones/Const", "shape": [], "dtype": "float32"}, {"name": "StatefulPartitionedCall/StatefulPartitionedCall/StatefulPartitionedCall/autoencoder_inference/StatefulPartitionedCall/rnn_fc_decoder_1/fc_stack_5/fc_15/layer_normalization_15/zeros/packed", "shape": [1], "dtype": "int32"}, {"name": "StatefulPartitionedCall/StatefulPartitionedCall/StatefulPartitionedCall/autoencoder_inference/StatefulPartitionedCall/rnn_fc_decoder_1/fc_stack_5/fc_15/layer_normalization_15/zeros/Const", "shape": [], "dtype": "float32"}, {"name": "StatefulPartitionedCall/StatefulPartitionedCall/StatefulPartitionedCall/autoencoder_inference/StatefulPartitionedCall/rnn_fc_decoder_1/fc_stack_5/fc_15/layer_normalization_15/Const", "shape": [0], "dtype": "float32"}, {"name": "StatefulPartitionedCall/StatefulPartitionedCall/StatefulPartitionedCall/autoencoder_inference/StatefulPartitionedCall/rnn_fc_decoder_1/fc_stack_5/fc_15/layer_normalization_15/Const_1", "shape": [0], "dtype": "float32"}, {"name": "StatefulPartitionedCall/StatefulPartitionedCall/StatefulPartitionedCall/autoencoder_inference/StatefulPartitionedCall/rnn_fc_decoder_1/fc_stack_5/fc_15/layer_normalization_15/Shape", "shape": [3], "dtype": "int32"}, {"name": "StatefulPartitionedCall/StatefulPartitionedCall/StatefulPartitionedCall/autoencoder_inference/StatefulPartitionedCall/rnn_fc_decoder_1/fc_stack_5/fc_16/dense_17/Tensordot/Reshape/shape", "shape": [2], "dtype": "int32"}, {"name": "StatefulPartitionedCall/StatefulPartitionedCall/StatefulPartitionedCall/autoencoder_inference/StatefulPartitionedCall/rnn_fc_decoder_1/fc_stack_5/fc_16/dense_17/Tensordot/shape", "shape": [3], "dtype": "int32"}, {"name": "StatefulPartitionedCall/StatefulPartitionedCall/StatefulPartitionedCall/autoencoder_inference/StatefulPartitionedCall/rnn_fc_decoder_1/fc_stack_5/fc_16/layer_normalization_16/Reshape/shape", "shape": [4], "dtype": "int32"}, {"name": "StatefulPartitionedCall/StatefulPartitionedCall/StatefulPartitionedCall/autoencoder_inference/StatefulPartitionedCall/rnn_fc_decoder_1/fc_stack_5/fc_16/layer_normalization_16/ones/packed", "shape": [1], "dtype": "int32"}, {"name": "StatefulPartitionedCall/StatefulPartitionedCall/StatefulPartitionedCall/autoencoder_inference/StatefulPartitionedCall/rnn_fc_decoder_1/fc_stack_5/fc_16/layer_normalization_16/ones/Const", "shape": [], "dtype": "float32"}, {"name": "StatefulPartitionedCall/StatefulPartitionedCall/StatefulPartitionedCall/autoencoder_inference/StatefulPartitionedCall/rnn_fc_decoder_1/fc_stack_5/fc_16/layer_normalization_16/zeros/packed", "shape": [1], "dtype": "int32"}, {"name": "StatefulPartitionedCall/StatefulPartitionedCall/StatefulPartitionedCall/autoencoder_inference/StatefulPartitionedCall/rnn_fc_decoder_1/fc_stack_5/fc_16/layer_normalization_16/zeros/Const", "shape": [], "dtype": "float32"}, {"name": "StatefulPartitionedCall/StatefulPartitionedCall/StatefulPartitionedCall/autoencoder_inference/StatefulPartitionedCall/rnn_fc_decoder_1/fc_stack_5/fc_16/layer_normalization_16/Const", "shape": [0], "dtype": "float32"}, {"name": "StatefulPartitionedCall/StatefulPartitionedCall/StatefulPartitionedCall/autoencoder_inference/StatefulPartitionedCall/rnn_fc_decoder_1/fc_stack_5/fc_16/layer_normalization_16/Const_1", "shape": [0], "dtype": "float32"}, {"name": "StatefulPartitionedCall/StatefulPartitionedCall/StatefulPartitionedCall/autoencoder_inference/StatefulPartitionedCall/rnn_fc_decoder_1/fc_stack_5/fc_16/layer_normalization_16/Shape", "shape": [3], "dtype": "int32"}, {"name": "StatefulPartitionedCall/StatefulPartitionedCall/StatefulPartitionedCall/autoencoder_inference/StatefulPartitionedCall/rnn_fc_decoder_1/fc_stack_5/fc_17/dense_18/Tensordot/Reshape/shape", "shape": [2], "dtype": "int32"}, {"name": "StatefulPartitionedCall/StatefulPartitionedCall/StatefulPartitionedCall/autoencoder_inference/StatefulPartitionedCall/rnn_fc_decoder_1/fc_stack_5/fc_17/dense_18/Tensordot/shape", "shape": [3], "dtype": "int32"}, {"name": "StatefulPartitionedCall/StatefulPartitionedCall/StatefulPartitionedCall/autoencoder_inference/StatefulPartitionedCall/rnn_fc_decoder_1/fc_stack_5/fc_17/layer_normalization_17/Reshape/shape", "shape": [4], "dtype": "int32"}, {"name": "StatefulPartitionedCall/StatefulPartitionedCall/StatefulPartitionedCall/autoencoder_inference/StatefulPartitionedCall/rnn_fc_decoder_1/fc_stack_5/fc_17/layer_normalization_17/ones/packed", "shape": [1], "dtype": "int32"}, {"name": "StatefulPartitionedCall/StatefulPartitionedCall/StatefulPartitionedCall/autoencoder_inference/StatefulPartitionedCall/rnn_fc_decoder_1/fc_stack_5/fc_17/layer_normalization_17/ones/Const", "shape": [], "dtype": "float32"}, {"name": "StatefulPartitionedCall/StatefulPartitionedCall/StatefulPartitionedCall/autoencoder_inference/StatefulPartitionedCall/rnn_fc_decoder_1/fc_stack_5/fc_17/layer_normalization_17/zeros/packed", "shape": [1], "dtype": "int32"}, {"name": "StatefulPartitionedCall/StatefulPartitionedCall/StatefulPartitionedCall/autoencoder_inference/StatefulPartitionedCall/rnn_fc_decoder_1/fc_stack_5/fc_17/layer_normalization_17/zeros/Const", "shape": [], "dtype": "float32"}, {"name": "StatefulPartitionedCall/StatefulPartitionedCall/StatefulPartitionedCall/autoencoder_inference/StatefulPartitionedCall/rnn_fc_decoder_1/fc_stack_5/fc_17/layer_normalization_17/Const", "shape": [0], "dtype": "float32"}, {"name": "StatefulPartitionedCall/StatefulPartitionedCall/StatefulPartitionedCall/autoencoder_inference/StatefulPartitionedCall/rnn_fc_decoder_1/fc_stack_5/fc_17/layer_normalization_17/Const_1", "shape": [0], "dtype": "float32"}, {"name": "StatefulPartitionedCall/StatefulPartitionedCall/StatefulPartitionedCall/autoencoder_inference/StatefulPartitionedCall/rnn_fc_decoder_1/fc_stack_5/fc_17/layer_normalization_17/Shape", "shape": [3], "dtype": "int32"}, {"name": "StatefulPartitionedCall/StatefulPartitionedCall/StatefulPartitionedCall/autoencoder_inference/StatefulPartitionedCall/rnn_fc_decoder_1/dense_19/Tensordot/Reshape/shape", "shape": [2], "dtype": "int32"}, {"name": "StatefulPartitionedCall/StatefulPartitionedCall/StatefulPartitionedCall/autoencoder_inference/StatefulPartitionedCall/rnn_fc_decoder_1/dense_19/Tensordot/shape", "shape": [3], "dtype": "int32"}, {"name": "StatefulPartitionedCall/StatefulPartitionedCall/StatefulPartitionedCall/autoencoder_inference/StatefulPartitionedCall/rnn_fc_decoder_1/Const", "shape": [3], "dtype": "int32"}, {"name": "StatefulPartitionedCall/StatefulPartitionedCall/StatefulPartitionedCall/autoencoder_inference/StatefulPartitionedCall/rnn_fc_decoder_1/split/split_dim", "shape": [], "dtype": "int32"}, {"name": "StatefulPartitionedCall/StatefulPartitionedCall/StatefulPartitionedCall/autoencoder_inference/StatefulPartitionedCall/processor_group_1/harmonic/Log", "shape": [], "dtype": "float32"}, {"name": "StatefulPartitionedCall/StatefulPartitionedCall/StatefulPartitionedCall/autoencoder_inference/StatefulPartitionedCall/processor_group_1/harmonic/add/y", "shape": [], "dtype": "float32"}, {"name": "StatefulPartitionedCall/StatefulPartitionedCall/StatefulPartitionedCall/autoencoder_inference/StatefulPartitionedCall/rnn_fc_decoder_1/fc_stack_5/fc_17/layer_normalization_17/Cast_1/ReadVariableOp", "shape": [512], "dtype": "float32"}, {"name": "StatefulPartitionedCall/StatefulPartitionedCall/StatefulPartitionedCall/autoencoder_inference/StatefulPartitionedCall/rnn_fc_decoder_1/dense_19/BiasAdd/ReadVariableOp", "shape": [126], "dtype": "float32"}, {"name": "StatefulPartitionedCall/StatefulPartitionedCall/StatefulPartitionedCall/autoencoder_inference/StatefulPartitionedCall/rnn_fc_decoder_1/dense_19/Tensordot/ReadVariableOp", "shape": [512, 126], "dtype": "float32"}, {"name": "StatefulPartitionedCall/StatefulPartitionedCall/StatefulPartitionedCall/autoencoder_inference/StatefulPartitionedCall/rnn_fc_decoder_1/fc_stack_3/fc_10/dense_11/BiasAdd/ReadVariableOp", "shape": [512], "dtype": "float32"}, {"name": "StatefulPartitionedCall/StatefulPartitionedCall/StatefulPartitionedCall/autoencoder_inference/StatefulPartitionedCall/rnn_fc_decoder_1/fc_stack_3/fc_10/dense_11/Tensordot/ReadVariableOp", "shape": [512, 512], "dtype": "float32"}, {"name": "StatefulPartitionedCall/StatefulPartitionedCall/StatefulPartitionedCall/autoencoder_inference/StatefulPartitionedCall/rnn_fc_decoder_1/fc_stack_3/fc_10/layer_normalization_10/Cast/ReadVariableOp", "shape": [512], "dtype": "float32"}, {"name": "StatefulPartitionedCall/StatefulPartitionedCall/StatefulPartitionedCall/autoencoder_inference/StatefulPartitionedCall/rnn_fc_decoder_1/fc_stack_3/fc_10/layer_normalization_10/Cast_1/ReadVariableOp", "shape": [512], "dtype": "float32"}, {"name": "StatefulPartitionedCall/StatefulPartitionedCall/StatefulPartitionedCall/autoencoder_inference/StatefulPartitionedCall/rnn_fc_decoder_1/fc_stack_3/fc_11/dense_12/BiasAdd/ReadVariableOp", "shape": [512], "dtype": "float32"}, {"name": "StatefulPartitionedCall/StatefulPartitionedCall/StatefulPartitionedCall/autoencoder_inference/StatefulPartitionedCall/rnn_fc_decoder_1/fc_stack_3/fc_11/dense_12/Tensordot/ReadVariableOp", "shape": [512, 512], "dtype": "float32"}, {"name": "StatefulPartitionedCall/StatefulPartitionedCall/StatefulPartitionedCall/autoencoder_inference/StatefulPartitionedCall/rnn_fc_decoder_1/fc_stack_3/fc_11/layer_normalization_11/Cast/ReadVariableOp", "shape": [512], "dtype": "float32"}, {"name": "StatefulPartitionedCall/StatefulPartitionedCall/StatefulPartitionedCall/autoencoder_inference/StatefulPartitionedCall/rnn_fc_decoder_1/fc_stack_3/fc_11/layer_normalization_11/Cast_1/ReadVariableOp", "shape": [512], "dtype": "float32"}, {"name": "StatefulPartitionedCall/StatefulPartitionedCall/StatefulPartitionedCall/autoencoder_inference/StatefulPartitionedCall/rnn_fc_decoder_1/fc_stack_3/fc_9/dense_10/BiasAdd/ReadVariableOp", "shape": [512], "dtype": "float32"}, {"name": "StatefulPartitionedCall/StatefulPartitionedCall/StatefulPartitionedCall/autoencoder_inference/StatefulPartitionedCall/rnn_fc_decoder_1/fc_stack_3/fc_9/dense_10/Tensordot/ReadVariableOp", "shape": [1, 512], "dtype": "float32"}, {"name": "StatefulPartitionedCall/StatefulPartitionedCall/StatefulPartitionedCall/autoencoder_inference/StatefulPartitionedCall/rnn_fc_decoder_1/fc_stack_3/fc_9/layer_normalization_9/Cast/ReadVariableOp", "shape": [512], "dtype": "float32"}, {"name": "StatefulPartitionedCall/StatefulPartitionedCall/StatefulPartitionedCall/autoencoder_inference/StatefulPartitionedCall/rnn_fc_decoder_1/fc_stack_3/fc_9/layer_normalization_9/Cast_1/ReadVariableOp", "shape": [512], "dtype": "float32"}, {"name": "StatefulPartitionedCall/StatefulPartitionedCall/StatefulPartitionedCall/autoencoder_inference/StatefulPartitionedCall/rnn_fc_decoder_1/fc_stack_4/fc_12/dense_13/BiasAdd/ReadVariableOp", "shape": [512], "dtype": "float32"}, {"name": "StatefulPartitionedCall/StatefulPartitionedCall/StatefulPartitionedCall/autoencoder_inference/StatefulPartitionedCall/rnn_fc_decoder_1/fc_stack_4/fc_12/dense_13/Tensordot/ReadVariableOp", "shape": [1, 512], "dtype": "float32"}, {"name": "StatefulPartitionedCall/StatefulPartitionedCall/StatefulPartitionedCall/autoencoder_inference/StatefulPartitionedCall/rnn_fc_decoder_1/fc_stack_4/fc_12/layer_normalization_12/Cast/ReadVariableOp", "shape": [512], "dtype": "float32"}, {"name": "StatefulPartitionedCall/StatefulPartitionedCall/StatefulPartitionedCall/autoencoder_inference/StatefulPartitionedCall/rnn_fc_decoder_1/fc_stack_4/fc_12/layer_normalization_12/Cast_1/ReadVariableOp", "shape": [512], "dtype": "float32"}, {"name": "StatefulPartitionedCall/StatefulPartitionedCall/StatefulPartitionedCall/autoencoder_inference/StatefulPartitionedCall/rnn_fc_decoder_1/fc_stack_4/fc_13/dense_14/BiasAdd/ReadVariableOp", "shape": [512], "dtype": "float32"}, {"name": "StatefulPartitionedCall/StatefulPartitionedCall/StatefulPartitionedCall/autoencoder_inference/StatefulPartitionedCall/rnn_fc_decoder_1/fc_stack_4/fc_13/dense_14/Tensordot/ReadVariableOp", "shape": [512, 512], "dtype": "float32"}, {"name": "StatefulPartitionedCall/StatefulPartitionedCall/StatefulPartitionedCall/autoencoder_inference/StatefulPartitionedCall/rnn_fc_decoder_1/fc_stack_4/fc_13/layer_normalization_13/Cast/ReadVariableOp", "shape": [512], "dtype": "float32"}, {"name": "StatefulPartitionedCall/StatefulPartitionedCall/StatefulPartitionedCall/autoencoder_inference/StatefulPartitionedCall/rnn_fc_decoder_1/fc_stack_4/fc_13/layer_normalization_13/Cast_1/ReadVariableOp", "shape": [512], "dtype": "float32"}, {"name": "StatefulPartitionedCall/StatefulPartitionedCall/StatefulPartitionedCall/autoencoder_inference/StatefulPartitionedCall/rnn_fc_decoder_1/fc_stack_4/fc_14/dense_15/BiasAdd/ReadVariableOp", "shape": [512], "dtype": "float32"}, {"name": "StatefulPartitionedCall/StatefulPartitionedCall/StatefulPartitionedCall/autoencoder_inference/StatefulPartitionedCall/rnn_fc_decoder_1/fc_stack_4/fc_14/dense_15/Tensordot/ReadVariableOp", "shape": [512, 512], "dtype": "float32"}, {"name": "StatefulPartitionedCall/StatefulPartitionedCall/StatefulPartitionedCall/autoencoder_inference/StatefulPartitionedCall/rnn_fc_decoder_1/fc_stack_4/fc_14/layer_normalization_14/Cast/ReadVariableOp", "shape": [512], "dtype": "float32"}, {"name": "StatefulPartitionedCall/StatefulPartitionedCall/StatefulPartitionedCall/autoencoder_inference/StatefulPartitionedCall/rnn_fc_decoder_1/fc_stack_4/fc_14/layer_normalization_14/Cast_1/ReadVariableOp", "shape": [512], "dtype": "float32"}, {"name": "StatefulPartitionedCall/StatefulPartitionedCall/StatefulPartitionedCall/autoencoder_inference/StatefulPartitionedCall/rnn_fc_decoder_1/fc_stack_5/fc_15/dense_16/BiasAdd/ReadVariableOp", "shape": [512], "dtype": "float32"}, {"name": "StatefulPartitionedCall/StatefulPartitionedCall/StatefulPartitionedCall/autoencoder_inference/StatefulPartitionedCall/rnn_fc_decoder_1/fc_stack_5/fc_15/dense_16/Tensordot/ReadVariableOp", "shape": [1536, 512], "dtype": "float32"}, {"name": "StatefulPartitionedCall/StatefulPartitionedCall/StatefulPartitionedCall/autoencoder_inference/StatefulPartitionedCall/rnn_fc_decoder_1/fc_stack_5/fc_15/layer_normalization_15/Cast/ReadVariableOp", "shape": [512], "dtype": "float32"}, {"name": "StatefulPartitionedCall/StatefulPartitionedCall/StatefulPartitionedCall/autoencoder_inference/StatefulPartitionedCall/rnn_fc_decoder_1/fc_stack_5/fc_15/layer_normalization_15/Cast_1/ReadVariableOp", "shape": [512], "dtype": "float32"}, {"name": "StatefulPartitionedCall/StatefulPartitionedCall/StatefulPartitionedCall/autoencoder_inference/StatefulPartitionedCall/rnn_fc_decoder_1/fc_stack_5/fc_16/dense_17/BiasAdd/ReadVariableOp", "shape": [512], "dtype": "float32"}, {"name": "StatefulPartitionedCall/StatefulPartitionedCall/StatefulPartitionedCall/autoencoder_inference/StatefulPartitionedCall/rnn_fc_decoder_1/fc_stack_5/fc_16/dense_17/Tensordot/ReadVariableOp", "shape": [512, 512], "dtype": "float32"}, {"name": "StatefulPartitionedCall/StatefulPartitionedCall/StatefulPartitionedCall/autoencoder_inference/StatefulPartitionedCall/rnn_fc_decoder_1/fc_stack_5/fc_16/layer_normalization_16/Cast/ReadVariableOp", "shape": [512], "dtype": "float32"}, {"name": "StatefulPartitionedCall/StatefulPartitionedCall/StatefulPartitionedCall/autoencoder_inference/StatefulPartitionedCall/rnn_fc_decoder_1/fc_stack_5/fc_16/layer_normalization_16/Cast_1/ReadVariableOp", "shape": [512], "dtype": "float32"}, {"name": "StatefulPartitionedCall/StatefulPartitionedCall/StatefulPartitionedCall/autoencoder_inference/StatefulPartitionedCall/rnn_fc_decoder_1/fc_stack_5/fc_17/dense_18/BiasAdd/ReadVariableOp", "shape": [512], "dtype": "float32"}, {"name": "StatefulPartitionedCall/StatefulPartitionedCall/StatefulPartitionedCall/autoencoder_inference/StatefulPartitionedCall/rnn_fc_decoder_1/fc_stack_5/fc_17/dense_18/Tensordot/ReadVariableOp", "shape": [512, 512], "dtype": "float32"}, {"name": "StatefulPartitionedCall/StatefulPartitionedCall/StatefulPartitionedCall/autoencoder_inference/StatefulPartitionedCall/rnn_fc_decoder_1/fc_stack_5/fc_17/layer_normalization_17/Cast/ReadVariableOp", "shape": [512], "dtype": "float32"}, {"name": "Identity_25", "shape": [1, 48000], "dtype": "float32"}, {"name": "Identity_28", "shape": [1, 48000], "dtype": "float32"}, {"name": "__inference_HiddenMarkovModel_posterior_mode_forward_log_probs_while_body_22781_211392/HiddenMarkovModel/posterior_mode/forward_log_probs/while/add_2/y", "shape": [], "dtype": "int32"}, {"name": "__inference_HiddenMarkovModel_posterior_mode_forward_log_probs_while_body_22781_211392/HiddenMarkovModel/posterior_mode/forward_log_probs/while/Max/reduction_indices", "shape": [], "dtype": "int32"}, {"name": "__inference_HiddenMarkovModel_posterior_mode_forward_log_probs_while_body_22781_211392/HiddenMarkovModel/posterior_mode/forward_log_probs/while/strided_slice/stack", "shape": [2], "dtype": "int32"}, {"name": "__inference_HiddenMarkovModel_posterior_mode_forward_log_probs_while_body_22781_211392/HiddenMarkovModel/posterior_mode/forward_log_probs/while/strided_slice/stack_1", "shape": [2], "dtype": "int32"}, {"name": "__inference_HiddenMarkovModel_posterior_mode_forward_log_probs_while_body_22781_211392/HiddenMarkovModel/posterior_mode/forward_log_probs/while/strided_slice/stack_2", "shape": [2], "dtype": "int32"}, {"name": "__inference_HiddenMarkovModel_posterior_mode_forward_log_probs_while_body_22781_211392/HiddenMarkovModel/posterior_mode/forward_log_probs/while/TensorArrayV2Read/TensorListGetItem/element_shape", "shape": [2], "dtype": "int32"}, {"name": "__inference_HiddenMarkovModel_posterior_mode_forward_log_probs_while_body_22781_211392/HiddenMarkovModel/posterior_mode/forward_log_probs/while/strided_slice_1/stack", "shape": [3], "dtype": "int32"}, {"name": "__inference_HiddenMarkovModel_posterior_mode_forward_log_probs_while_body_22781_211392/HiddenMarkovModel/posterior_mode/forward_log_probs/while/strided_slice_1/stack_1", "shape": [3], "dtype": "int32"}, {"name": "__inference_HiddenMarkovModel_posterior_mode_forward_log_probs_while_body_22781_211392/HiddenMarkovModel/posterior_mode/forward_log_probs/while/strided_slice_1/stack_2", "shape": [3], "dtype": "int32"}, {"name": "__inference_HiddenMarkovModel_posterior_mode_forward_log_probs_while_body_22781_211392/HiddenMarkovModel/posterior_mode/forward_log_probs/while/ArgMax/dimension", "shape": [], "dtype": "int32"}, {"name": "__inference_HiddenMarkovModel_posterior_mode_forward_log_probs_while_body_22781_211392/HiddenMarkovModel/posterior_mode/forward_log_probs/while/add_3/y", "shape": [], "dtype": "int32"}, {"name": "__inference_while_body_335816_217630/while/add_4/y", "shape": [], "dtype": "int32"}, {"name": "__inference_while_body_335816_217630/while/sub/x", "shape": [], "dtype": "float32"}, {"name": "__inference_while_body_335816_217630/while/split/split_dim", "shape": [], "dtype": "int32"}, {"name": "__inference_while_body_335816_217630/while/TensorArrayV2Read/TensorListGetItem/element_shape", "shape": [2], "dtype": "int32"}, {"name": "__inference_while_body_335816_217630/while/split_1/split_dim", "shape": [], "dtype": "int32"}, {"name": "__inference_while_body_335816_217630/while/add_5/y", "shape": [], "dtype": "int32"}, {"name": "__inference_HiddenMarkovModel_posterior_mode_scan_while_body_22874_214492/HiddenMarkovModel/posterior_mode/scan/while/sub/y", "shape": [], "dtype": "int32"}, {"name": "__inference_HiddenMarkovModel_posterior_mode_scan_while_body_22874_214492/HiddenMarkovModel/posterior_mode/scan/while/TensorArrayV2Read/TensorListGetItem/element_shape", "shape": [2], "dtype": "int32"}, {"name": "__inference_HiddenMarkovModel_posterior_mode_scan_while_body_22874_214492/HiddenMarkovModel/posterior_mode/scan/while/one_hot/on_value", "shape": [], "dtype": "int32"}, {"name": "__inference_HiddenMarkovModel_posterior_mode_scan_while_body_22874_214492/HiddenMarkovModel/posterior_mode/scan/while/one_hot/off_value", "shape": [], "dtype": "int32"}, {"name": "__inference_HiddenMarkovModel_posterior_mode_scan_while_body_22874_214492/HiddenMarkovModel/posterior_mode/scan/while/Sum/reduction_indices", "shape": [], "dtype": "int32"}, {"name": "__inference_HiddenMarkovModel_posterior_mode_scan_while_body_22874_214492/HiddenMarkovModel/posterior_mode/scan/while/add/y", "shape": [], "dtype": "int32"}, {"name": "__inference_HiddenMarkovModel_posterior_mode_scan_while_cond_22873_210129/HiddenMarkovModel/posterior_mode/scan/while/GreaterEqual/y", "shape": [], "dtype": "int32"}]}]}